ai/lstm_model_94.pth (torch, 129152 bytes, 10 tensors)

lstm1.weight_ih_l0 f4 [256, 6]
00000000: b3a3 58bb ad26 60bb 5b5f e73d 1208 e03d
00000010: f08b a03d cab0 a73d 27bf 1cbd 13c8 25bd
00000020: dfe6 37be 090f 8ebc 61f3 2d3d 41b4 743e
00000030: de4f 52bd 9550 473d a1b7 6bbd c505 3dbe
00000040: 22a6 ad3d a5b8 8e3b 3604 263e 0000 ca3a
00000050: 7cdf dc3c 3f7e 07be 8aad 4c3c 49e3 3c3e
00000060: 2eb6 053d d045 99bd 38fa 003e 03b2 8abd
00000070: 20af 563c 4dfe 433c c007 a6bc 111d dbbd
00000080: d6f6 83bd 25ff 2bbe 1ff1 5b3b 62f9 323e
00000090: dd01 eebc 1444 3f3d 61d1 7ebc 510b 4d3e
000000a0: dd12 dcbd c10f bbbd cfe9 833e e167 013e
000000b0: bbf0 8e3c c556 70bc f5da 50bd feba 69bd
000000c0: 0c8b 0c3d ec95 0f3d 8a3c 103c b23d dd3c
000000d0: d7f9 c6bd f2ab 61be e05c 98bc b384 c03c
000000e0: 4e8d 0d3d e4a3 aabd 59d5 f13d c016 403d
000000f0: 9efc 6b3d 92f1 b53d 2887 19bd 354e 823d
00000100: fe62 083e 2f71 97bd 357b 2b3e 18da a83d
00000110: c7a3 373e bae1 cd3c b2ec afbb af51 c83d
00000120: 9b5b 2d3d a4ad 9cbd f336 0a3e 38dd 27bc
00000130: 3e5c 0ebd 95e1 3dbe c1af 27bd 065f 4d3d
00000140: 4be1 003d a9c9 253e 7494 2dbd 6ef4 363d
00000150: b39c 80bd 12a6 353a 24a5 40bd 6829 38bd
00000160: 3c12 09bd be86 573e ef64 edbd c3e9 52bb
00000170: bab2 fa3d 5063 1dbe c537 c33c 3ab8 bebd
00000180: 11d5 703d 121a b53c cea2 9dbd 1b3d 7ebe
00000190: 2565 7bbd 1b3a bf3d 73a9 afbd b2fe b9bb
000001a0: f01c 9d3c 7a20 073e 478d 173d 7810 383e
000001b0: df6a c93d 2ed7 0abe c8c2 203e c8a2 c6bd
000001c0: e362 bcbc a9a6 243b 5ef3 ed3d b9df 76bc
000001d0: 5372 bfbc 92b7 203e 145a 58bd ac78 243e
000001e0: 9423 9a3b b918 cdbd f70a 053e 2d44 43bd
000001f0: 0e88 783d be39 473e 9752 0dbc 7bb8 733d
00000200: 4ebb 353e 6a95 e73d fd30 0b3e 00b6 8dbd
00000210: c4bc 9c3c 5959 4cbd 8098 8cbd 9c8b 8dbd
00000220: 19b1 b43d f6e6 3dbe 418d a0bc 1cb4 08bd
00000230: 1aaf e3bb 247a 923d 3928 303c a344 15be
00000240: 01b9 4dbd 5581 96bc 5af3 97bc ef91 d73b
00000250: 5177 973c 2fe3 3a3c 3f16 6a3c 187a 3dbd
00000260: 3d18 ba3d a0b4 5fbe 4cc0 0bbd a1f0 d3bd
00000270: 9d9f 863b 7904 efbc 23b4 5cbd 9304 b03b
00000280: 95b9 38be a3db 063e 4b04 b83d 156f a63d
00000290: 132e 8b3d 75a6 9bbd 8f2c 683e 7723 01be
000002a0: d583 cfbd d01c a83c dca3 783e 6d31 de3d
000002b0: 2e13 8fbd ad55 883d 4e21 2ebc 8376 f93d
000002c0: 3ada 3b3e 343a c03d d15b a93b dca4 0f3b
000002d0: 76aa c93c d7af 9fbd 7ba7 6a3d 1aee 03bd
000002e0: eca5 a1bd 755e 2d3e c8d7 a5bd 9b92 473d
000002f0: bd98 8cbc 6ccb 71bd d829 37be 6ac9 333e
00000300: 6c4a a83d c36b 273d 833c 8d3d 4bb3 053e
00000310: bb3f 833d 0b07 073e a6f1 13be 2e80 e23b
00000320: 7527 3d3d 08c7 fe3c 3f5c 343e 54f8 a9bd
00000330: f5f3 033e ef3d 9339 b2d9 50bd c1e2 273c
00000340: af13 8b3c ed92 333d fd34 80bb 92cc b7ba
00000350: 1a6d 46be 273c 093d a05a a2bd 295f 893d
00000360: 6c8c 9fbd 5c00 cf3d 2c85 1cbe 8c7f 033d
00000370: 1039 e3bd e72f b7bd 1f5f 13bd 813a de3c
00000380: 7db5 babd 8b66 ad3d 0995 3abe 5b0e 93bd
00000390: 4912 ff3d 2077 f73a 6ed4 f93c 6e0e c6bd
000003a0: 88df 01bc ccf7 2abe ea6a 9f3c 96b2 e13d
000003b0: e8f2 efbd b61d ee3d ab8a 37bd ea9a da3d
000003c0: 60d0 69bc 5cd8 303d 6256 30be 9840 c8bd
000003d0: 53aa 723c 55c8 adbe fcdc 7f3c b755 94bd
000003e0: ea66 6fbd cc86 e5bc 42db 4c3e 2740 bcbc
000003f0: 7184 9ebd 88e7 803b 2469 21be fb37 903d
-0.0033056557 -0.003420274 0.112974845 0.10939039 0.07839191 0.08188017 -0.038268235 -0.04047401
-0.17959164 -0.017341154 0.042468432 0.23896886 -0.0513457 0.048660833 -0.05754817 -0.18459232
0.08478953 0.0043555074 0.16212544 0.0015411377 0.026962034 -0.13231753 0.012492547 0.18446077
0.032644443 -0.07484019 0.12595451 -0.06772234 0.0131032765 0.0119624855 -0.020267367 -0.10698903
-0.064435646 -0.16796549 0.0033560467 0.17477944 -0.029053623 0.046695784 -0.0155528495 0.20023848
-0.107457854 -0.09133864 0.2576432 0.12637283 0.017448774 -0.014669125 -0.050990064 -0.057063095
0.034312293 0.035055086 0.008803496 0.027006958 -0.09715622 -0.22038248 -0.018598974 0.023500776
0.034558587 -0.08332041 0.11808271 0.046896696 0.05761396 0.088839665 -0.03748241 0.06362573
0.13319013 -0.07394635 0.16746219 0.08244723 0.1793357 0.025132049 -0.0053687925 0.09781205
0.04232369 -0.07650307 0.13497524 -0.010245614 -0.034755938 -0.18543084 -0.040939096 0.05013945
0.031464856 0.16190208 -0.042377904 0.0446667 -0.06279888 0.00069293485 -0.04703249 -0.044961363
-0.033464655 0.21047494 -0.11591517 -0.003218279 0.12241121 -0.15369916 0.023830304 -0.09312482
0.058796946 0.022107158 -0.07697068 -0.24827997 -0.061375756 0.093372546 -0.08577242 -0.005676114
0.019178838 0.13195983 0.036999967 0.17975032 0.09834837 -0.13558647 0.15699303 -0.09699017
-0.022996372 0.0025123751 0.11618684 -0.015067988 -0.023369944 0.15695027 -0.05282028 0.16061658
0.0047039483 -0.10014481 0.12992464 -0.04767244 0.060676627 0.1945562 -0.008625648 0.059502106
0.17747232 0.11307795 0.13592906 -0.06919479 0.01913298 -0.049889896 -0.068650246 -0.06911394
0.08822841 -0.18545136 -0.019598605 -0.03337489 -0.006948364 0.07152203 0.010751777 -0.14576964
-0.05022526 -0.018372217 -0.018548656 0.006578676 0.018489512 0.011406704 0.01428753 -0.046259016
0.09086654 -0.21846247 -0.034118935 -0.10348631 0.004108383 -0.029176937 -0.05388273 0.005371639
-0.18039544 0.13169722 0.08985194 0.08126656 0.06795897 -0.076001085 0.22673248 -0.12611185
-0.10132567 0.020521551 0.24281257 0.10849271 -0.0698608 0.06656966 -0.010628058 0.121808074
0.18344966 0.09386101 0.005168416 0.0021918332 0.024617415 -0.07797211 0.057288628 -0.032209493
-0.07892975 0.16930564 -0.08097798 0.0487238 -0.017162675 -0.05903189 -0.17887056 0.17557302
0.0821732 0.040874254 0.06896307 0.13056676 0.0640864 0.1318628 -0.1444765 0.006912253
0.046180207 0.031100765 0.17613314 -0.08299318 0.12886031 0.0002808417 -0.05098886 0.010246933
0.01697716 0.04384129 -0.0039125667 -0.0014022759 -0.19377556 0.03350463 -0.079274416 0.067076035
-0.07790455 0.101074904 -0.15285176 0.03210406 -0.11094868 -0.089446835 -0.035979386 0.027127506
-0.091166474 0.08466824 -0.18220915 -0.071804725 0.124546595 0.0018880107 0.030496802 -0.09670721
-0.007926829 -0.1669609 0.01946016 0.11020391 -0.117162526 0.11626761 -0.04480998 0.10674079
-0.014270872 0.043175086 -0.17220452 -0.09777945 0.014811116 -0.33941904 0.015616652 -0.07242911
-0.058447756 -0.028018378 0.20005515 -0.022979809 -0.07740105 0.0039338507 -0.15762764 0.070419274

lstm1.weight_hh_l0 f4 [256, 64]
00000000: 8726 af3c 7f0c d13d b628 b43d c3fa 1fbe
00000010: d735 aa3d 964a 3e3e 340b 36bd 1195 cc3b
00000020: c6c5 8abd 7102 063e 7c54 b3bd d163 4f3b
00000030: 5392 e9bd 5068 90bd 5f86 b13d f5d8 f43b
00000040: 97f7 bcbd 7e1f ea3d 876f 173d 4a75 823d
00000050: a4c9 313e 20a3 be3a 5b0d 393d 155e 393d
00000060: 8de5 c73b 0980 073e c66a b539 0c29 1ebd
00000070: 5059 64bd ccb3 04bd fc28 123e f7f1 b9bd
00000080: d6cb 04be 1d42 e8ba f6c0 433e 915c d1bb
00000090: 2da6 7a3d 37ca 8e3d d94e 48bd d0a9 693e
000000a0: 61b4 05be 5d4d 4a3e 5511 353d 08c2 c0bd
000000b0: 8b00 dd3d e3c2 10be 0ecf d73c c6ac 4abd
000000c0: 0f69 43bd 15fb 5dbe a9a1 233e 5239 613e
000000d0: cc59 2abd 2371 d0bd ebab 393d 8734 383d
000000e0: 462c 243d 376f 2fbe bbdb 8a3b c84f 993d
000000f0: 7e15 19bc 5900 b03d 4a2f 5b3c 2eed 343e
00000100: 71bf a33e 81d6 63bd c70d 08be db5a f0bc
00000110: 4e4f 96bb 3300 f03d fc36 6a3e 1ccd 4ebd
00000120: 9d28 81bc 29eb a2be 6cf3 65bd 5f40 a437
00000130: 9e5c c63e 3fc1 c83c 91f8 b9bd 9eb6 74be
00000140: d36e 55be 3117 39bd 47c4 793e 8286 20be
00000150: 8fdb c83e 9e02 5fbe bd9a 923d 91f2 8ebe
00000160: 8c0e babd d54e d1be 6008 783d 65d8 20be
00000170: 163f d03d 4b46 003e 4fff 9dbe 30e6 593d
00000180: fdef 61bd 809a 3a3d b69a e63d d3e8 70be
00000190: 2840 b13e f227 c3be 476b d0bd ced2 03be
000001a0: 529a 173d 355e 1c3d 74fc 903e 4615 2ebe
000001b0: c2cb 733e 32be 923e 5370 903e bd16 543d
000001c0: c27b 0b3e 548a b4bd 0795 8fbe 26b4 403e
000001d0: 72ba e73c 3f88 92bd 3618 81be 9b27 e43d
000001e0: 6cfd 03be 1a1d 0bbd da41 24bd 2de2 bebe
000001f0: 0ab4 ee3d 308f 1fbe 6d74 7fbe ec71 d43d
00000200: 86d2 3b3b bc50 cebd 31fc 423d 1953 c03d
00000210: 5baa 9ebc 7903 4f3e b0f9 7e3c 481d 64bd
00000220: 47ca 65bc f5ce 91be 55bf 8ebe 1310 abbd
00000230: e4ae 753e 7a88 663c 9753 77bd 7e5c 853d
00000240: f85a 07be 4e05 81bd f07d 47bd cf0a b53c
00000250: ed40 8f3e 1e7b de3d 3f47 1e3d f53c bdbd
00000260: 54dd c1bd f42b 5fbe 6dc3 ffbd d697 79bd
00000270: 647a db3d bf06 4fbd 4615 3ebe 16e4 093e
00000280: 7bf4 3b3e 6c81 cdbc 5225 19be 2aed a5bd
00000290: 3e8e 2a3c 2a8f 4f3e 9d46 173e 2724 063e
000002a0: 24bf 703d bb37 3bbd e3bd 9b3d 5d79 92be
000002b0: 8467 21be 3a35 9cbb f0a5 35ba 20af 1a3d
000002c0: 009a 773d 2378 b33e ea31 adbd 1db7 813d
000002d0: 79ce cf3d b0b6 55be 069d 61bd f24d 673d
000002e0: 3c6b abbd a92f 86bc cbb0 223e 7e9e e93d
000002f0: 533e a73d a60a cebd 4e97 1dbe 69e6 49bd
00000300: 1498 b6bd 4832 6b3e 92cc 87be d131 cabd
00000310: 245e a2bd 1d85 49be 3898 e73c ad6f d9bd
00000320: 72b9 aebd 58ac 153e 8724 bb3d e60a 503d
00000330: 11dc 8abd e5bf 113d 12fe cb3d e528 943d
00000340: 2c81 fd3c ce4e 463e f6b5 95ba 55ff 843b
00000350: 067e 1bbe 8eed 81bd c6f0 18be 5f9c d3bc
00000360: e427 443d 3e29 263e 43ee 413d 3cb6 023d
00000370: 2334 f7bd b3f0 1f3d 29d3 8b3e c909 243d
00000380: 7926 e83c 79ee eabd a9fe 333d d54b a8bd
00000390: dc5f 0fbc 0b51 40be d428 93bd c8fd bf3c
000003a0: 495f d33e d081 2cbd cb18 703e da60 4e3c
000003b0: 1480 a33c 4878 b73d 10ef 1ebc 0ebe a5bd
000003c0: ac2d 06be bd4c 9dbe adbf 9c3d e018 793d
000003d0: e51a 393e d195 023d c2a7 e8bd 357b b23d
000003e0: 297e aabd ef98 bebc 91c6 2fbe 0c19 cdbd
000003f0: 6b4d a83b 9469 053d adb6 423c ff43 42be
0.021380676 0.102074616 0.087968275 -0.15623002 0.083110504 0.1858314 -0.044444278 0.006243356
-0.067760035 0.13086869 -0.087563485 0.0031645189 -0.11404862 -0.07051146 0.086682074 0.0074721524
-0.092269115 0.11431788 0.036971595 0.06370027 0.17362076 0.0014544465 0.045178752 0.04525574
0.0061003626 0.13232435 0.00034602563 -0.038613364 -0.055749238 -0.03239803 0.14273447 -0.09079354
-0.12968382 -0.0017719899 0.19116578 -0.0063892086 0.061193634 0.06972163 -0.04890332 0.22818685
-0.1305709 0.19756074 0.044205982 -0.094120085 0.10791119 -0.14136843 0.026343849 -0.049481176
-0.047707614 -0.21677811 0.15979637 0.21994522 -0.041589543 -0.10177829 0.04532997 0.04497197
0.040081285 -0.17132269 0.0042376197 0.0748592 -0.009343503 0.08593816 0.013377974 0.17668602
0.31981996 -0.05562449 -0.13286506 -0.029340198 -0.0045870906 0.11718788 0.22872537 -0.050488576
-0.015766436 -0.31820038 -0.05614035 1.9580299e-05 0.38742536 0.02450621 -0.090806134 -0.23897788
-0.20843057 -0.045188133 0.2439128 -0.1567631 0.3923001 -0.21778342 0.0715842 -0.27919438
-0.09084806 -0.40880457 0.060554862 -0.15707548 0.10168283 0.12526815 -0.30858847 0.05319804
-0.05516051 0.0455575 0.112599775 -0.23526315 0.3461926 -0.38116413 -0.101767115 -0.12873384
0.037012406 0.03817578 0.28317606 -0.17000303 0.23808196 0.28660733 0.28210697 0.051779497
0.13621429 -0.088154465 -0.28043386 0.18818721 0.028287146 -0.07154893 -0.25213784 0.11140367
-0.12889642 -0.0339633 -0.040101863 -0.37281933 0.116554335 -0.15581965 -0.24946757 0.103732914
0.0028659417 -0.100739926 0.04760379 0.093908496 -0.019368341 0.20216168 0.01556246 -0.055691987
-0.014025277 -0.28478208 -0.2788035 -0.08352675 0.23992497 0.0140706245 -0.06038245 0.06511782
-0.13218296 -0.0629984 -0.048704088 0.02209988 0.27979222 0.108633265 0.038642164 -0.09240142
-0.09466043 -0.2179411 -0.124884464 -0.060935818 0.107167035 -0.050543543 -0.18562803 0.13465914
0.1835498 -0.025086127 -0.14955643 -0.08101876 0.01040989 0.20269457 0.1477303 0.13099729
0.058776036 -0.045707446 0.076045774 -0.28608218 -0.15762144 -0.0047670873 -0.00069293287 0.03776467
0.0604496 0.35052595 -0.08456786 0.06333754 0.101468034 -0.20870471 -0.05508139 0.05647082
-0.08370063 -0.016380148 0.15887754 0.11407183 0.08166184 -0.10060625 -0.1538975 -0.049292002
-0.08915725 0.229684 -0.26523262 -0.09872783 -0.07928112 -0.19679685 0.028270826 -0.106170036
-0.08531465 0.14616525 0.091378264 0.050791644 -0.067802556 0.035583396 0.099605694 0.072343625
0.030945383 0.19365999 -0.0011422026 0.0040587583 -0.15184793 -0.06344138 -0.14935598 -0.0258314
0.047889605 0.1622667 0.047346365 0.031912073 -0.12070491 0.039047908 0.2730954 0.040048394
0.028338658 -0.11471266 0.043944035 -0.08217589 -0.008750882 -0.18780915 -0.07185522 0.023436442
0.41283634 -0.042115986 0.23446958 0.012596333 0.019958533 0.08958489 -0.009700552 -0.08092891
-0.1310336 -0.3072261 0.07653747 0.06081474 0.18076666 0.031881157 -0.11360122 0.08714906
-0.083248444 -0.023266284 -0.17165591 -0.10014543 0.005136182 0.03257139 0.011884374 -0.18971251

lstm1.bias_ih_l0 f4 [256]
00000000: 99d2 5c3b 3fce 26be f702 c93d dbac bdbb
00000010: 323d e73b a941 b7bc 725d c93a e551 a53d
00000020: 65dd 093d 3942 a9bd 4ff6 393c 3049 24bc
00000030: 247e 013e 5575 57bc 7ed4 ec3d 32de 68bd
00000040: d9d4 17bd 4a8d 673d a38e 163e c1fa 4b3d
00000050: 4456 a4bc 066e 1b3e a353 ec3d 569a 81bd
00000060: eaf5 233d 2232 813d 429d 703d 5c07 14bd
00000070: 7e15 bcbb 3671 d83d f771 733d e2c5 bfbd
00000080: 5ac9 f4bd c475 f03d de37 ad3b f6df c7bd
00000090: da1d 0e3e a400 66bc 324c ae3d 5671 08be
000000a0: 2231 873d c267 29be 283c 9abc 6811 f5bd
000000b0: 264b adbd 8cd3 653e f74f 0abd 12e1 a3bd
000000c0: bfb6 453d 95b3 1c3e 4b51 eb3d c8a6 13bc
000000d0: dc2f 9b3d ece3 04be b973 29bd 3b6c 1f3e
000000e0: 8e47 cbbd da29 103e 1e5b 09bd 3107 4e3d
000000f0: 7fc7 2a3e 5a1b 863d 2988 103e 34e4 6ebd
00000100: 0221 99bd cd8d 643c a2a8 593d 9b1a 653b
00000110: 167e eb3d c005 b73d 58a9 923d 2630 8b3d
00000120: 5110 b23d e1cb 103e a1da 1d3d 8cef 403c
00000130: ecf0 e63d 7c33 00bd 11c2 4c3d 4bb0 a13d
00000140: 7d1c 84bd 9b1a 683a ad5f 9abd b11c 7fbc
00000150: a3a5 8b3c 484f e03d 12d4 d03c 312f 1a3e
00000160: 2c9b 6a3d ac57 d13d dbe5 5d3e 0542 bdbc
00000170: 3317 8a3d 63c2 0b3e 6938 cb3d 737b 69bd
00000180: c7b4 3e3e f524 403b 8067 ab3c 6262 553e
00000190: c4e3 e53d 1ddc ffbd a521 f63d 8875 afbd
000001a0: 76d7 be3d 0c5b 063e 4851 163e e7f1 5b3d
000001b0: 7a41 cfbd 8fd9 03be a9d5 df3d aa29 0f3c
000001c0: c8be 5ebd d10b 95bd 34bd 513d 8966 a4bc
000001d0: e276 1ebe b927 1b3e f747 963d 4476 f0bd
000001e0: e926 f2bd 9b76 fe3d 7986 6a3d a5ae e43c
000001f0: eb57 533d b2ab 35bd 6c2b d83d 32a9 64bc
00000200: 2df0 473b bb41 ff3b e82e 47bb 345c d1bd
00000210: 423f c43d ded8 90bd 5c29 7abd 9469 573d
00000220: 68fd e23d ee52 163e 6fb4 cc3b fb27 383b
00000230: 26e0 2dbe 6f85 ee3c fa45 c73d e215 e63d
00000240: 9622 d63b e257 4abe cbfb da3c 72ff e3bc
00000250: 4859 55bd db41 a43d 2e6e 92bd 65b9 f2bd
00000260: 9f68 a4bd 509f 143d ca52 413e 5f74 373d
00000270: 8099 8fbd d473 88bc 9105 aebd 79ff 9e3d
00000280: c102 8e3c 6aa0 913b 47e9 92bd ba9a 253e
00000290: fb64 ed3d fa12 a83d 3e60 5f3c 13ab 52bd
000002a0: 7b15 e4bd 1e88 2bbd ea12 6cbd 388e a7bd
000002b0: b917 36bc c188 293e 031d e7bd 380e 04be
000002c0: 4189 133e 30ed ad3d 13d1 97bd cff6 19bc
000002d0: 2ae6 823d 8d64 29bd 8fdf d8bc 8fca 0a3e
000002e0: c71c 57bc d597 113e b865 60bb f8fb df3d
000002f0: 4503 27be 189b 953c 610b 093e def2 22bd
00000300: 3d38 e0bc 174b 013e 71d6 4fbd 2a8e 963c
00000310: 034b c6bd b5ee 643e 9358 e33d a236 093d
00000320: 38cb bbbd 575b ea3d d28e 54bd 03da edbd
00000330: 9a18 bf3a 86b7 17bd 227f fe3d 2e0e 87bd
00000340: e8e7 c13d fc96 32ba 3b9d 683d 4785 403d
00000350: 157e 99bb e645 e6bd e0bc 383e beee e73d
00000360: 5ee0 443e ac1c 443e 3247 5d3d b1b7 5b3d
00000370: e865 42bc bc1a 673b 2c30 353e 128d e7bd
00000380: 1d7a 56bd 784e 87bd 507c f4bb d7f7 6d3d
00000390: 71e5 7b3c 8edf 1a3d 875d 97bd 4562 8b3d
000003a0: 2fa1 d73d a55c 7c3d 694c 9dbc 6700 2b3e
000003b0: 3666 873d 1f09 0cbd e1e4 6bbd b7be f43c
000003c0: 4303 1dbd a03f b23c fee4 63bd 6f95 993d
000003d0: 5636 a13d f1c8 003e 0552 f5bd ad9f e9bd
000003e0: 091c 493d 5257 2a3e 20d6 e4bc 31c3 d03d
000003f0: 5023 d83d ed8d 333c a9f7 453d 355b 353e
0.0033694862 -0.16289614 0.098150186 -0.0057884282 0.0070568556 -0.022370176 0.0015362932 0.08072261
0.033658404 -0.08264584 0.011350228 -0.010027215 0.12645775 -0.013150533 0.11563967 -0.056852527
-0.03706822 0.056531228 0.14702849 0.049799684 -0.020060666 0.1517869 0.1153939 -0.06328265
0.040029444 0.0630839 0.058743723 -0.03613983 -0.0057398668 0.10568468 0.059434857 -0.09363915
-0.11952467 0.11741212 0.005286201 -0.09759514 0.13878575 -0.014038239 0.08510627 -0.13324484
0.06601168 -0.16543487 -0.018827513 -0.119662106 -0.08461599 0.2244398 -0.033767667 -0.08001913
0.048269983 0.1530288 0.11490115 -0.009011932 0.07577488 -0.1297757 -0.041370127 0.1556863
-0.09925757 0.14078465 -0.03353416 0.050299827 0.16677664 0.06548186 0.14114441 -0.0583231
-0.07476999 0.013949824 0.053139336 0.0034958485 0.11498658 0.089366436 0.07161206 0.06796293
0.08694518 0.14140274 0.03853858 0.011775862 0.11276421 -0.0312991 0.049989764 0.07894953
-0.06450746 0.0008854062 -0.0753778 -0.015570805 0.017046755 0.10952622 0.025491748 0.15057065
0.05727689 0.102218 0.21669714 -0.02310277 0.06742706 0.13648371 0.09922869 -0.057002496
0.18623649 0.0029318903 0.020923376 0.20838311 0.112250835 -0.12493155 0.12018136 -0.08567339
0.0931844 0.13120669 0.14679444 0.053697493 -0.101199105 -0.12875961 0.10929424 0.008737961
-0.054381162 -0.072776444 0.05120583 -0.020068424 -0.15475038 0.15151872 0.07337945 -0.117413074
-0.11823828 0.12424966 0.05725715 0.027915308 0.051597517 -0.044353195 0.10555157 -0.013956355
0.0030508146 0.007789818 -0.0030392949 -0.102226645 0.09582378 -0.07072614 -0.0610746 0.05259092
0.1108349 0.14680073 0.0062470953 0.0028100002 -0.16980037 0.02911636 0.09730144 0.112346426
0.0065348847 -0.19760087 0.026731392 -0.027831767 -0.0520871 0.080203734 -0.07149921 -0.118517675
-0.080277674 0.036284745 0.18879238 0.044788714 -0.070117 -0.016656794 -0.084971555 0.07763571
0.017335298 0.0044441717 -0.071734 0.16172305 0.11591526 0.082067445 0.013633786 -0.05143268
-0.111369096 -0.04187786 -0.057635225 -0.08181423 -0.011114054 0.16556074 -0.112848304 -0.12896049
0.14407827 0.084925056 -0.074129246 -0.009397223 0.063915566 -0.04135566 -0.026473789 0.13553832
-0.01312942 0.14218076 -0.0034240317 0.10936731 -0.16309841 0.018262431 0.13383247 -0.039782397
-0.027370567 0.12626301 -0.050741617 0.018378336 -0.09682276 0.22356685 0.111008786 0.033499368
-0.0916962 0.11443203 -0.051894017 -0.11613848 0.0014579475 -0.037040256 0.124265924 -0.065945014
0.09468061 -0.00068126596 0.05679057 0.047002103 -0.0046842196 -0.11243801 0.180408 0.11324833
0.19226214 0.19151562 0.054022975 0.05364198 -0.011865117 0.0035263738 0.17694157 -0.11306204
-0.05236255 -0.066067636 -0.0074611083 0.058097687 0.015374527 0.037810855 -0.07390886 0.06805853
0.1052879 0.06161179 -0.019201474 0.16699372 0.06611292 -0.034188386 -0.057591323 0.029876096
-0.03833319 0.021758854 -0.055638306 0.07499205 0.07871692 0.12576653 -0.119785346 -0.11407409
0.049099002 0.16634873 -0.027934134 0.1019348 0.1055361 0.010959131 0.04833189 0.17710574

lstm1.bias_hh_l0 f4 [256]
00000000: 30a7 0a3d d70b 18be 4cc4 e53d 093b 3dbd
00000010: 0be8 813d 0823 89bc 9414 8f3d 4c86 123c
00000020: 8795 12bd d411 5bbd 5e0a 1a3e 5731 a5bd
00000030: 294d a63d ad0b de3d f714 1c3d 1d47 063e
00000040: 5583 84bd 61fb 7bbd ba8d 1d3e f0b5 05bc
00000050: 849e 3e3b aae8 f7bc 1c12 e0bd b98d 803d
00000060: 33c3 82bd 0542 a4bc 4e08 9cbd f8e8 223d
00000070: 6421 3abd 6bf0 b63d 2468 0dbe a679 a0bd
00000080: 14ed a33c b18c 403d 7f16 893d d64f 65bd
00000090: fc51 3c3d 7fea 883c 4896 0b3c 4db3 78bd
000000a0: f7f3 203e f74b 9fbd 6a3a 91bc 701f 52bc
000000b0: 9915 afbd ca07 e93d 12f3 aa3d c8be ea3d
000000c0: 4c87 32bb 92c2 0e3d c066 9c3d 2a01 e03d
000000d0: a034 3bbd 1664 d4bd 8138 dabd 35d0 2f3e
000000e0: b22b a5bc 911e 94bd 80a5 0dbd fdd8 9e3c
000000f0: 3899 883d 3ab4 aa3d 761f c83d 3678 a3bc
00000100: adfb a23d 6821 4e3e e598 df3d 276d d83d
00000110: dca6 053e 15d4 973d 53d8 ea3d b6a4 0bbb
00000120: 9f01 d93c 826d c7bd a4ab 33bc e403 39be
00000130: dc1a 8a3b cfd9 48bd ac5b 523d 9ba0 833c
00000140: 878a a33d a233 9d3b f6ce 41bd 1445 8e3c
00000150: 724d 613d 7ab7 bebd 0f79 d1bc cfb1 3d3d
00000160: 71fb 86bd 11d5 0e3e 40f5 883d fb14 b03d
00000170: b808 d03d 7640 103d d393 203d f7b7 01be
00000180: 8674 6cbd 686b 04bd f788 1bbd 05b0 dc3d
00000190: db33 503d 518c 3c3d 790a 8ebd 313b c13d
000001a0: 3629 b6bd 7cba 11bd 7b71 523e dfac 48bd
000001b0: e0a2 963c ac73 e3bd 8e84 bb3c 0ff2 783d
000001c0: 311c 8ebd cee3 5dbd d9bc ca3c b055 a73d
000001d0: 91da 18bd b384 3f3e 661b 9f3c 7501 8abc
000001e0: c052 813c 28d2 ee3d 0e7e 073e 86ba 373e
000001f0: 0832 0c3e ea63 ae3d 846d 7fbc 5e8b 283c
00000200: 5999 adbd 99dc 0b3d afe6 20bd 1e50 6cbc
00000210: 2ad7 163e 3692 55be ab64 15be 3bc4 123e
00000220: c778 363e faef 9bbd 5676 323d df4d 043d
00000230: f143 c6bc 58ae 82bc 942d f2ba 2a40 543e
00000240: 5e2e 69bd ac0b b8bd c3c2 7e3d bbe1 cf3c
00000250: bd72 903d 210f 9e3d 31f4 b6bd ecaa 7abd
00000260: b629 923d 1f52 4d3c 778e 373d 01d3 4c3e
00000270: fb03 a03d 11b9 72bd 8b55 12bd 14e1 5e3d
00000280: 0643 093e 4052 e6bd e9c6 9e3b 7151 4e3d
00000290: 56ac d5bc 1348 bebd 219d 33bb 1a20 9ebd
000002a0: e0fc b1bd 42c0 e43d f48c dbbd 6ca7 adbd
000002b0: 3b0e 6d3d 6f76 5c3d ca0d c6bd b08e 21bd
000002c0: 837a 023e ee9c 46bd 6dce 32bd 8451 c03d
000002d0: 7f82 a03d c93f 003e 420f 29be 611e 4c3d
000002e0: 8fcb 31bd 3d0b a03d abd9 b4bd 7acf acbd
000002f0: 6e50 5ebe 9231 5dbd de23 4f3e 0702 81bd
00000300: e1ed edbd d661 f43d 7290 15bd a1c7 533c
00000310: e565 9abd a39b 0b3e 5c99 15bd 1e22 c2bc
00000320: 86c7 e2bd 2984 2dbb eee4 56bc fb9e 5ebb
00000330: 22ba 533e 2434 b63b a142 ccbc 340a c83d
00000340: 043d e53d b2c2 323d 41a4 23bd 51b1 ca3d
00000350: 5a7f ed3c 2194 643c 9817 1d3e 8ba2 dfba
00000360: 9583 123d 53b6 eb3d 75b3 5d3d 169f 603d
00000370: 30ab 163e f3b2 973c b78b e33d 2d91 52bd
00000380: ea56 b33b 0851 d3bc 19af 903c 69a4 633e
00000390: 3146 513d 6f34 103e 1f4e 79bc 1446 3c3d
000003a0: 8dee b83d 293c 77bd 2849 ce3b 0050 943c
000003b0: ffa7 25bd b909 23be e73a a7bd 22c2 043d
000003c0: a8ec 96bd 07eb 273e b07c 993d f414 af3d
000003d0: c42e 043e 7366 243d 06be c7bd d549 76bd
000003e0: 5f55 29bd cc63 1f3e 202b 95bd 0c78 193e
000003f0: 508f 0ebd 8c9f f8bc f7b0 793d 9194 6c3d
0.03385085 -0.14848267 0.11219081 -0.04619888 0.06343087 -0.016740337 0.06986347 0.008943152
-0.03578713 -0.0534838 0.15043017 -0.080660515 0.08120186 0.10842071 0.03810593 0.13113065
-0.06470362 -0.06151903 0.15386096 -0.008161053 0.0029086182 -0.03026231 -0.10940954 0.062770315
-0.063848875 -0.020051012 -0.076187715 0.039772958 -0.045442 0.08932575 -0.13809258 -0.078357026
0.020010509 0.047009174 0.06693744 -0.05598434 0.045976624 0.016713379 0.008519717 -0.06071787
0.15718065 -0.07778161 -0.01772805 -0.012824878 -0.08549041 0.11378439 0.08347143 0.1146217
-0.0027241288 0.034853525 0.076367855 0.10937722 -0.045704484 -0.103706524 -0.106553085 0.17169268
-0.020162437 -0.072323926 -0.03458166 0.019390577 0.06669849 0.08335157 0.09771626 -0.019954782
0.079581596 0.20129931 0.10917834 0.10567694 0.13051933 0.07413498 0.11467042 -0.0021307892
0.02649003 -0.09737684 -0.010966215 -0.1806789 0.0042146277 -0.049035843 0.051356956 0.016067794
0.07985406 0.004797415 -0.047316514 0.017366923 0.0550055 -0.09312339 -0.02557042 0.04631215
-0.065909274 0.13948466 0.06687403 0.08597752 0.10157913 0.035217725 0.039203476 -0.12667833
-0.057728313 -0.032328993 -0.037972417 0.107757606 0.050830703 0.046032254 -0.06935591 0.09435118
-0.08894579 -0.035578236 0.20551102 -0.048992988 0.018388212 -0.11106047 0.022890355 0.06077772
-0.06938971 -0.05417233 0.024748253 0.081706405 -0.037317816 0.18702964 0.019422244 -0.016846398
0.015786529 0.11661178 0.1323168 0.17942247 0.1369096 0.08515151 -0.015590075 0.010287134
-0.08476514 0.034145925 -0.039282497 -0.014423398 0.14730516 -0.20856556 -0.14589183 0.14332668
0.1781951 -0.07614131 0.043569885 0.032300826 -0.024202319 -0.015952274 -0.0018476718 0.20727602
-0.056928985 -0.08986601 0.062197458 0.025376191 0.070531346 0.07717729 -0.089332946 -0.06119816
0.07136862 0.012531786 0.0448136 0.20002367 0.07813259 -0.059258524 -0.03572611 0.05441387
0.13404474 -0.11246157 0.0048454893 0.050370637 -0.026083153 -0.09291091 -0.0027406889 -0.07720967
-0.0869081 0.11169483 -0.10720244 -0.08479199 0.0578749 0.053823885 -0.09670599 -0.039442718
0.12742047 -0.048489504 -0.043653894 0.09390548 0.0783739 0.12524332 -0.16509727 0.04983366
-0.04340702 0.078146435 -0.08830579 -0.084380105 -0.21710369 -0.054002352 0.20228526 -0.06299215
-0.116176374 0.11932723 -0.036514707 0.012926013 -0.07538966 0.1363359 -0.036523208 -0.023697909
-0.11073212 -0.0026476479 -0.0131161045 -0.0033969271 0.20676473 0.005560415 -0.024934115 0.09767571
0.111932784 0.043642707 -0.039951567 0.09897102 0.02899139 0.013951332 0.15341032 -0.0017061991
0.035770018 0.11509385 0.05412622 0.054839216 0.1471374 0.018517947 0.11110633 -0.05140798
0.0054730074 -0.025795475 0.017661618 0.22230686 0.05109233 0.14082502 -0.015216379 0.04596527
0.09029875 -0.060360108 0.006295342 0.018104553 -0.040443417 -0.15921678 -0.081655316 0.032411702
-0.07369357 0.1639825 0.074944854 0.08548918 0.12908465 0.040136766 -0.09753041 -0.060129005
-0.04134118 0.15565413 -0.07283616 0.149872 -0.034804642 -0.030349515 0.060959782 0.05775887

lstm2.weight_ih_l0 f4 [128, 64]
00000000: 4009 92be 4a2e 0dbc a742 933d d263 92bd
00000010: 135f 5d3c 6122 dfbd 6514 fc3c 82b0 97bd
00000020: 6f2f b0bd c6ab 063e 0714 3cbe 725d c1bc
00000030: 6acb a13e 2640 c8bd e375 c73d 0b67 d93d
00000040: 2e38 34be f49f ebbd 96de a5bc b170 f3bd
00000050: 9b65 2d3d 8b1f 3a3e c8b2 8e3d 666f 9cbc
00000060: a9f8 6abd 7014 88bd c5a6 eebc d63f 4bbe
00000070: 5723 8e3e 1d8c d4bc 3138 33be ef87 9d3e
00000080: 689d d5bc 3fd9 35bd 2a41 dc3d 3a75 4b3e
00000090: 5ad9 373e 152e 29bd 6bd7 823e 3e50 7b3e
000000a0: 2bd2 39be 662c e3bd 5865 253e 4ce4 fc3c
000000b0: 2b32 61bc 6ae4 263e 0373 553e 18af 103e
000000c0: ea5d 21bd d117 5c3d 4c60 633d 19af 723e
000000d0: db4d dabd 0778 82bd 91d9 223d 5f18 983b
000000e0: c77b d73d 829b 8c3d 8678 ac3e 311d 48bd
000000f0: 9661 b2bd 93a9 0dbe a1b5 763d 5f99 063c
00000100: 73f8 1dbe 646e 8f3d 30aa 98be 7443 2ebe
00000110: 9322 f63d 4017 67bd cf63 03be a7ba 1fbe
00000120: 849b 8ebd f8b1 c9bb e099 57be c719 17be
00000130: 28ba c03c 7657 84bc 12c8 bb3d ce67 953c
00000140: 0d46 b5bd f187 563e 5f21 06be c53d 113e
00000150: 3866 34be 104a 9dbd cd84 8d3e 4d5f c23d
00000160: 2da9 463d bca9 3d3d bc4d 72bd 13d4 59bd
00000170: 9a8a 9fbd 847c f6bd 7aa3 ac3d bf9b 263e
00000180: 37e1 3abe 46bc 023d 38b2 123e bebb b1bb
00000190: 0617 0d3e f102 163d 881b b63c d925 05bc
000001a0: ed91 a73e 900b d63d 839a 123e 5e50 12bd
000001b0: 6e7b 4b3d 9483 233e 6777 a63d a8af 4dbb
000001c0: 0bdc 9f3e 154e 6d3c 5563 e5bc b68d 013e
000001d0: 935c 2fbe bf42 49bd 4c21 be3c 2aaf db3d
000001e0: 4935 8f3c 02d6 cf3d 29fa f73d 54de 0c3c
000001f0: 0943 cabd c3b1 633e 3042 d53c cf0a 393e
00000200: ae38 19be de62 18be 7e31 8c3d a4bf c4bd
00000210: 3314 3abd cb41 753d 31bc 64bd cfc7 d9bd
00000220: c985 9bbc 648d ad3d 55fd da3d 415f a53d
00000230: 7ea8 473e 52ed a03d 249f 3cbe 904c 3c3d
00000240: 95a8 0d3d 11fd acbe 38ea e03d 9fca 103e
00000250: 6b2f 2a3e 12b1 ab3e 53b6 f2bd 11ee 503e
00000260: 3c8c 90be 9c8c a1be c032 f43d 3bad 1dbd
00000270: 4d29 b33e 3d5f abbd 4bff cfbe 21ce 883e
00000280: 4609 17bd f134 a33d 2e9b 08be e07e 543d
00000290: 1426 4e3e 2d9f 00be b7d1 253e 2a25 153e
000002a0: e21e 903d c5a4 a2bd 4a21 503e 1857 783d
000002b0: 4645 7b3e 28a4 8d3e 3659 293e 0fce a33d
000002c0: 8ba7 cfbd 010a 16be e491 313d 79c9 673d
000002d0: ff53 dabd 2dd7 27bd cb4e 82bd 20cf 423d
000002e0: 0afc a33d 2158 dfbd d2fd 983e 6332 3fbe
000002f0: 4313 dd3c 3bac 42be e272 eebd 2051 463e
00000300: 93fd 5fbd 641b 28be 5618 bfbe f389 aabd
00000310: 7277 9f3b ab43 04bd 10c5 203d 5ae3 98be
00000320: 311b 1bbd bd0e 36be 13d2 a7bc 1495 a33d
00000330: 9be8 3bbd e73b 23bd dab7 7d3e c35a 273e
00000340: 65d4 863e d380 11be d226 d9bc 6cd5 f73c
00000350: 1f99 b43e 32bf 5f3d f4f1 bdbd 900f 73bc
00000360: 19ff eabc 3f7b 593e 503d 45be 30e5 a43d
00000370: 782c 4b3d 7621 1dbe 9f0d ccbc 29b0 1c3e
00000380: b367 ecbd 2fa6 1f3e d5f6 953d c76a 29be
00000390: a6a8 bbba 43c9 15bd 25db 433d ff7f cb3c
000003a0: dd3c 07be a76a 88be d1cd eb3d e84d d03c
000003b0: 7d33 1b3d adf5 633d 7988 38bd 6d21 0fbe
000003c0: 6b5d cb3e 6b43 35be dd4a 353e c6c4 55bc
000003d0: d2b5 f93c 8bd5 42be c654 ebbd 7eb5 d63d
000003e0: 396b 473e ea66 73be 08ba 4b3e 29d9 ae3d
000003f0: 0108 44be fc35 2dbe 7f35 933e d954 57bd
-0.28522682 -0.008616993 0.07190447 -0.071479455 0.013511437 -0.10895229 0.030771444 -0.07406713
-0.08602797 0.13151464 -0.18367015 -0.023604129 0.31600505 -0.0977786 0.09739282 0.10615357
-0.17599556 -0.11505118 -0.020247739 -0.118867286 0.042333227 0.18176095 0.069676936 -0.019096088
-0.057366047 -0.06644523 -0.029132256 -0.1984857 0.27761337 -0.025945717 -0.17501904 0.30767772
-0.026076034 -0.044396635 0.107546166 0.19868937 0.17954007 -0.041303713 0.25554976 0.24542329
-0.18146579 -0.11092453 0.16151941 0.03087058 -0.013744871 0.1629807 0.20844655 0.14129293
-0.039396204 0.05373365 0.055511758 0.23699607 -0.10659381 -0.0637055 0.03975827 0.004641577
0.105216555 0.06865598 0.33685702 -0.048855964 -0.08710019 -0.13834219 0.06023181 0.008215277
-0.15426807 0.07003477 -0.29817343 -0.17017919 0.12018313 -0.056418657 -0.12831043 -0.15598546
-0.06963256 -0.0061552487 -0.21054792 -0.14755927 0.023526266 -0.016154986 0.0916902 0.018237974
-0.08851252 0.20950295 -0.13098668 0.1418372 -0.17617118 -0.07680142 0.2764038 0.094908334
0.048501182 0.04630445 -0.059156165 -0.053180765 -0.07790108 -0.12035468 0.08429618 0.1627035
-0.18249975 0.031917833 0.14325798 -0.005423992 0.13778314 0.0366239 0.022229925 -0.008126699
0.3272852 0.10451424 0.14316754 -0.035721175 0.04967826 0.15968162 0.08128243 -0.0031385217
0.31222567 0.014483948 -0.028001467 0.12651715 -0.17125158 -0.04913592 0.023209237 0.10726769
0.017481463 0.101482406 0.12108261 0.008597929 -0.09876067 0.2223578 0.026032537 0.1807053
-0.14963028 -0.14881465 0.068453774 -0.09606865 -0.04542942 0.0598772 -0.055843536 -0.106338136
-0.018984692 0.08474234 0.106928505 0.08074809 0.19497868 0.07857765 -0.18420082 0.045971453
0.0345846 -0.33786824 0.10982174 0.14139794 0.16619651 0.3353353 -0.11851182 0.20403315
-0.2823199 -0.3155259 0.11923742 -0.038495284 0.34992447 -0.08367775 -0.4062446 0.26719764
-0.03687408 0.07969082 -0.13340446 0.05187881 0.20131713 -0.1256072 0.16193281 0.14564958
0.070371404 -0.079415835 0.20325199 0.060629934 0.24538144 0.27664304 0.16537938 0.07998287
-0.10139378 -0.14652254 0.043352023 0.056588624 -0.10660552 -0.040976692 -0.06362685 0.04756081
0.08007057 -0.10905481 0.2988115 -0.18671565 0.026986724 -0.19011013 -0.11643006 0.19366884
-0.054685187 -0.16416699 -0.37323254 -0.08327093 0.004866534 -0.032291096 0.039250433 -0.29860955
-0.03786773 -0.1777906 -0.020485913 0.07987419 -0.045876127 -0.03985205 0.24777165 0.16343217
0.2633392 -0.14209299 -0.026507769 0.030253135 0.35273072 0.054625697 -0.092746645 -0.014835253
-0.028686093 0.21238421 -0.1926167 0.080515265 0.049602956 -0.15344796 -0.024908839 0.15301575
-0.115432166 0.15590738 0.0732247 -0.16544639 -0.0014317229 -0.03656889 0.047816414 0.024841307
-0.13206811 -0.2664387 0.11513866 0.025427774 0.0378909 0.055654217 -0.045052025 -0.13977595
0.3971971 -0.17701499 0.1770434 -0.013047403 0.030482206 -0.19026773 -0.114907786 0.10483836
0.19474496 -0.23769727 0.19895184 0.08537514 -0.19143678 -0.16915125 0.28751752 -0.05257115

lstm2.weight_hh_l0 f4 [128, 32]
00000000: 73ff 813e 84c3 f3bd 6a81 b43c 4670 c8bd
00000010: 7c1b e33c 8d8c 9abd 1e20 073c 36fd 0a3e
00000020: d634 dc3c e16e 363c dab0 bf3d 6797 17be
00000030: 3749 2dbe feb1 2c3e 2347 a63d 8f06 dd3c
00000040: e506 f3bd f37f beba 77fd 9abd e3f4 693d
00000050: 4123 7bbd 8643 3abe 87cd 66bd 21b3 58be
00000060: 1564 083e eee4 d43b 86a0 b6bd 40d6 ef3d
00000070: 888d 8dbe 13ab 80bc 89a0 debd ccc1 0c3a
00000080: da70 08bd edb8 09bc c485 c43d 3612 0bbe
00000090: 8000 86bd d356 1d3e 36bb 8a3d f97e b83d
000000a0: 4659 8cbc 113c cebd ec07 d9bb f199 983e
000000b0: 4ec7 9ebd ac69 da3c 0607 863e 32e8 843e
000000c0: 0578 283d 7e95 283e 284b 443d c40a 503d
000000d0: 7317 0fbe 0118 6e3d 09fb 143e ab51 69bd
000000e0: 2bbe 65bd 9dfd 073d b6df 97be e292 663d
000000f0: 10d3 e23d 6630 92bd 898d 2dbc aec6 babc
00000100: 8cd4 93bd 1d1d 0dbe dd21 e4bd 3dcf 07be
00000110: c93e ac3d 15aa 123e 54e3 ad3e 651c 163c
00000120: 596c a8bd 1739 38be 86cf 0abe 0ba2 19be
00000130: 5681 46be 137a dbbd 5882 80be 21cf 723e
00000140: c939 2bbe 54fa 0c3e c5c0 f13d 3680 083d
00000150: 7fce f0bd 6742 503d 9a63 9c3e 667a 3abe
00000160: 60a9 a33e 8505 6dbe 9c3f a63b f744 d63d
00000170: d62e 40bd 1848 3fbd 7109 bf3d 278b dc3d
00000180: 42f2 f6bd 435a 10be b1e6 c1bc 1618 3e3e
00000190: 9208 b1bd 39ae afbe ee89 20bc 2134 183e
000001a0: de55 053e 3a15 cf3d b594 2cbe 008d babd
000001b0: 2ce9 ba3d c6af e53d b5c5 80be b2fa 3cbe
000001c0: a88d dcbc 76da 423d 8ebb 0e3e 5c2a 86bc
000001d0: 19f2 97bd b0d0 7bbe a697 fabd be7a ae3c
000001e0: cdc8 083d 6b2a b0bd e59e 743d aa52 b73d
000001f0: 3464 953e 9e8a c5bd c73e 7c3e 1a13 cebd
00000200: 0033 a83b f1f4 8abe 7a9d b0bd 4a77 363e
00000210: 0cb7 813c 1c2b 59be 8a5a a03e 1130 8dbe
00000220: 544a acbe 03c1 513e 01a4 44be d2cb 5fbc
00000230: 3c12 3ebe 37d8 923c c027 3cbe b5b3 a13c
00000240: d1a9 873c db73 35bc 4411 8d3b bf0f a33d
00000250: 5986 203d 1c89 763e e8b9 323e 4149 10be
00000260: 46f5 c53d 24a3 2b3e a622 f03d 83ea ea3d
00000270: 2d19 91bc 4478 02be 76fa 323e 46a0 4f3e
00000280: 5dc7 3b3d 34ba e23d 06e6 b83d 0263 013d
00000290: e077 5ebd ff7b 7e3d 21c8 f43c 52fb 2cbc
000002a0: 7073 51be 54ce 5939 84b1 1fbe 0b62 403e
000002b0: 65d4 0c3d 1d6d 56bd e4f0 153e 5bbc 543d
000002c0: d66f c0bc ecc4 58b8 03c8 04be 1da1 193d
000002d0: e5a0 cdbd c521 fcbc e8dc f5bc 8101 45be
000002e0: 9eb6 813b d2b4 823d 8460 8abe 6c03 203e
000002f0: bb59 36be 1242 36be fd7b c33d 799d 8fbe
00000300: 7b5b 80be 9c9b 523e b154 6abe 270e 22be
00000310: 6222 a7bd 83e7 813e 3ee3 3e3e 624d 65bd
00000320: dcd9 3fbd b981 66be 9ae5 03bd c655 3e3e
00000330: 87e0 25be fa1a 9abe 5d0b c73d 5a6b c0bd
00000340: 4410 423d 6ae2 4fbe 19ea 143e 8a0a 05bf
00000350: 313e 2f3d 443c d43a 7a19 a43c 360e 59be
00000360: 014f a5bd e94a 12be 36d8 053b 63ed df3d
00000370: 9944 3dbe e80c 7c3d a125 cdbe 5a55 c6be
00000380: 02db c3bd c8d6 f53d 52c3 39be ae57 233b
00000390: 07f3 c23b d255 90bd 45a5 3abe 26be 74bb
000003a0: b635 20be 2a37 c0be b36f 673c f942 91bd
000003b0: b49e 88be c11b 3cbe b2a5 97bc 96ff c93d
000003c0: ad2f 0cbe f186 aa3e 3de0 b33d a2c8 d3bc
000003d0: 33ae 9fbd 9127 7d3e f78b 603d 5f91 f03d
000003e0: 6670 4fbd eb21 f0bd 8325 2e3e 38e6 043e
000003f0: 8a29 6d3e 0a37 10be 563a e43d 26f1 afbe
0.25390205 -0.11902526 0.022034366 -0.097870395 0.027723067 -0.07546339 0.008247403 0.13573155
0.026880663 0.011134834 0.09359904 -0.14803849 -0.1692246 0.16864774 0.08119037 0.026980666
-0.118665494 -0.0014533981 -0.07567876 0.057118308 -0.061312918 -0.1818982 -0.05634835 -0.21162082
0.13319428 0.006497017 -0.08917336 0.11710787 -0.27647042 -0.015706575 -0.108704634 0.0005369454
-0.03331075 -0.008405906 0.09595826 -0.13581166 -0.06543064 0.15365152 0.06773989 0.09008593
-0.017132413 -0.100700505 -0.006623259 0.29804948 -0.07752858 0.026661716 0.26177233 0.259584
0.041130085 0.16463277 0.047923237 0.050791517 -0.13973789 0.05812836 0.14548887 -0.05696265
-0.05608956 0.03320085 -0.29662865 0.056292422 0.11075413 -0.071381375 -0.010592827 -0.022799816
-0.072182745 -0.13780637 -0.111392714 -0.13262649 0.08410413 0.14322694 0.339625 0.009162043
-0.08223791 -0.17990528 -0.13555726 -0.1500322 -0.19385275 -0.10716643 -0.25099444 0.23711826
-0.16721262 0.13767368 0.11804346 0.033325396 -0.11758136 0.050844576 0.3054474 -0.18210754
0.3196516 -0.23146637 0.005073501 0.10462373 -0.046919666 -0.046699613 0.09327973 0.10768729
-0.12057926 -0.14096932 -0.023669573 0.18563876 -0.08644213 -0.3431261 -0.00979851 0.14863636
0.13021037 0.101114705 -0.16853602 -0.09108925 0.09126505 0.11215167 -0.25150838 -0.18455008
-0.026923016 0.04757162 0.13938734 -0.01637762 -0.07419223 -0.24591327 -0.12235956 0.021298762
0.033394624 -0.086018406 0.059721846 0.08951314 0.2917801 -0.0964558 0.24633323 -0.10062237
0.005133033 -0.2714 -0.08623786 0.17818943 0.015834354 -0.21207851 0.31319076 -0.27575734
-0.33650458 0.20483784 -0.19203188 -0.013659434 -0.18561643 0.017925365 -0.18374538 0.019739011
0.016560467 -0.011074985 0.0043050367 0.07961988 0.039190624 0.2407574 0.1745373 -0.14090444
0.09665923 0.16761452 0.11725359 0.11470511 -0.0177122 -0.1274119 0.17478356 0.20275983
0.045844425 0.11070672 0.090282485 0.03158856 -0.05431354 0.06212997 0.029880585 -0.010557966
-0.20454192 0.00020771596 -0.1559506 0.187874 0.034382243 -0.052350152 0.14642674 0.051937442
-0.023490828 -5.168181e-05 -0.12966923 0.037507165 -0.10040454 -0.030777821 -0.030012563 -0.19238855
0.0039585372 0.06382145 -0.2702676 0.15626305 -0.17807667 -0.17798641 0.09545133 -0.2804983
-0.25069794 0.20567173 -0.2288387 -0.15825711 -0.08160855 0.25371942 0.18641374 -0.055982
-0.046838626 -0.22510423 -0.032201387 0.18587407 -0.16198932 -0.30098706 0.09718964 -0.09395476
0.047378793 -0.20301214 0.14542426 -0.51969206 0.04278392 0.0016192277 0.02003168 -0.21196827
-0.080717094 -0.14286388 0.0020423061 0.1093395 -0.18483199 0.061535746 -0.4006777 -0.38736993
-0.09563257 0.12003857 -0.18140915 0.0024924087 0.0059493813 -0.07047619 -0.18227108 -0.0037344783
-0.15645489 -0.37542087 0.014125752 -0.07092852 -0.2668358 -0.18369962 -0.018511627 0.09863202
-0.13690062 0.33306077 0.087830044 -0.025852505 -0.07796898 0.24722125 0.05482098 0.11746477
-0.0506443 -0.11725219 0.17006497 0.12978446 0.23160377 -0.14083496 0.11143939 -0.3436367

lstm2.bias_ih_l0 f4 [128]
00000000: 0673 5a3d afd9 c2bd 4bc7 0bbe bedc 1f3e
00000010: af8f a03d a8a2 2c3b ba70 dfbc 15de 4bbe
00000020: 9a16 04be 2fcc 9abd be14 253e 33e0 d4bd
00000030: 5cb5 403d b527 92bd eba0 54be 11d8 a23c
00000040: 76eb 673e 4dc1 f23c eb28 09be 65c1 29be
00000050: f0ed f1bd 9995 493e e50b fdbc 4888 cd3d
00000060: 72d9 37be d5d2 3a3e 5632 813e ea21 233e
00000070: c9a1 1e3e f097 db3d 600a 5fbe a8fb 0abe
00000080: 44d5 5b3e de7d 033e 5a6a 203d 62a2 703e
00000090: fb5a 4c3e 9c27 023e 1679 1ebd e46a 2b3e
000000a0: c943 9c3d f899 4c3c 191a 103e fe8d fb3d
000000b0: 0635 093e 4ae5 9bbd a528 0c3e e84a 7f3e
000000c0: c823 d33d e443 2c3d eed0 903c 2991 e53c
000000d0: 822d ed3d ebfe 5bbd ef39 243e 5b07 133e
000000e0: 5385 f03c 01e2 983e b81b b03d e359 8f3e
000000f0: 99a1 3ebd 0d0e 723e aa76 5e3e 34a7 ba3d
00000100: 8478 24be 1552 3cbb f1ef 95bd a7b2 013e
00000110: 5eb7 b7bc 6e2f fb3d f490 893d 8e74 983c
00000120: bd09 d23d 92d1 c8bd 158c 6cbd 26be 93bd
00000130: 9d52 fbbd 64d7 5c3d af5a 72bd 1a78 00bc
00000140: 0913 c23a 5128 0a3c 8ea5 6d3d 80f6 1e3e
00000150: 3114 3a3e 7499 bd3b 8016 e03d 3fc7 ed3d
00000160: 60b9 013e bfb2 81bd 1262 6ebd d0ce fe3d
00000170: cb77 383e b57b 05be ef26 0c3e 3ba0 243e
00000180: c2a5 263d cd22 ac3e 88a1 a53e 36f1 733e
00000190: 2c35 8ebd a83f 643e 984d a73e bd50 c03d
000001a0: e8c7 ba3e e430 0b3e d187 023f d775 123e
000001b0: f89e 6e3e 0b53 1f3e 36ba 6f3e 4b97 993e
000001c0: 7d19 6f3e 7462 92bd 97da b83d a3e2 633e
000001d0: 3ea1 983e 42aa 8a3e 1898 6a3e 7907 803e
000001e0: 2c89 9f3e cccb d33d c2ea d73d 5aae a63e
000001f0: 9ac4 dd3e 81fb 453e 9d2f 313e b0d7 783e
0.05333235 -0.09514176 -0.13650243 0.1561155 0.078399055 0.0026342068 -0.027275432 -0.19908936
-0.12899247 -0.07558476 0.16121194 -0.10394325 0.047047958 -0.0713648 -0.2076451 0.01987842
0.22648415 0.029633189 -0.13394515 -0.1657768 -0.11812961 0.19685973 -0.03088946 0.10035759
-0.17954043 0.18244489 0.25233716 0.15930906 0.15491404 0.10722339 -0.21781301 -0.13572562
0.21468073 0.12840983 0.039163925 0.23499444 0.19956581 0.12710422 -0.038689695 0.16739994
0.076301165 0.012487881 0.14072455 0.12282942 0.13399133 -0.07612093 0.1368738 0.24930918
0.10309559 0.042056933 0.01767775 0.02802332 0.115809456 -0.053709906 0.16037725 0.14358275
0.029360449 0.29859927 0.08599037 0.27998266 -0.04654083 0.23638172 0.21724954 0.09113923
-0.16061598 -0.0028735448 -0.07321156 0.12665807 -0.022426303 0.12264906 0.06717101 0.018610265
0.10255764 -0.09805597 -0.05775078 -0.07214002 -0.122716166 0.05391635 -0.059168514 -0.007841134
0.0014806698 0.008432464 0.058019213 0.1552372 0.18171765 0.0057861153 0.109417915 0.11610269
0.12668371 -0.06332921 -0.058198996 0.1244179 0.18014447 -0.13035472 0.13686727 0.16076748
0.040685423 0.336203 0.323498 0.23822483 -0.069437355 0.22289908 0.32676387 0.093903996
0.3648064 0.13592869 0.5098849 0.14302765 0.2330283 0.15559022 0.23410878 0.2999824
0.23349567 -0.07147685 0.09026068 0.22254424 0.29810518 0.2708302 0.22909582 0.250057
0.3115934 0.103416055 0.105428234 0.32554895 0.43314058 0.19334222 0.1730332 0.24301028

lstm2.bias_hh_l0 f4 [128]
00000000: 97a4 60bd 784f 823d 6fd1 5cbe 0420 16be
00000010: 04d3 cc3c b0aa 423e 381f 8cbd 11b6 bdbd
00000020: f431 e13c 5397 9a3d 165d 3c3e 0355 483e
00000030: 5377 afbd 31dc dcbd 1484 dc3d 7ee6 7a3b
00000040: 5059 9dbd 39b1 a1bc 8158 0dbe ecb5 af3d
00000050: 6f3d 2a3d 8f92 4bbd f040 4e3e 4c2c 813d
00000060: 6165 28be 4c5b 11bc a133 eb3d 0dd9 213e
00000070: 9a8d 2b3e 65d3 9f3d cc5e 423d 19aa 593d
00000080: 5b60 573e 2f2f 82bc 1e3a 4a3e 4cf6 823e
00000090: 0fd2 5fbc f59f f53c d96f 0c3e 9459 5b3c
000000a0: 4634 3d3e ca21 133e cda0 633d f283 de3d
000000b0: 57d6 6a3d 53da 5d3e 6382 aebd 64ad e13e
000000c0: b6c5 1a3d 301c 3abc 3606 103e 097b 7b3e
000000d0: f0f3 e73d a0a8 403e a1d2 533e aab6 34bc
000000e0: a1a4 4c3e aa1f 0bbc 57d1 913d 5080 6b3e
000000f0: 92ce a63c 7973 ee3d 96c2 143e 4833 a2bd
00000100: a3a7 1abe f56d e03d 8e4a bf3d 8974 efbc
00000110: aa02 093d df56 cd3d 9999 3e3e f4c5 5f3c
00000120: 1119 acbd 2cec 863d 1535 41be 58de 78bd
00000130: f755 2e3e 22d2 c5bd b352 0fbe 497b fcbd
00000140: 04e4 d83d 64af e63d 5c54 47bb 5ce3 01be
00000150: 1e6d 05be 57ec a7bd 1155 723e 774f 08be
00000160: 0912 503d 2618 853c 2b1d 613d feff 153e
00000170: f64f dc3c ce65 fcbd 3209 073e f6b4 853d
00000180: aab6 1a3d c807 363e d7c1 7f3e b554 ba3e
00000190: e767 1c3e 4832 dd3e 1a3a 9c3e 1ae1 8f3d
000001a0: 4983 b93e 254e b73e 8dbc fd3e 9dcc a53d
000001b0: 25a8 b43e a837 483e dc2f 5e3d 1862 8c3e
000001c0: 77c4 013f 7da5 63bd 86be 4e3e abe8 e13d
000001d0: 0eda c93d 9e63 803e 2018 943e a0a0 3d3e
000001e0: d4cd 643e 1c7f c03d df88 d13d db86 a73e
000001f0: aab6 833e 16d6 b63e 0c0a 353e a77f c13d
-0.054844465 0.06362814 -0.21564268 -0.1466065 0.025002964 0.19010425 -0.06841892 -0.09263242
0.02748964 0.07548394 0.18394884 0.1956368 -0.08567681 -0.10784186 0.107673794 0.0038284357
-0.07683051 -0.019737827 -0.13803293 0.08579621 0.041562494 -0.049700316 0.20141959 0.06307277
-0.16444923 -0.0088718645 0.11484457 0.15805455 0.16753235 0.07803992 0.047453687 0.053140733
0.2103285 -0.01589164 0.19748732 0.25578535 -0.013660922 0.0299835 0.13714541 0.013388056
0.18476972 0.14368358 0.055573273 0.1086501 0.057333317 0.21665315 -0.08520963 0.440776
0.037786208 -0.0113592595 0.1406487 0.24558653 0.11325824 0.18814325 0.20685817 -0.011029879
0.19984676 -0.008491436 0.071200065 0.22998166 0.020362172 0.116431184 0.14527354 -0.07919937
-0.15103011 0.10958473 0.09340392 -0.029230373 0.033449806 0.10026335 0.1861328 0.013658036
-0.084032185 0.06588015 -0.18867905 -0.06075892 0.1702498 -0.0965922 -0.13996391 -0.12328202
0.105903655 0.11263922 -0.0030415272 -0.12684387 -0.13029906 -0.08199375 0.23665263 -0.13311563
0.05079845 0.016246866 0.054959457 0.14648435 0.026893597 -0.12324105 0.13187101 0.06528656
0.03777186 0.17776406 0.24976288 0.3639275 0.1527401 0.43202424 0.30513078 0.070253566
0.36232975 0.35801807 0.49557915 0.080956675 0.35284534 0.19552481 0.05424486 0.2741859
0.50690407 -0.055577744 0.20189866 0.11030706 0.09856044 0.25076002 0.28924656 0.18518305
0.22344142 0.09399244 0.10231184 0.32720074 0.257253 0.3571021 0.17679614 0.09448176

fc.weight f4 [8, 32]
00000000: 1c64 64be 0006 b2be 67f2 6dbe 3cca 0f3f
00000010: 0ee0 e33e 44e3 99be bae6 843e aa4c ecbe
00000020: 58d4 fbbe e9f4 8bbe db80 afbe e67d 32be
00000030: 7648 e73e 52ca 033f b350 44be 1d59 3abe
00000040: cb63 433e 432a 4cbe 424b 3d3e 8b9c 93be
00000050: 238e cf3e 19e7 babe a356 363e 3389 3ebe
00000060: 19d6 493e aceb f93e 5e68 77be 87f4 a23e
00000070: f2c4 de3d 5744 cd3e 476d 503e 6e8d f03e
00000080: bcf7 32be 54e8 a23e 7c5d 56be e328 91be
00000090: 417b 693e 69f7 f63e 48fc dbbe 1984 853e
000000a0: 7e74 c73d 1da0 93be 2247 d03e 8a82 8cbe
000000b0: 29c1 a0be 7b55 843e 6e4c a63d dd2e 96be
000000c0: 7e5f a13e b6da 1e3f be76 28be 7318 f23e
000000d0: 6f3b b8be 915d e5bc 9533 8d3e aa88 e83e
000000e0: 4347 0bbf f9c1 71bd 77cb d33e 81bb a4be
000000f0: c92b 863e 723b f93e 540d 04bf 2fd1 12be
00000100: f442 f5bd 0b37 173e 987b 61be 1da1 b5be
00000110: 32a6 b43d 7620 9dbe 24bf eb3d 23d0 b23e
00000120: d9c4 bc3e 5a05 67bd 996e 8c3e 9e3e 84be
00000130: 0793 423e a548 dabe 1cb8 c3be cd48 993e
00000140: 2182 ecbe c10d 6abe 6743 e7be 823b 9fbe
00000150: 3515 5f3e 8e33 b5be 0fb5 3f3e 25e4 a0bd
00000160: 2f47 4e3e 44a9 87be 2946 773d 83f9 d6be
00000170: 3dad e2be f09d efbe 6b39 8d3e ca94 e7be
00000180: a64d e33e dcfa b3be bb0c ad3e 9dd4 993e
00000190: 8565 48be e70f c2be 0094 f6be 9c50 1a3e
000001a0: 0a7d 87be 66d6 063e 4b59 acbe acfc 953e
000001b0: d40f 38be 33b2 9ebe 6e2b d33e 3ed2 80be
000001c0: 2fad aebe 8955 a5bc 9ff3 2d3e 052d c5be
000001d0: 5c7e 2c3e c9d8 0a3e 4afb ebbe ceaa 823d
000001e0: 7b32 b53e 65b7 f03e 4eda c63e c22a 823e
000001f0: 0621 9fbe e8fb 07bf 0975 243e 2567 98be
00000200: be32 083d 9558 c53e c090 8cbe 13a3 9dbe
00000210: 6f5d 8abd 72a3 64be 7a6e ecbd 767f a8be
00000220: bf8f c7bd 9280 8abe f651 bf3e 2ea2 5ebe
00000230: 6113 d03e 32e1 0b3f b989 a63e 1457 f23e
00000240: 7222 003f e37e 83bd 6344 f9be 80c4 25be
00000250: 46fa df3e 2664 92be 13a6 793e abf0 0e3f
00000260: 27df 963e 0690 b4be b7f6 a3be 9c47 d8be
00000270: 9373 943e 63ed 84be 803a 203d cc53 963e
00000280: 67ed 8ebd e832 bcbe e64a 53be b398 acbe
00000290: 931a ba3e 49c1 f03e 7f0d c33e e655 23be
000002a0: 023a dfbe 0c17 ef3e a422 72be 7a5d a5be
000002b0: 133c 66be cf7d cabe e9af 36be 61bc 27be
000002c0: a1a2 cbbe 5ff0 1abf 790c 973e ec37 8f3e
000002d0: eed9 5a3e 3f0a d03e 986f 8a3e 7628 2bbe
000002e0: b721 ea3d 7b5a 25bd d4e1 8bbe 09f2 553e
000002f0: ddab 00bf df1c 3f3d 7351 d9be d110 00bd
00000300: 12b8 20be 0d2f 8a3e cd45 67be d421 d93e
00000310: 235f a0be f34d b5be 8d25 dabe 80a0 513e
00000320: 4178 953e 15cd b33e e129 94be c084 033f
00000330: e2fc 11be 2bf0 7abe 14c3 7bbe 77c8 2cbd
00000340: c206 a63e 9376 65be 4454 af3e 945f 44be
00000350: c326 a3be 2693 863e ee2b 16bf 8e9b 163f
00000360: b774 fbbe 0d47 f93e a24f b23e d778 86bd
00000370: 454c d13e d3ce a23e 3186 573e db59 37bd
00000380: e012 db3e 91fa f5be 9831 d23e b0c2 b73e
00000390: e960 9fbe 226c d53e 2d57 cfbd d5c0 913e
000003a0: 4a7c adbe e225 0d3f f703 9ebe 1ce0 ad3e
000003b0: 8418 44be 6811 733e cc8e dc3e 7782 09be
000003c0: 57c3 b6be 909e ba3e 5b12 1b3e 50b2 d83e
000003d0: 4669 81be fd6c 4b3e b121 813e e5c0 20be
000003e0: caf1 d2be cade 08be 3fc1 f0be 1bfb 6d3e
000003f0: 7307 d83e 4a66 4a3e e76a 0c3e 2f05 3b3f
-0.22303814 -0.34770203 -0.23237 0.5616796 0.44506878 -0.30056202 0.2595728 -0.4615224
-0.49185443 -0.2733529 -0.34277996 -0.17430839 0.4517247 0.5148059 -0.1917141 -0.18198057
0.19081037 -0.19937997 0.1848574 -0.2883037 0.4053813 -0.3650444 0.17806487 -0.18607025
0.19710578 0.48812616 -0.24160907 0.31827185 0.10877408 0.40091202 0.20354186 0.46982902
-0.17477316 0.31817877 -0.20934099 -0.28351507 0.22800924 0.48235634 -0.42965913 0.26077345
0.09739016 -0.28833094 0.4067927 -0.27443343 -0.3139737 0.25846466 0.081200466 -0.2933263
0.31518167 0.62052476 -0.16451547 0.47284278 -0.35982844 -0.027998718 0.27578416 0.45416766
-0.5440561 -0.059022877 0.4136617 -0.32174304 0.2620528 0.48678166 -0.5158284 -0.1433761
-0.11975661 0.14767091 -0.22019804 -0.35474482 0.08820762 -0.30688828 0.115110666 0.3492442
0.36868933 -0.056401588 0.2742813 -0.25829023 0.19001399 -0.42633548 -0.38226402 0.29938355
-0.4619303 -0.22856809 -0.4516861 -0.31100088 0.21785434 -0.35390896 0.18721412 -0.07856015
0.20144342 -0.26496327 0.060369644 -0.41987237 -0.44272795 -0.46800184 0.2758287 -0.45230705
0.4439518 -0.35152328 0.33798775 0.30045024 -0.19569977 -0.37902758 -0.4815979 0.15069813
-0.26462585 0.13167724 -0.33661875 0.29294336 -0.17974788 -0.3099533 0.41244072 -0.25160402
-0.34116504 -0.020182388 0.16987465 -0.3851091 0.16845077 0.1355926 -0.46090156 0.06380235
0.35390076 0.4701492 0.38838428 0.25423247 -0.31079882 -0.53118753 0.1606027 -0.29766193
0.033251517 0.38544145 -0.27454185 -0.30788478 -0.06756102 -0.22327974 -0.11544509 -0.32909745
-0.09744214 -0.27051216 0.3736722 -0.21741554 0.40639785 0.54640496 0.3252695 0.4733206
0.5005256 -0.06420686 -0.48684987 -0.1618824 0.4374563 -0.28592032 0.24379759 0.5583598
0.29467127 -0.3526613 -0.32024166 -0.42242134 0.28994426 -0.25962362 0.03911829 0.29360807
-0.06978875 -0.36757588 -0.2063404 -0.3371025 0.363484 0.47022465 0.38096234 -0.15950736
-0.43598944 0.4669727 -0.23646027 -0.3229788 -0.22483854 -0.3954911 -0.17840542 -0.16380455
-0.39772514 -0.6052303 0.29501703 0.27972353 0.21372196 0.40632817 0.27038264 -0.16714653
0.11432212 -0.040369492 -0.2732073 0.2089311 -0.5026224 0.046658393 -0.42444953 -0.031266037
-0.15695217 0.26989022 -0.2258522 0.4240862 -0.31322584 -0.35411033 -0.42606774 0.20471382
0.2919331 0.35117403 -0.289382 0.51374435 -0.14256623 -0.2450568 -0.24586135 -0.042183366
0.3242703 -0.22408514 0.34243977 -0.19177085 -0.3186551 0.2628414 -0.5866078 0.5883111
-0.49112484 0.4868702 0.3482638 -0.06566017 0.40878502 0.3179842 0.21047284 -0.044763427
0.42787838 -0.4804273 0.41053462 0.35890722 -0.31128624 0.4168406 -0.10124049 0.28467432
-0.33883888 0.5513593 -0.308624 0.33960044 -0.19149977 0.23737109 0.43077695 -0.13428675
-0.35695907 0.364491 0.15143721 0.42323542 -0.2527563 0.19865794 0.25221017 -0.15698583
-0.41200095 -0.13366237 -0.47022435 0.2324032 0.42193183 0.19765583 0.13712655 0.73054785

fc.bias f4 [8]
00000000: 73f1 efbd 864d e5bc 6899 d1bc 59aa be3d
00000010: 3864 163e 178e 24bc fab4 2ebc 09e0 94bc
-0.11715975 -0.027991068 -0.025585845 0.09309835 0.14686668 -0.0100436425 -0.010663265 -0.018173235
