ai/lstm_FINAL_state.pth (torch, 128886 bytes, 10 tensors)

lstm1.weight_ih_l0 f4 [256, 6]
0	0x3d6b580b	0.05745701
1	0x3defd947	0.11711364
2	0x3ba13478	0.004919585
3	0x3eb4f69e	0.35344404
4	0xbd88b30d	-0.06674776
5	0xbd41ac32	-0.04728336
6	0xbde58e7d	-0.11208818
7	0xbd2987c7	-0.041389253
8	0x3d75d771	0.060019914
9	0x3f9af98a	1.2107403
10	0x3d0a89ed	0.033822943
11	0x3f308027	0.68945545
12	0x3e0a1935	0.13486178
13	0x3e340445	0.17579754
14	0x3d62394b	0.05523042
15	0x3da8dc37	0.08245128
16	0xbd43789a	-0.047722436
17	0xbc3022b0	-0.010750458
18	0x3d3d39d3	0.046197724
19	0xbe320dd0	-0.17388082
20	0x3b00f8be	0.0019679512
21	0xbe0eda03	-0.13950352
22	0xbd440ee8	-0.04786578
23	0xbd4eb789	-0.050468
24	0xbcc38a4a	-0.023869652
25	0xbe0feaa7	-0.14054357
26	0xbc5a7443	-0.013333383
27	0xbdb787fc	-0.08961484
28	0x3cfa70b2	0.030571315
29	0x3ea64af3	0.32479057
30	0xbdb1b341	-0.08676768
31	0xbbe6e9d5	-0.007046918
32	0x3d97e086	0.07415871
33	0xbe926b9e	-0.2859773
34	0x3ddcc062	0.107788816
35	0x3d07248e	0.032993846
36	0xbde233f3	-0.11045065
37	0x3d91b6b5	0.07114927
38	0xbd362f11	-0.04447848
39	0xbcde15e1	-0.027110042
40	0xbca6ceb6	-0.02036224
41	0x3e8af209	0.27137783
42	0x3d5f7227	0.054552224
43	0x3cb51777	0.022105915
44	0x3bda36e3	0.006659375
45	0xbe242937	-0.16031347
46	0xbe8317a9	-0.2560399
47	0x3e1d96ac	0.15389508
48	0xbd9ba8f2	-0.07600583
49	0xbd452340	-0.04812932
50	0x3dc1e719	0.094679065
51	0xbf312082	-0.6919023
52	0x3cb32fd8	0.0218734
53	0xbf2b4aa5	-0.66910774
54	0x3d99905a	0.07498236
55	0x3b01d9d3	0.0019813671
56	0xbdc5ea99	-0.096638866
57	0xbe0a78ce	-0.13522646
58	0xbe03f57e	-0.12886617
59	0x3e39856f	0.18117307
60	0x3d6b76d6	0.057486378
61	0xbd5b15b6	-0.053487502
62	0x3d61f6b9	0.055166934
63	0xbcedeb4d	-0.029042864
64	0xbdb8845f	-0.09009623
65	0xbe56c92c	-0.20975178
66	0xbb6c9dbe	-0.0036104764
67	0x3c480eab	0.012210528
68	0x3d90e281	0.07074452
69	0x3d531ccd	0.05154114
70	0x3e7f63f4	0.24940473
71	0xbe45f4cc	-0.19331664
72	0x3e00cc27	0.12577878
73	0xbe222207	-0.15833293
74	0x3c3dc426	0.01158241
75	0xbd6683ec	-0.056278154
76	0xbdfd48e7	-0.12367421
77	0x3de88555	0.11353556
78	0x3e42368b	0.18966119
79	0x3e46ec80	0.19426155
80	0x3e3387b1	0.17532231
81	0xbc391478	-0.011296384
82	0xbe07e129	-0.13269486
83	0xbdc93418	-0.09824389
84	0x3d468818	0.048469633
85	0x3d3c66f8	0.045996636
86	0xbd2c06f8	-0.041998833
87	0xbd5b1efa	-0.05349634
88	0xbe0e0370	-0.13868499
89	0x3e854aa1	0.260335
90	0x3d35543c	0.044269785
91	0xbda07372	-0.078345194
92	0x3d9a925b	0.07547446
93	0xbdd1e14e	-0.102480516
94	0xbcd30a5c	-0.025761776
95	0x3e52e0a7	0.2059351
96	0xbcff23c3	-0.031144982
97	0xbc5784f9	-0.013154262
98	0xbd9f5e8f	-0.077817075
99	0xbde61b46	-0.11235671
100	0xbca205b2	-0.019778106
101	0x3ea650a0	0.32483387
102	0x3d7b2e8b	0.061323684
103	0xbce17ad4	-0.02752439
104	0x3e65076a	0.2236611
105	0x3d8df2ab	0.06931051
106	0xbe0565ce	-0.13027117
107	0x3ce4b597	0.02791862
108	0xbdc2fc17	-0.095207386
109	0xbe1ef9eb	-0.15525024
110	0xbd71caa1	-0.059031133
111	0x3d33c94d	0.043893147
112	0xbef61ee1	-0.48070434
113	0x3db78aef	0.08962046
114	0x3d38dc45	0.04513194
115	0x3de0da81	0.10979176
116	0x3c196f24	0.009364877
117	0xbdb00bfe	-0.08596037
118	0xbe3e63f2	-0.18592814
119	0xbe6fcb2c	-0.23417348
120	0xbc3d89d1	-0.0115685025
121	0x3d9a2d06	0.07528119
122	0x3e2c1f28	0.1680876
123	0xbcdb6c03	-0.026784902
124	0xbe90e991	-0.28303197
125	0x3cf78a58	0.030217335
126	0x3da71f13	0.08160224
127	0x3d88b223	0.06674602
128	0xbe6a15be	-0.22859856
129	0xbdb863af	-0.09003388
130	0x3e7d98ba	0.24765292
131	0xbbefccec	-0.0073181298
132	0x3ac669f0	0.0015137773
133	0xbdac8d86	-0.08425431
134	0xbd75e246	-0.060030244
135	0xbd2314b2	-0.03981466
136	0x3e51c058	0.2048353
137	0xbda888f7	-0.08229249
138	0x3d40d2de	0.0470761
139	0x3db172f9	0.086645074
140	0x3e8aa2dd	0.2707738
141	0x3cdd3185	0.027001152
142	0xbe3f9136	-0.18707737
143	0x3d88fb5d	0.06688569
144	0x3c05f702	0.008176567
145	0x3d3aaef2	0.045576997
146	0xbc9da3a5	-0.01924307
147	0xbda201a1	-0.07910467
148	0xbe14df9a	-0.14538422
149	0xbe52d9ae	-0.2059085
150	0x3da2ff87	0.07958894
151	0x3cd456ba	0.02592026
152	0x3cca000b	0.024658224
153	0xb9cadbe8	-0.00038692285
154	0x3e5e6e02	0.21721652
155	0xbe3f1133	-0.18658905
156	0xbd05434f	-0.032534894
157	0x3cd8ee6a	0.026480872
158	0xbd4062c5	-0.046969194
159	0xbe3b722d	-0.18305273
160	0xbc265d70	-0.010154113
161	0x3d5b9da4	0.053617135
162	0xbcdc8a29	-0.026921349
163	0x3df722b2	0.120671645
164	0xbc9667fa	-0.018360127
165	0x3d120911	0.035653178
166	0xbe3c9180	-0.18414879
167	0x3dd33449	0.10312707
168	0xbd88dda4	-0.066828996
169	0x3e3ca54e	0.18422434
170	0xbdaee502	-0.085397735
171	0x3e1625f3	0.14662914
172	0x3e2b843c	0.16749662
173	0x3d85b616	0.06528871
174	0x3c9210fd	0.017830366
175	0xbe1cec05	-0.1532441
176	0xbe558636	-0.20851979
177	0x39571956	0.00020513436
178	0xbd482e7f	-0.048872467
179	0xbe7d32cc	-0.24726409
180	0x3df0d422	0.11759211
181	0xbdd7c566	-0.10535698
182	0x3bb686fb	0.00557029
183	0x3cdd9aa8	0.027051285
184	0x3e1e930d	0.15485783
185	0x3d9e01c8	0.077151835
186	0xbca4cafd	-0.020116324
187	0x3d5915fb	0.052999478
188	0xbd4c0d6c	-0.049817488
189	0x3d8f5b68	0.06999856
190	0x3d8fa474	0.07013789
191	0xbd3fab04	-0.046793953
192	0x3d8dee5a	0.069302276
193	0x3dcae29f	0.09906506
194	0x3c232dac	0.0099596195
195	0xbea86bfb	-0.32894883
196	0xbdd04b2c	-0.10170588
197	0xbd824788	-0.063613
198	0xbe09b776	-0.13448891
199	0xbbf2b0df	-0.0074063386
200	0xbd9b5ffe	-0.075866684
201	0x3d8f15b1	0.06986559
202	0xbda08490	-0.07837784
203	0xbdeb5d49	-0.11492402
204	0x3d3db198	0.046311945
205	0x3d7457dc	0.0596541
206	0xbdb93dc7	-0.09044986
207	0x3dab22e3	0.083562635
208	0xbe81d486	-0.25357455
209	0x3c80a6cf	0.01570454
210	0xbd7e92c4	-0.062151685
211	0xbe02a838	-0.12759483
212	0xbd027a40	-0.031854868
213	0x3d02692a	0.031838574
214	0x3e784eba	0.24248782
215	0xbc0e2e66	-0.008678054
216	0xbdd33f55	-0.10314814
217	0xbcdef092	-0.027214322
218	0xbe37d51c	-0.17952389
219	0xbe5c2c2b	-0.21501224
220	0x3d316cac	0.04331653
221	0x3e75cafb	0.24003212
222	0xbe2b6947	-0.16739379
223	0xbb646c80	-0.003485471
224	0x3bcc07b4	0.006226504
225	0x3bf60f9c	0.007509185
226	0x3e5d21f2	0.2159498
227	0xbbf263b4	-0.0073971394
228	0xbd394c4c	-0.045238778
229	0xbdab673d	-0.083693005
230	0x3e05cf2b	0.1306731
231	0xbbf281c4	-0.007400723
232	0xbe4c14ec	-0.19929856
233	0x3cfadeb6	0.030623775
234	0x3dd65063	0.10464551
235	0xbd9de9dc	-0.07710621
236	0x3e497c89	0.19676413
237	0x3d2a1fbd	0.041534174
238	0xbdab596c	-0.08366665
239	0x3e6412fb	0.22272865
240	0x3dc9e197	0.09857481
241	0x3dc0710e	0.093965635
242	0x3d13325e	0.035936706
243	0xbd1065fb	-0.035253506
244	0x3cb9bac2	0.02267206
245	0xbd237e61	-0.039915446
246	0xbcd79951	-0.026318224
247	0xbd913210	-0.07089627
248	0x3ce40fcb	0.027839562
249	0xbb83efb8	-0.0040263794
250	0xbe7e89c2	-0.24857238
251	0x3e063746	0.13107023
252	0x3c513efa	0.012771362
253	0x3c173c3b	0.009230669
254	0x3eae90db	0.3409489
255	0xbc595f1a	-0.013267303

lstm1.weight_hh_l0 f4 [256, 64]
0	0x3d14b5f9	0.036306355
1	0xbdcd6385	-0.100287475
2	0xbe0f9a05	-0.14023598
3	0xbd24c720	-0.040228963
4	0xbd6232b1	-0.055224124
5	0xbd38c513	-0.04510982
6	0x3ce2cc4b	0.027685305
7	0xbe12c9a9	-0.1433474
8	0x3d00b799	0.031425092
9	0xbe566e85	-0.20940597
10	0x3df9d79e	0.12199329
11	0x3d988229	0.07446701
12	0x3e03dbb1	0.12876774
13	0xbd6c8fe3	-0.05775441
14	0x3da4c5cd	0.0804554
15	0x3e8e5eee	0.278068
16	0xbe4d385a	-0.20041028
17	0x3a9db04d	0.0012030691
18	0xbed0a0e5	-0.40747753
19	0xbe53d837	-0.20687948
20	0x3c31dcb7	0.010855845
21	0xbd03c70b	-0.032172244
22	0xbd06104f	-0.032730397
23	0xbc0b8a17	-0.00851681
24	0xbe5fafde	-0.21844432
25	0xbd946bc5	-0.07247118
26	0xbd0af8dd	-0.03392874
27	0xbdea3c2d	-0.11437259
28	0xbe1b4f6d	-0.15167017
29	0x3ea1959e	0.3155946
30	0x3c81e5d7	0.015856666
31	0x3d728a2b	0.0592138
32	0x3e1a38a7	0.15060674
33	0x3ba9d506	0.005182865
34	0x3b7d52f5	0.0038654183
35	0x3cd89a80	0.026440859
36	0xbe5a8ae3	-0.21342044
37	0x3d3c1a0b	0.045923274
38	0xbced30bd	-0.028953904
39	0x3e465195	0.19367059
40	0xbda10996	-0.078631565
41	0xbdbdb049	-0.09262139
42	0x3db93695	0.09043614
43	0xbcd37273	-0.02581141
44	0x3e9c81b7	0.30567715
45	0x3e2582a1	0.16163112
46	0x3d1871a1	0.03721774
47	0x3e8df8f0	0.27728987
48	0x3d5e9ee4	0.05435075
49	0x3e78efb4	0.2431019
50	0x3e659ba8	0.2242266
51	0xbd8567ac	-0.065139145
52	0x3e0f8213	0.14014463
53	0x3d3976fa	0.04527948
54	0xbd29a51c	-0.041417226
55	0x3dfaa562	0.122385755
56	0x3e6f917f	0.23395346
57	0xbb333f03	-0.002735079
58	0x3d0047e2	0.031318553
59	0x3d5113ab	0.051044147
60	0x3e2004f3	0.15626888
61	0xbe007832	-0.12545851
62	0x3e1e4429	0.15455689
63	0xbe36f2f7	-0.17866121
64	0xbe11e881	-0.1424885
65	0xbd16eae7	-0.036845114
66	0xbde2e16a	-0.110781506
67	0xbe1588f2	-0.14603022
68	0x3e03bfa1	0.1286607
69	0x3e258629	0.1616446
70	0x3ded8c9e	0.11599086
71	0x3c7018ad	0.014654321
72	0xbe9ee2d5	-0.31032434
73	0xbe7322fc	-0.23743814
74	0x3c0a9f8c	0.0084608905
75	0x3e2c77b3	0.16842537
76	0x3e7ff081	0.24994089
77	0x3c2ca46f	0.010537251
78	0xbe470b1d	-0.19437833
79	0xbe027e3b	-0.12743466
80	0xba467d0a	-0.0007571733
81	0x3e48566e	0.1956422
82	0xbe7fa486	-0.24965104
83	0x3d0c6231	0.03427333
84	0x3e670aa5	0.22562654
85	0xbec714f3	-0.3888317
86	0x3ef66585	0.48124328
87	0x3e3bb4ae	0.18330643
88	0xbca30a9a	-0.019902516
89	0xbec4633d	-0.38356963
90	0x3d5ba2d4	0.053622082
91	0x3ddd8e2c	0.10818133
92	0xbe14373f	-0.144742
93	0x3e81ba9f	0.25337693
94	0x3ebaf28b	0.3651317
95	0x3d357582	0.044301517
96	0x3dba29c2	0.09089996
97	0x3e42cd0f	0.19023536
98	0x3e9bcdba	0.30430394
99	0x3e1f1dac	0.15538663
100	0x3ed5def0	0.4177165
101	0x3d82e852	0.06391968
102	0xbd906253	-0.07050004
103	0xbe1b445a	-0.15162793
104	0xbe4bcbde	-0.19901988
105	0xbc964567	-0.01834364
106	0xbe753d44	-0.23949152
107	0x3e065a1d	0.13120313
108	0x3c1f44c7	0.009720988
109	0x3d602a91	0.054728094
110	0xbe86be14	-0.26316893
111	0xbe001948	-0.12509644
112	0x3d8b5576	0.0680341
113	0xbe6d70c4	-0.23187548
114	0x3be5d5c9	0.0070140106
115	0x3c4aa040	0.012367308
116	0x3cf88c08	0.03034021
117	0x3cb80f27	0.022468163
118	0x3eae7b0d	0.34078255
119	0x3e3e4945	0.18582638
120	0x3e0b30fd	0.13592906
121	0x3dbd8469	0.09253771
122	0x3e0d80dc	0.13818687
123	0xbe66a50e	-0.22523901
124	0x3d9b674d	0.075880624
125	0xbde38443	-0.11109211
126	0xbddff6c6	-0.1093574
127	0xbe07362d	-0.1320426
128	0xbdb0a000	-0.086242676
129	0x3d57faa3	0.05272926
130	0x3e86a00b	0.26293978
131	0xbd1bca1b	-0.03803454
132	0xbd8fc457	-0.07019871
133	0x3d98139a	0.07425614
134	0xbd026158	-0.031831115
135	0xbc8dc435	-0.017305473
136	0x3e544de1	0.20732833
137	0x3d8d335c	0.06894562
138	0x3dba0f17	0.090849094
139	0x3d201255	0.039079983
140	0xbbcedcd4	-0.006312946
141	0xbdf9b660	-0.121929884
142	0x3ea1ebdd	0.31625262
143	0xbebf395d	-0.37348452
144	0xbee55f56	-0.44799298
145	0x3e70ffff	0.23535155
146	0xbdb4f044	-0.088348895
147	0x3d15f3ec	0.036609575
148	0xbe08a080	-0.13342476
149	0x3df44cae	0.11928688
150	0x3e44e497	0.19227825
151	0x3e6ab964	0.22922283
152	0xbdf572c0	-0.119847775
153	0xbd590b05	-0.052989025
154	0xbe14acf9	-0.14519109
155	0xbc81dd95	-0.015852729
156	0x3e25fa8a	0.16208854
157	0xbe8955c6	-0.26823252
158	0x3ed472a6	0.4149372
159	0xbe6af083	-0.2294331
160	0x3cc05a9a	0.023480702
161	0x3dc0eef1	0.094205745
162	0xbe5d6c97	-0.21623455
163	0x3c889dad	0.016676748
164	0x3ebcb321	0.36855415
165	0xbe3c6bdf	-0.18400525
166	0xbd1586b4	-0.036505416
167	0xbc6b7cca	-0.014373014
168	0x3e2ef7c4	0.17086703
169	0xbe3a08c3	-0.18167405
170	0x3dd85397	0.105628185
171	0xbcfba50a	-0.030718345
172	0x3d69e614	0.057104185
173	0x3d8045d9	0.062633224
174	0x3cdd519d	0.027016455
175	0xbeb4f89a	-0.35345918
176	0xbcf679cb	-0.030087372
177	0xbd8d537d	-0.0690069
178	0x3dc31a02	0.09526445
179	0xbe6bc650	-0.23024869
180	0x3d53b67a	0.051687695
181	0x3d501ba2	0.050807603
182	0xbd7ffada	-0.06249509
183	0xbdae99d6	-0.085254356
184	0xbdba77fe	-0.09104918
185	0xbe5bb8a0	-0.21457148
186	0xbc59015c	-0.013244953
187	0x3dd41115	0.10354821
188	0x3e8cb009	0.27478054
189	0x3ea185a1	0.31547263
190	0x3df11f2d	0.117735244
191	0xbea8afc6	-0.32946604
192	0x3cf8143d	0.030283088
193	0xbf2d4192	-0.6767818
194	0xbe21d2bc	-0.15803045
195	0x3ea59039	0.32336596
196	0xbdda7a19	-0.106678195
197	0xbef03009	-0.46911648
198	0x3e9eb675	0.3099858
199	0xbd2addda	-0.04171548
200	0xbe52da4c	-0.20591086
201	0xbe9dd338	-0.3082521
202	0xbecfe027	-0.40600702
203	0xbe2df9ec	-0.16989869
204	0x3dac94cd	0.08426819
205	0x3e56bce6	0.20970497
206	0xbd23a076	-0.03994795
207	0xbe2367fe	-0.15957639
208	0xbe5766be	-0.21035287
209	0x3cb3a2bf	0.02192819
210	0xbe8bfcab	-0.27341208
211	0x3ddbbb7b	0.107291184
212	0x3dec85f9	0.11548991
213	0xbe8f0f3f	-0.2794132
214	0xbee99142	-0.45618635
215	0x3df0f058	0.11764592
216	0x3e07f4b4	0.1327694
217	0x3ce9eea5	0.028556177
218	0x3eccaa49	0.39973667
219	0x3be134ee	0.006872765
220	0xbd82e6cf	-0.063916795
221	0xbe7b2f27	-0.24529706
222	0xbf0f0e0c	-0.5588081
223	0x3e257476	0.16157708
224	0xbdcdea47	-0.100544505
225	0xbf019bba	-0.50628245
226	0x3dea232a	0.11432488
227	0xbeb20a75	-0.34773603
228	0xbc7d5c53	-0.015463906
229	0xbe3c8521	-0.1841016
230	0xbe716c83	-0.2357655
231	0xbd9c6aa5	-0.07637528
232	0xbe1ff8f4	-0.15622312
233	0x3d7b7057	0.061386432
234	0x3df92c52	0.121666566
235	0x3d8c30ae	0.068452224
236	0x3d6900a6	0.056885384
237	0xbe9c29fd	-0.30500785
238	0x3e959bf3	0.29220542
239	0x3e43d3dc	0.19123787
240	0x3ee38717	0.44439003
241	0xbe8aed7c	-0.2713431
242	0x3d815368	0.063147366
243	0x3e8831e4	0.26600564
244	0xbf180a8d	-0.593911
245	0x3ca84139	0.020538913
246	0x3d5f7fa9	0.054565106
247	0x3e6fd4fc	0.23421091
248	0xbe358135	-0.1772507
249	0x3e9ed327	0.3102047
250	0xbe342d1c	-0.17595333
251	0xbcbc95ce	-0.023020651
252	0xbe16d667	-0.14730226
253	0x3e4940e7	0.19653665
254	0x3d84a1fd	0.06476209
255	0xbed56794	-0.41680586

lstm1.bias_ih_l0 f4 [256]
0	0xbd68e99c	-0.056863412
1	0x3de06b94	0.10958019
2	0x3de59e91	0.11211885
3	0x3d16eb7f	0.03684568
4	0xbdee7e36	-0.116451666
5	0x3dba3505	0.09092144
6	0xbe27fe4c	-0.164056
7	0x3d0ecebb	0.034865122
8	0x3cda5059	0.02664964
9	0xbda7914e	-0.081820115
10	0xbe2a0635	-0.1660393
11	0xbc5f52e2	-0.013630601
12	0x3e2217cc	0.1582939
13	0xbd41248d	-0.047154
14	0x3cbae21d	0.022812897
15	0xbe34939a	-0.1763443
16	0x3e73e1f0	0.23816657
17	0x3c92d2e4	0.017922826
18	0xbdbbb829	-0.09165985
19	0x3dec7aae	0.11546837
20	0x3e5fc4d2	0.21852425
21	0xbe07dd15	-0.1326793
22	0x3e018244	0.12647349
23	0x3eb6d512	0.35709435
24	0x3c93daea	0.018048722
25	0xbe1a814b	-0.15088384
26	0x3d069398	0.0328556
27	0x3daab0d9	0.08334512
28	0x3d942ac6	0.07234721
29	0x3d3ad801	0.045616154
30	0x3e157000	0.14593506
31	0x3dc7acfc	0.09749791
32	0x3dd3115e	0.10306047
33	0x3da84382	0.08216001
34	0x3d9dce69	0.07705385
35	0x3d4a388f	0.049370345
36	0xbd4b9b81	-0.049708847
37	0xbe196e00	-0.14983368
38	0x3d425aaf	0.047449764
39	0xbdda028e	-0.106450185
40	0x3e5b27c0	0.21401882
41	0x39e864c6	0.0004432557
42	0xbe1b6d7e	-0.15178487
43	0x3da9265e	0.08259271
44	0xbe113426	-0.1418005
45	0x3db253a3	0.08707359
46	0xbdfae33a	-0.12250371
47	0x3e0370e3	0.12836032
48	0xbcea9f82	-0.028640512
49	0x3d933c16	0.07189195
50	0x3d88cf1c	0.06680128
51	0xbd6d2dfa	-0.057905175
52	0xbd12fb9a	-0.035884477
53	0xbcff1c64	-0.031141467
54	0x3c8cfe65	0.017211149
55	0x3e3e8865	0.18606718
56	0x3e83baf1	0.25728562
57	0x3dbc35be	0.09189938
58	0x3e0cc324	0.13746315
59	0x3c949e90	0.018142015
60	0xbbe6d9f4	-0.007045025
61	0xbe2d01f1	-0.16895272
62	0x3d82e3fd	0.063911416
63	0x3df9e664	0.12202147
64	0x3dcec7f2	0.1009673
65	0xbd661fef	-0.056182798
66	0x3c3aa2ec	0.011391383
67	0x3dbfa3a9	0.093573876
68	0x3dee0085	0.11621193
69	0x3d016166	0.031587027
70	0xbdcb544b	-0.09928187
71	0x3e0198e9	0.12655987
72	0xba8a1794	-0.0010535591
73	0x3e5f3693	0.21798162
74	0x3dcda0d1	0.10040439
75	0xbd91633b	-0.07099005
76	0xbc3cad68	-0.011515953
77	0x3c56c587	0.013108618
78	0xbd99ba47	-0.07506233
79	0x3ddfb8cd	0.1092392
80	0x3e07d491	0.13264681
81	0xbe127ac5	-0.14304645
82	0xbdfa0f19	-0.12209911
83	0xbdd34c1c	-0.10317251
84	0x3d172cca	0.03690795
85	0x3d282052	0.041046448
86	0x3df02a44	0.117268115
87	0xbc6f82a6	-0.014618551
88	0x3d9a4607	0.07532888
89	0xbda3efa1	-0.0800469
90	0x3e1c6c72	0.15275744
91	0xbd8f6a24	-0.070026666
92	0xbc3c9430	-0.01150994
93	0xbde83612	-0.11338438
94	0xbe246c3b	-0.16056912
95	0x3e484801	0.19558717
96	0x3dc232ed	0.094823696
97	0x3d59b7dc	0.053153858
98	0x3c773a68	0.015089609
99	0x3dc57c18	0.0964281
100	0x3e2fbd83	0.17162137
101	0xbc0935af	-0.008374616
102	0xbd34f6d7	-0.044180717
103	0x3de451d7	0.11148422
104	0xbd28210f	-0.041047152
105	0x3c3f6b07	0.011683232
106	0x3e088b5c	0.13334411
107	0xbd5d42a5	-0.054018635
108	0x3d9db916	0.07701318
109	0x3e8ab102	0.2708817
110	0xbdaca482	-0.08429815
111	0x3e3fa14e	0.18713877
112	0xbd5b2a7d	-0.053507317
113	0xbd24b64c	-0.040212914
114	0x3d686ed6	0.056746326
115	0xbdc529ee	-0.09627138
116	0x3dfa55c1	0.122233875
117	0x3e0c74a1	0.13716365
118	0xbd918a93	-0.07106509
119	0xbc8e15da	-0.017344404
120	0x3d971e57	0.07378834
121	0xbd21a62f	-0.039465126
122	0xbb57260d	-0.0032829077
123	0xbd4b7b28	-0.049677998
124	0x3e620dfe	0.2207565
125	0x3c4153aa	0.011799732
126	0xbdf0747c	-0.11740968
127	0xbd8dfc0b	-0.06932839
128	0x3d620a2d	0.055185486
129	0x3d6d17b3	0.05788393
130	0x3dd45eb9	0.103696294
131	0xbd429a25	-0.047510285
132	0x3dafdf0f	0.08587467
133	0xbcd0d9f7	-0.025494559
134	0xbd9861f2	-0.074405566
135	0xbc28e9c4	-0.01030964
136	0x3db38f7d	0.087676026
137	0xbe105c36	-0.14097676
138	0x3d232283	0.039827835
139	0xbe16a16e	-0.14710018
140	0x3d85ccc5	0.06533197
141	0xbe0a4003	-0.13500981
142	0xbcac2fc3	-0.021018868
143	0xbd77322c	-0.060350582
144	0x3e42bd27	0.19017468
145	0xbd5c700f	-0.053817805
146	0xbdd9c4af	-0.106332175
147	0xbd8cc52b	-0.06873544
148	0xbd56dfcf	-0.052459534
149	0xbe0b6b60	-0.13615179
150	0xbe0ab6aa	-0.13546243
151	0xbd9e415b	-0.07727309
152	0xbd1877a2	-0.037223466
153	0xbd39b293	-0.045336317
154	0xbe4873c6	-0.19575414
155	0xbd8502c0	-0.06494665
156	0xbe11b3a8	-0.1422869
157	0x3e0b91a9	0.13629784
158	0xbe2ee9b1	-0.17081334
159	0x3df38e92	0.118924275
160	0x3dea50ab	0.114411674
161	0xbcf9c8e0	-0.030491292
162	0xbddbb052	-0.1072699
163	0xbdf54a30	-0.11977041
164	0xbc158579	-0.009126061
165	0x3ddd8815	0.10816971
166	0x3ca6b4f3	0.020349955
167	0x3db0ec2d	0.08638797
168	0xbe118fd0	-0.14215016
169	0xbdfda34e	-0.123846635
170	0xbd894c64	-0.067040235
171	0x3e3ad153	0.18243913
172	0xbd3b1fe5	-0.045684714
173	0x3e9fbc7a	0.31198484
174	0xbdbe9e4e	-0.09307538
175	0x3e2a88b8	0.16653717
176	0xbdd0f7f6	-0.10203545
177	0x3dcda728	0.10041648
178	0x3a62084e	0.00086224533
179	0xb89095c7	-6.894353e-05
180	0xbc96e40b	-0.018419286
181	0x3d75c0bb	0.059998255
182	0xbdbc4d6d	-0.09194455
183	0x3d684bc4	0.05671288
184	0x3c619f10	0.013770834
185	0xbcc42445	-0.023943076
186	0x3d04310d	0.03227334
187	0xbe1f7657	-0.15572487
188	0xbd965df1	-0.07342137
189	0x3cee1ab4	0.029065467
190	0xbcddf17b	-0.027092686
191	0x3d382c3c	0.04496406
192	0x3e18d157	0.14923607
193	0x3d38502a	0.044998325
194	0xbdab9e45	-0.08379797
195	0x3d917f08	0.071043074
196	0xbd5065a7	-0.050878193
197	0x3def392f	0.11680829
198	0x3e60a802	0.2193909
199	0xbd21c616	-0.03949555
200	0x3e22eb69	0.15910114
201	0x3caada0e	0.02085593
202	0x3e223635	0.15840991
203	0x3dcb9026	0.099396035
204	0xbd9c109c	-0.076203555
205	0x3cfd4b34	0.030919649
206	0x3c9e9a8e	0.019360807
207	0xbd943583	-0.07236769
208	0xbdc54bad	-0.09633575
209	0xbd48ede1	-0.049054984
210	0x3de7cb7f	0.11318111
211	0x3e15472f	0.14577936
212	0x3e0ff937	0.14059912
213	0x3d923666	0.07139282
214	0x3d83f91e	0.06444
215	0x3dae1c00	0.08501434
216	0xbd70aa48	-0.058756143
217	0xbd905161	-0.07046772
218	0x3e594549	0.21217836
219	0x3ca598c9	0.020214455
220	0x3d135776	0.03597208
221	0xbca69abe	-0.020337459
222	0x3da00076	0.07812588
223	0x3e74a389	0.23890509
224	0xbdd0a187	-0.10187059
225	0x3d197020	0.037460446
226	0x3de3d52a	0.11124642
227	0xbdec8a49	-0.11549813
228	0x3dce1159	0.100619026
229	0x3da269a0	0.079303026
230	0xbdf854d4	-0.12125555
231	0xbd873f9d	-0.0660393
232	0xbb057f1a	-0.0020369948
233	0x3ddd0950	0.10792792
234	0x3c258299	0.010101938
235	0xbdaf7c8f	-0.085686795
236	0x3ddb0fd5	0.10696379
237	0x3dd21c71	0.10259331
238	0xbb9f30ce	-0.004858113
239	0x3de46c0d	0.111534216
240	0x3e4a0696	0.19729075
241	0xbdac32d7	-0.084081344
242	0x3dc6dc68	0.09710008
243	0xbd1d43ba	-0.038394667
244	0x3dce6637	0.1007809
245	0xbdd836e5	-0.10557345
246	0x3e3d8d46	0.18510923
247	0x3e0db750	0.1383946
248	0x3e142575	0.14467414
249	0x3e5090bb	0.2036771
250	0x3dd63d18	0.104608715
251	0xbd12dd6d	-0.0358557
252	0xbc9b45c2	-0.018954162
253	0x3dc0ee86	0.09420495
254	0x3d6830a8	0.056687027
255	0xbd521815	-0.051292498

lstm1.bias_hh_l0 f4 [256]
0	0x3d922294	0.071355015
1	0xbd24c6c2	-0.040228613
2	0xbd8c53c6	-0.06851916
3	0x3d562cba	0.05228875
4	0x3d5725e1	0.05252636
5	0x3c470e5d	0.012149421
6	0x3d8506eb	0.0649546
7	0xbdddf5b6	-0.10837881
8	0xbd4d628b	-0.050142806
9	0xbd4f81d4	-0.050660923
10	0xbd1364de	-0.035984866
11	0x3c64d6fa	0.01396727
12	0x3d91c30a	0.07117279
13	0xbd49c2db	-0.049258094
14	0x3aa2329d	0.0012374703
15	0xbe3645f2	-0.1780012
16	0x3cde5c93	0.027143752
17	0x3dd945e3	0.10609033
18	0x3a0ec648	0.00054464163
19	0x3cc995ae	0.024607506
20	0x3e6dce2e	0.23223183
21	0x3d164137	0.036683287
22	0xbdbf1dfc	-0.09331891
23	0x3e364148	0.1779834
24	0x3d67b0c5	0.056565065
25	0xbd49c9fe	-0.0492649
26	0x3d19da89	0.037561927
27	0x3d3e3d9f	0.046445485
28	0xbd97fa40	-0.07420778
29	0x3e538f80	0.2066021
30	0xbcef588a	-0.029217023
31	0x3da2caa6	0.07948808
32	0x3e257edc	0.16161674
33	0xbca437ad	-0.02004608
34	0x3d8c48e8	0.06849843
35	0x3cd96281	0.026536228
36	0x3c58a727	0.013223446
37	0xbdcff17a	-0.1015348
38	0x3ce329eb	0.027729949
39	0xbe2e1d81	-0.17003442
40	0x3d267636	0.04064008
41	0x3d17ad55	0.037030537
42	0xbe3db10f	-0.18524574
43	0x3ddd1a30	0.107960105
44	0x3dae3b1c	0.08507368
45	0xbda089bd	-0.078387715
46	0xbdeed300	-0.11661339
47	0x3e5b756f	0.21431516
48	0xbe5d3332	-0.2160156
49	0xbdb1380e	-0.0865327
50	0x3e43ba1d	0.19113965
51	0x3c885dcc	0.016646288
52	0xbc58ca54	-0.0132318325
53	0x3de1e479	0.11029906
54	0x3c69cd4c	0.014270138
55	0x3e85eb97	0.26156303
56	0x3e015273	0.12629108
57	0x3d324a3c	0.043527827
58	0x3d044e46	0.03230121
59	0x3dbd36ef	0.092389934
60	0xbd0a96e3	-0.033835303
61	0xbe2a0aab	-0.16605632
62	0x3be82fcf	0.0070857774
63	0x3dd703e8	0.10498792
64	0x3e307265	0.17231138
65	0x3d11ba1d	0.035577882
66	0xbe2c6be7	-0.16838036
67	0x3dfce870	0.123490214
68	0x3d99f658	0.075176895
69	0x3e2a1831	0.16610791
70	0x3ce07ca3	0.027403181
71	0x3de4550d	0.11149035
72	0x3da7f98e	0.08201896
73	0x3dab4f42	0.083647266
74	0x3da264bf	0.07929372
75	0x3e004237	0.12525259
76	0xbbb86b5b	-0.005628032
77	0xbe0f1b60	-0.13975286
78	0xbda7892e	-0.08180462
79	0xbdb77579	-0.08957953
80	0x3d7714a0	0.060322404
81	0x3c2e4250	0.010635927
82	0xbbb4fc61	-0.00552325
83	0xbc6e0688	-0.014527924
84	0x3e08fb17	0.13377033
85	0xb9924020	-0.00027895067
86	0x3d5b0855	0.053474743
87	0x3de58fad	0.112090446
88	0xbba052b5	-0.004892672
89	0xbd741e50	-0.05959922
90	0x3db815d8	0.08988541
91	0x3c5dc058	0.013534628
92	0xbb568554	-0.0032733278
93	0xbe07bb00	-0.13254929
94	0xbd2be985	-0.04197075
95	0x3b99acb3	0.004689777
96	0x3d73a96e	0.059487753
97	0x3d1bdc2c	0.03805177
98	0xbda78b15	-0.08180825
99	0xbd9f45a2	-0.07776953
100	0x3cce63fe	0.025194164
101	0x3d623061	0.05522192
102	0xbe188561	-0.1489463
103	0x3e189e78	0.14904201
104	0xbd949b4e	-0.072561845
105	0xbd5f25a4	-0.054479256
106	0x3e24515f	0.16046666
107	0x3c48d934	0.0122588165
108	0x3ddf9326	0.10916738
109	0x3e9bd3cb	0.30435023
110	0xbbe6fb70	-0.0070490167
111	0x3df35fb8	0.11883491
112	0xbda4cab1	-0.08046473
113	0x3e0bfe98	0.13671339
114	0xbda2a127	-0.079408936
115	0x3deed911	0.11662496
116	0x3bf4f72e	0.007475755
117	0xbb78fff6	-0.0037994361
118	0x3e0a1a8e	0.13486692
119	0x3d59903c	0.05311607
120	0x3d37b55b	0.04485069
121	0x3d687d0c	0.05675988
122	0x3df1d5d0	0.118083596
123	0xbd9e1ce6	-0.07720356
124	0x3e45068e	0.19240782
125	0x3e02687d	0.12735172
126	0xbd6651fd	-0.056230534
127	0x3dfd82c7	0.123784594
128	0xbd2ae8e8	-0.041726023
129	0xbc939784	-0.018016584
130	0x3d893371	0.06699265
131	0xbdb8b30f	-0.09018528
132	0x3d89213a	0.066957906
133	0xbd69b493	-0.057056975
134	0x3d5648b9	0.052315447
135	0xbd6fe809	-0.058570895
136	0x3daa904c	0.08328304
137	0x3c28f0c7	0.010311312
138	0xbe0637dc	-0.13107246
139	0x3c5e7e2e	0.013579888
140	0xbdb3f514	-0.08786979
141	0x3d556947	0.052102353
142	0x3d957473	0.072976016
143	0xbcfcbdaa	-0.030852158
144	0x3d7df763	0.062003504
145	0x3c6e280d	0.014535916
146	0x3d169ae2	0.0367688
147	0x3c535f69	0.0129011655
148	0x3dc032a9	0.09384663
149	0xbd2bc1dd	-0.04193293
150	0xbe06e49f	-0.1317315
151	0xbe5fdb45	-0.21860988
152	0x3c47bd44	0.012191121
153	0x3e1ddfd3	0.15417413
154	0xbdda19d6	-0.10649459
155	0x3dba5dde	0.09099935
156	0xbbbb7d5f	-0.0057217325
157	0x3d8cc596	0.06873624
158	0xbdd32158	-0.10309094
159	0x3d6f07ff	0.058357235
160	0x3dad18ff	0.08452033
161	0xbdd9a237	-0.10626643
162	0x3c504802	0.0127124805
163	0xbda03677	-0.07822888
164	0xbe4eee0e	-0.20207998
165	0x3c86b43e	0.016443368
166	0x3d629929	0.055321846
167	0xbddc576d	-0.10758863
168	0xbdfc4b09	-0.12318999
169	0x3dc69aa3	0.09697463
170	0xbd946dab	-0.0724748
171	0x3e4a8390	0.1977675
172	0x3e2dde91	0.16979434
173	0x3d919180	0.0710783
174	0x3e03b4cf	0.12861942
175	0x3d9e1e6d	0.07720647
176	0xbdcf93f1	-0.101356395
177	0xbb24b7d3	-0.0025133982
178	0xbc5c6ce9	-0.013453701
179	0x3d9c069b	0.076184474
180	0xbd8ed6f6	-0.06974594
181	0x39952803	0.00028449306
182	0x3cba3545	0.022730479
183	0x3d7c3977	0.06157824
184	0x3d9b51c4	0.07583955
185	0x3c1792ec	0.0092513375
186	0x3e11633c	0.14198011
187	0xbe2ca1e7	-0.16858636
188	0xbd12d3d4	-0.035846546
189	0x3d1dcd7e	0.03852605
190	0xbd008699	-0.031378362
191	0x3cf7ed98	0.03026466
192	0x3d726dbc	0.059186682
193	0x3e516c9c	0.20451587
194	0xbd5766b6	-0.052588187
195	0x3d4dddfc	0.05026053
196	0x3d7e6f8d	0.062118102
197	0x3e44395a	0.19162503
198	0x3b9510ce	0.0045491224
199	0x3e1714d0	0.14754033
200	0x3de00a56	0.109394714
201	0x3d363471	0.044483606
202	0x3e4fa7e9	0.20278896
203	0x3e2e2ad4	0.17008525
204	0xbdd21223	-0.102573656
205	0xbe2b982d	-0.16757269
206	0x3d9aec22	0.0756457
207	0xbdeaf745	-0.11472944
208	0x3bda3bae	0.0066599464
209	0x3db21c93	0.08696856
210	0x3d4b35fb	0.049612027
211	0x3e25d850	0.16195798
212	0x3dbdd429	0.09268982
213	0x3db108a9	0.0864423
214	0x3d5d0193	0.05395658
215	0xbcf444e5	-0.029818008
216	0x3d2de1a2	0.04245151
217	0xbe3a2cc1	-0.18181135
218	0x3e08165b	0.13289778
219	0x3d30c2e1	0.0431546
220	0x3d803d62	0.06261708
221	0x3c5427f2	0.012948977
222	0x3e016372	0.12635592
223	0x3de4e087	0.11175638
224	0x3d07bca1	0.033138875
225	0x3e0a9401	0.13533022
226	0x3df366c2	0.11884834
227	0xbdec36be	-0.11533879
228	0x3d91e533	0.071237944
229	0x3e2de3e6	0.16981468
230	0xbdecd03a	-0.115631536
231	0x3e142a02	0.1446915
232	0x3da9044b	0.08252772
233	0x3ca8c614	0.020602264
234	0xbd129532	-0.035786815
235	0xbb00dd29	-0.0019663072
236	0xbd76c8d3	-0.060250115
237	0xbb96a55c	-0.004597349
238	0x3d8bcb07	0.06825834
239	0x3e17c153	0.14819841
240	0x3cc747cb	0.024326226
241	0x3de19c28	0.110161126
242	0x3cc4d704	0.024028309
243	0x3db911a0	0.09036565
244	0xbb4ae584	-0.0030959556
245	0xbd845824	-0.06462124
246	0x3ced72a3	0.028985327
247	0x3be0e6ee	0.0068634665
248	0x3e4c426e	0.19947216
249	0x3e745412	0.23860195
250	0x3cc790d7	0.024361057
251	0xbdd6353f	-0.10459375
252	0xbd6673ae	-0.056262664
253	0x3e459445	0.19294842
254	0x3cf9d50b	0.030497095
255	0xbca2da1f	-0.019879399

lstm2.weight_ih_l0 f4 [128, 64]
0	0xbe2b5105	-0.16730125
1	0x3d1265f9	0.03574178
2	0x3dc1da68	0.09465486
3	0xbe273015	-0.16326936
4	0x3d1e08df	0.03858268
5	0x3d00a5a6	0.031407975
6	0xbecce4b8	-0.4001825
7	0xbe17da16	-0.14829287
8	0xbe5b4ef1	-0.21416833
9	0x3bd7196d	0.0065643103
10	0x3cef7df9	0.029234873
11	0x3e4b8982	0.19876674
12	0x3d89f4e9	0.06736166
13	0x3e1b27b2	0.15151861
14	0xbdec83a4	-0.11548546
15	0xbe0f7fc3	-0.14013581
16	0xbc8de13f	-0.01731932
17	0xbe05a8ed	-0.13052721
18	0x3d626f66	0.05528202
19	0xbe1ce42f	-0.1532142
20	0xbe0444e0	-0.12916899
21	0xbdb8c2cb	-0.09021529
22	0xbc378269	-0.011200526
23	0x3ce273a0	0.027643025
24	0xbc48c931	-0.012254999
25	0xbe7a3647	-0.24434768
26	0x3de29796	0.11064069
27	0x3dc9bf07	0.09850889
28	0x3e047123	0.12933783
29	0xbe7d75f1	-0.24752022
30	0x3e160e3c	0.14653867
31	0x3c4a619a	0.012352372
32	0x3c26ff9f	0.010192781
33	0xbc20660a	-0.009789953
34	0xbd518cea	-0.051159777
35	0xbcc2d1c0	-0.023781657
36	0x3f0e5970	0.5560522
37	0xbbe7b5a1	-0.0070712124
38	0x3e7b52bc	0.2454328
39	0xbe3188f0	-0.17337394
40	0x3e41ee5d	0.18938585
41	0x3dc83bd4	0.09777036
42	0xbcabfa24	-0.0209933
43	0xbe0846b9	-0.13308229
44	0xbcbdf899	-0.02318983
45	0xbced166e	-0.02894136
46	0xbc3487c6	-0.011018699
47	0xbd9db5dd	-0.07700703
48	0xbe087b16	-0.13328204
49	0xbd3d807d	-0.046265114
50	0xbd32c904	-0.043648735
51	0xbdedc1cd	-0.1160923
52	0x3db9f45a	0.090798095
53	0x3e0d4677	0.13796411
54	0xb9dc126f	-0.00041975404
55	0xbe221731	-0.1582916
56	0xbc425f23	-0.011863503
57	0x3e5c41f4	0.21509534
58	0x3da12911	0.07869161
59	0xbc9d7330	-0.019219965
60	0x3d347b73	0.044063043
61	0xbe853be0	-0.26022243
62	0xbbdbc8ac	-0.0067072716
63	0x3e0deb35	0.13859256
64	0xbd051e1b	-0.032499414
65	0xbe8cc32c	-0.27492654
66	0x3cd93dec	0.026518784
67	0xbdec3cf7	-0.115350656
68	0xbd683f0a	-0.056700744
69	0x3bca6d70	0.0061775967
70	0xbd9e0516	-0.07715814
71	0xbe6274c6	-0.22114858
72	0x3e55b45c	0.20869583
73	0xbd4ebb00	-0.050471306
74	0x3eb8ffdd	0.36132708
75	0xbe996621	-0.2996073
76	0x3e2f77c4	0.1713553
77	0xbe0359e4	-0.1282726
78	0xbe5e39c3	-0.21701722
79	0x3c314e3f	0.010821878
80	0x3e574be7	0.21025048
81	0x3db41ca9	0.08794529
82	0xbe669fd3	-0.22521906
83	0xbd60aba9	-0.054851208
84	0xbe40f71a	-0.18844262
85	0x3dda4813	0.10658278
86	0xbdddd3f4	-0.108314425
87	0xbdcd7c16	-0.10033433
88	0xbd80cd4b	-0.062891565
89	0xbdd4f85b	-0.103989325
90	0x3dec7357	0.11545437
91	0xbe222269	-0.15833439
92	0xbead5dc4	-0.338606
93	0xbd8faf55	-0.07015864
94	0xbd32ec12	-0.043682165
95	0x3e498778	0.19680583
96	0x3e26ee7f	0.16301917
97	0x3de2240e	0.11042033
98	0xbd571cbd	-0.05251764
99	0x3d4b0ee0	0.049574733
100	0xbe115e4e	-0.1419613
101	0x3d560b5f	0.052256938
102	0xbdd064e1	-0.10175491
103	0x3e0c16b9	0.13680543
104	0xbe5f11ba	-0.21784106
105	0xbe6bf050	-0.2304089
106	0xbd5e90e1	-0.054337386
107	0x3ea46f31	0.32116082
108	0x3d63efb0	0.055648506
109	0xbcc38804	-0.023868568
110	0x3d0a366c	0.033743307
111	0x3c8a2847	0.016864909
112	0xbe7c10a5	-0.24615724
113	0xbe57a0c7	-0.21057425
114	0x3e004e84	0.12529951
115	0xbe33a8cb	-0.17544858
116	0x3d00d925	0.031457085
117	0xbd70a9c7	-0.058755662
118	0xbd94073d	-0.07227943
119	0xbe6947df	-0.22781323
120	0x3d836439	0.064156
121	0xbd9c9210	-0.07645047
122	0x3d7af27c	0.061266407
123	0xbc1642a5	-0.009171163
124	0xbd592182	-0.05301047
125	0xbd02a5ba	-0.03189633
126	0x3dabdb93	0.0839149
127	0x3e92c162	0.28663164
128	0xbbbb7d80	-0.005721748
129	0xbd99a7d0	-0.07502711
130	0xbbaabf6b	-0.005210807
131	0xbcd6e6ca	-0.026233096
132	0xbdf93b04	-0.121694595
133	0xbe6dbd8e	-0.2321684
134	0xbd90a8eb	-0.070634685
135	0x3e11838d	0.14210339
136	0x3c2d30d9	0.010570728
137	0xbe52199e	-0.20517585
138	0xbe3ea207	-0.18616496
139	0xbe6ecb87	-0.23319827
140	0x3d8a4602	0.06751634
141	0x3d265541	0.04060865
142	0x3edc9e78	0.43089652
143	0x3e6539e6	0.22385368
144	0xbdb50ae9	-0.088399716
145	0x3d0b8a00	0.034067154
146	0xbdc5c0c8	-0.09655911
147	0x3e20546a	0.15657201
148	0xbe63cb6d	-0.2224557
149	0xbe44a39e	-0.1920304
150	0xbe54ad3d	-0.2076921
151	0xbd264b8f	-0.040599402
152	0x3db8c13e	0.09021233
153	0xbd8960e1	-0.06707931
154	0x3bbf8b3b	0.005845455
155	0x3cf41c56	0.029798668
156	0x3dd6f792	0.10496439
157	0xbe12b83e	-0.14328095
158	0xbe2632d1	-0.16230322
159	0xbed2ac0e	-0.41146892
160	0xbda768db	-0.081742965
161	0xbd9ae49c	-0.07563135
162	0xbbaeea2a	-0.005337973
163	0xbd572524	-0.052525654
164	0x3eb51ece	0.35375065
165	0xbd884a28	-0.06654769
166	0x3c255b33	0.010092544
167	0x3e1f7471	0.15571763
168	0x3eccaa9f	0.39973924
169	0x3d469f55	0.048491795
170	0xbd1ec257	-0.038759556
171	0xbe071c03	-0.1319428
172	0x3e88432e	0.26613754
173	0xbe516647	-0.20449172
174	0x3e0fb383	0.14033322
175	0x3d0aa51a	0.03384886
176	0x3e1b1713	0.15145521
177	0xbd3b5ada	-0.04574094
178	0xbda3c80f	-0.079971425
179	0x3e152c41	0.14567663
180	0x3bafbb41	0.0053628986
181	0x3e952aad	0.29134122
182	0x3de9380e	0.11387645
183	0x3bddb68c	0.006766146
184	0xbd46aff2	-0.04850764
185	0x3ccb3171	0.024803849
186	0xbe28e718	-0.16494405
187	0x3e5fd2fd	0.2185783
188	0xbc881155	-0.016609827
189	0x3c9077d7	0.01763527
190	0xbe12aaa0	-0.14322901
191	0xbe4efb78	-0.20213115
192	0x3c622429	0.013802567
193	0xbce074b1	-0.027399393
194	0xbdd2c613	-0.10291686
195	0x3e0671f3	0.13129406
196	0x3c9affce	0.018920805
197	0x3defb1bb	0.11703821
198	0xbd8933a0	-0.066993
199	0x3e170ce3	0.1475101
200	0xbcec8553	-0.028872168
201	0x3c7516c9	0.014959046
202	0xbd2a0cc7	-0.04151609
203	0xbe46046a	-0.19337621
204	0x3de77153	0.11300912
205	0xbe65a2b4	-0.22425348
206	0xbddb3141	-0.10702754
207	0xbd438495	-0.047733862
208	0x3bdff6cc	0.0068348404
209	0x3cdb827f	0.026795624
210	0x3cbdf201	0.023186686
211	0x3d930caf	0.071801536
212	0xbeb3f535	-0.35148016
213	0x3e884d78	0.26621604
214	0xbe833c71	-0.2563205
215	0x3cdfc5c4	0.027315982
216	0xbd6f3e67	-0.05840912
217	0xbc48feff	-0.012267827
218	0xbd3c46b8	-0.04596588
219	0xbe5db3e3	-0.21650653
220	0xbce7ac2f	-0.028280346
221	0xbd947a7b	-0.07249924
222	0xbdbdc2b1	-0.0926565
223	0x3e1cf92b	0.15329425
224	0x3b183656	0.0023225746
225	0x39b3df38	0.00034307851
226	0xbe2dd057	-0.16974007
227	0x3b94d3bf	0.0045418437
228	0xbea60588	-0.32426095
229	0xbde30095	-0.110840954
230	0x3eaca7e5	0.33721843
231	0xbc08d1f7	-0.008350841
232	0x3ded46e6	0.115857884
233	0xbe822128	-0.2541592
234	0xbdea9826	-0.11454801
235	0xbd6f11b1	-0.05836648
236	0x3dbbed87	0.09176164
237	0xbdde9b40	-0.10869455
238	0xbcc79457	-0.024362726
239	0x3c9c06ad	0.019046152
240	0xbd753a1f	-0.05986988
241	0x3e098f83	0.13433652
242	0xbd4bef4c	-0.04978876
243	0xbb4b5f7a	-0.003103225
244	0xbc10b1cf	-0.008831455
245	0x3cb4e3e3	0.022081321
246	0x3d941202	0.07229997
247	0x3dea3b9b	0.1143715
248	0x3dec05db	0.11524554
249	0xbe0c4540	-0.13698292
250	0xbe9250b4	-0.28577197
251	0x3e1242f4	0.14283353
252	0x3df45c95	0.11931721
253	0xbe6ba8be	-0.23013589
254	0xbd9c63b6	-0.07636206
255	0x3e0cd09f	0.13751458

lstm2.weight_hh_l0 f4 [128, 32]
0	0xbed0a670	-0.40751982
1	0x3eb18036	0.3466813
2	0xbe92bab3	-0.28658065
3	0x3e12efef	0.1434934
4	0x3de98bf7	0.11403649
5	0x3de8df8b	0.113707624
6	0xbdef763f	-0.116924755
7	0x3ee5e12b	0.44898352
8	0xbe44c0b1	-0.19214131
9	0xbe96a6fe	-0.2942428
10	0xbe2b9fc1	-0.1676016
11	0xbe145098	-0.14483869
12	0xbefd344c	-0.49453962
13	0xbe1725a3	-0.14760451
14	0x3e857d88	0.26072335
15	0xbeb5c428	-0.35501218
16	0xbe8f18c6	-0.27948588
17	0x3e7cf4de	0.24702784
18	0x3e59caaf	0.21268724
19	0xbe019c06	-0.12657174
20	0xbee344c4	-0.44388402
21	0x3e094552	0.1340535
22	0x3eb9047f	0.36136243
23	0x3e5eba56	0.21750769
24	0xbdffaddc	-0.12484333
25	0x3e68b072	0.22723559
26	0x3e5f9982	0.21835902
27	0x3e34fdbd	0.17674918
28	0x3e8280cf	0.25488898
29	0xbf0ea216	-0.55716074
30	0x3bcc1cf4	0.0062290374
31	0x3ecf7886	0.4052164
32	0x3ded8ab7	0.115987234
33	0xbe545496	-0.20735392
34	0x3e2502b7	0.16114317
35	0x3ebba06c	0.3664583
36	0x3ca224fe	0.01979303
37	0x3c9c721c	0.01909738
38	0x3dc79bf5	0.09746543
39	0x3ddcdd7d	0.10784433
40	0xbd74fca1	-0.05981124
41	0xbe527dec	-0.20555848
42	0xbdc9ca68	-0.09853059
43	0x3d416581	0.047215942
44	0xbc54e17f	-0.012993216
45	0x3e2d2c3a	0.16911402
46	0x3e0a5357	0.13508354
47	0xbea71922	-0.32636362
48	0xbce8ce51	-0.028418692
49	0xbddcc87c	-0.10780427
50	0x3e3c8848	0.18411362
51	0xbc0c9eb2	-0.008582758
52	0x3b6c2ffe	0.0036039348
53	0x3e09c9ca	0.13455883
54	0xbdb2a005	-0.087219276
55	0x3d27cecf	0.040968712
56	0xbe8d1566	-0.27555388
57	0x3d01b2b0	0.03166455
58	0xbdff8353	-0.1247622
59	0x3d32b547	0.04362991
60	0x3cc1bcd2	0.023649607
61	0x3e25f3d6	0.16206297
62	0x3e4aeec0	0.19817638
63	0x3e5a76d6	0.21334395
64	0x3e4e4bd5	0.20146115
65	0x3d008cf7	0.031384435
66	0x3d592676	0.053015195
67	0xbe3c3bb5	-0.18382151
68	0x3e36afbd	0.17840476
69	0x3e57f136	0.21088108
70	0xbe742b7a	-0.2384471
71	0xbe631e11	-0.22179438
72	0x3e269427	0.16267453
73	0xbeaeee04	-0.34165967
74	0x3d630d67	0.055432703
75	0xbea079af	-0.31342837
76	0x3da1fcee	0.07909571
77	0x3dd96ced	0.10616479
78	0xbd3f37f4	-0.04668422
79	0xbe148aa0	-0.14506006
80	0xbdeed97b	-0.11662575
81	0x3e4c0bba	0.19926348
82	0x3d4996d0	0.04921609
83	0xbe53ba83	-0.20676617
84	0xbe722aee	-0.23649189
85	0x3e4f7030	0.2025764
86	0xbe510f8b	-0.20416085
87	0xbe9a3853	-0.30121097
88	0x3d00e8da	0.031472065
89	0xbb7c7062	-0.0038519134
90	0x3d69c338	0.05707094
91	0xbd8a9653	-0.06766953
92	0x3e7757ef	0.24154638
93	0xbdfbb6f5	-0.12290756
94	0x3ea71244	0.32631123
95	0xbcb46ceb	-0.022024592
96	0x3e9bb999	0.30415037
97	0x3eb55787	0.3541834
98	0xbe718745	-0.23586757
99	0xbea6e465	-0.32596126
100	0xbd936f5f	-0.07198977
101	0x3ebe7b35	0.37203375
102	0xbe4e5e91	-0.20153262
103	0x3e37e937	0.17960058
104	0x3e665de8	0.2249676
105	0xbe381412	-0.17976406
106	0x3dccaa52	0.099934235
107	0x3d29a67d	0.04141854
108	0xbe8654fa	-0.26236707
109	0x3d8e18ea	0.06938346
110	0xbd8d42fd	-0.068975426
111	0x3de864b3	0.11347332
112	0xbd330761	-0.04370821
113	0x3e9b220e	0.3029942
114	0x3c6ea508	0.014565714
115	0x3ea14b6b	0.31502852
116	0x3e2f4c95	0.17119057
117	0xbd800762	-0.06251408
118	0xbd2a92a1	-0.041643742
119	0xbd1822b3	-0.037142467
120	0x3e157313	0.14594679
121	0xbdd9fcb8	-0.106439054
122	0x3d7a7927	0.061150696
123	0xbeaf7702	-0.34270483
124	0xbe0ff0a2	-0.14056638
125	0x3e26e064	0.16296536
126	0xbd2a5322	-0.041583188
127	0xbd5b5578	-0.053548306
128	0xbebfbcae	-0.3744864
129	0x3e11e786	0.14248475
130	0xbebed545	-0.37272087
131	0xbd38bf91	-0.045104567
132	0xbd552080	-0.052032948
133	0xbd158509	-0.036503825
134	0x3e3de836	0.18545613
135	0x3de3677a	0.11103721
136	0xbdeee5cf	-0.11664926
137	0xbedbb0eb	-0.42908415
138	0xbec5cd51	-0.38633206
139	0xbed4a252	-0.4153009
140	0xbe1b5cfd	-0.15172191
141	0x3e16c6d6	0.14724287
142	0x3bfa936e	0.0076469695
143	0xbe7c2aaa	-0.2462565
144	0xbe175c8d	-0.14781399
145	0xbee19ec4	-0.4406644
146	0x3d82813b	0.06372305
147	0xbe65038f	-0.22364639
148	0xbcb9e965	-0.022694299
149	0xbee6f83f	-0.45111272
150	0x3c2d553d	0.010579404
151	0x3dceeddd	0.101039626
152	0xbea85e27	-0.32884333
153	0x3e509419	0.20368995
154	0x3dcdb274	0.10043803
155	0x3ce88f49	0.028388636
156	0xbc33a9b0	-0.01096575
157	0x3edca3f9	0.4309385
158	0x3d056921	0.032570962
159	0xbd9d890e	-0.07692157
160	0xbe1c109b	-0.1524071
161	0x3d543037	0.051803794
162	0xbe3d6b1b	-0.18497889
163	0xbcfccc11	-0.030859025
164	0xbe89d531	-0.26920465
165	0xbd99487c	-0.074845284
166	0xbea2e07a	-0.31811887
167	0x3d216226	0.039400242
168	0xbc29eae3	-0.010370943
169	0xbe0c5953	-0.1370595
170	0x3e2e9f4b	0.17052953
171	0xbdecdad4	-0.11565176
172	0xbd727b72	-0.059199758
173	0xbeb71896	-0.35760945
174	0xbe1b4d58	-0.15166223
175	0x3d006a9f	0.03135168
176	0xbd59b6d4	-0.053152874
177	0xbd926584	-0.07148269
178	0x379f2e42	1.8975818e-05
179	0xbe56d2b6	-0.20978817
180	0xbd3f6e5d	-0.04673611
181	0xbe695f8b	-0.22790353
182	0x3c61de88	0.013785966
183	0x3d459d9f	0.048246022
184	0xbe09f377	-0.1347178
185	0xbe657008	-0.22406018
186	0x3e0cb0e8	0.1373936
187	0x3dd2d726	0.102949426
188	0xbe9187f6	-0.28424042
189	0x3e613593	0.21993093
190	0x3c3dc57d	0.011582729
191	0x3d0748d6	0.033028446
192	0x3ea01069	0.3126252
193	0x3e09732f	0.13422845
194	0x3ce639f4	0.028103806
195	0xbdf3c2c6	-0.119023845
196	0x3d43d0ad	0.04780643
197	0xbecbee02	-0.39830023
198	0x3e3ba218	0.18323553
199	0x3e269928	0.16269362
200	0xbdacd703	-0.08439448
201	0x3e346b6d	0.17619105
202	0xbd1d39af	-0.03838509
203	0x3e3a7d63	0.18211894
204	0x3e0468e2	0.12930635
205	0x3e8b9ea5	0.27269474
206	0x3d965bd2	0.07341732
207	0xbcdd2db7	-0.026999338
208	0x3e0308d8	0.12796342
209	0xbc4534fa	-0.012036556
210	0x3e0475d2	0.1293557
211	0x3e5d7b72	0.21629122
212	0x3d69d68d	0.057089377
213	0xbf00d5c5	-0.50326186
214	0xbe59ba54	-0.21262485
215	0xbe425e76	-0.18981346
216	0xbc8c91f5	-0.017159441
217	0x3e4d16e4	0.20028263
218	0xbc3d60dd	-0.011558739
219	0x3dc8fb86	0.09813599
220	0xbe0a0f74	-0.13482457
221	0xbdb744b0	-0.08948648
222	0xbe5e2484	-0.21693617
223	0xbd2ed60b	-0.042684596
224	0xbcec3410	-0.02883342
225	0x3e8b63b0	0.27224493
226	0x3c079ab9	0.008276635
227	0xbeb71632	-0.3575912
228	0x3da74fb8	0.08169502
229	0x3b81eb61	0.003964827
230	0xbd0f5452	-0.034992523
231	0x3d878c44	0.066185504
232	0x3e1525a8	0.14565146
233	0xbeda1b3a	-0.42598897
234	0xbeca4347	-0.39504454
235	0xbeb214aa	-0.3478139
236	0xbda381e9	-0.07983763
237	0xbde061e1	-0.10956169
238	0x3e193650	0.14962125
239	0x3d11d782	0.035605915
240	0x3c56ab11	0.013102309
241	0xbe4525b7	-0.19252668
242	0x3e0fdbeb	0.14048736
243	0xbe53c917	-0.20682178
244	0xbe640a5b	-0.22269575
245	0xbf042de8	-0.5163255
246	0x3e93ec18	0.28891063
247	0x3e25b0eb	0.1618077
248	0xbe410a26	-0.18851528
249	0x3cefa450	0.029253155
250	0x3e5155b0	0.20442843
251	0xbdb5fd5a	-0.088862136
252	0x3da5fdf9	0.08105082
253	0xbd3008f3	-0.042977285
254	0xbd801198	-0.06253356
255	0x3c78e038	0.015190177

lstm2.bias_ih_l0 f4 [128]
0	0x3e109a38	0.1412133
1	0x3bdfe1c5	0.0068323337
2	0x3e1388cc	0.14407653
3	0xbdae889a	-0.085221484
4	0x3d07c8fa	0.03315065
5	0x3c11ad66	0.008891439
6	0x3bf5d418	0.00750209
7	0xbdc65441	-0.09684039
8	0x3d0c94ef	0.03432172
9	0xbe07aa81	-0.13248636
10	0xbe25a38f	-0.16175674
11	0x3d8ccb39	0.06874699
12	0xbd61e1fc	-0.055147156
13	0xbd329bd4	-0.04360564
14	0xbde3ac56	-0.11116855
15	0x3cf9680f	0.030445127
16	0xbe28ff5d	-0.16503663
17	0xbcd08e9b	-0.025458625
18	0x3d7b01ba	0.061280943
19	0x3d111625	0.03542151
20	0x3dff1167	0.12454491
21	0x3e5b2df5	0.2140425
22	0xbd5c89eb	-0.053842466
23	0xbdff36de	-0.12461637
24	0x3e13b13b	0.14423077
25	0x3c46b58d	0.012128246
26	0xbe6ca9fd	-0.2311172
27	0x3d17216c	0.036897108
28	0xbd1645b6	-0.036687575
29	0x3dfdd766	0.123945996
30	0xbe576689	-0.21035208
31	0xbe0a5a8c	-0.13511103
32	0xbcc73f99	-0.024322318
33	0x3e957680	0.2919197
34	0x3eaf7121	0.34265998
35	0x3e680a93	0.22660284
36	0x3c82f81d	0.01598745
37	0x3c0695eb	0.008214454
38	0x3db60a03	0.08888628
39	0x3dd5cc09	0.10439307
40	0x3db9a10f	0.090639226
41	0x3e73bd18	0.23802602
42	0x3da4d4ff	0.08048438
43	0x3e421a32	0.18955305
44	0x3c475b4b	0.012167762
45	0x3ed4a436	0.41531533
46	0x3e14483b	0.14480679
47	0x3d6200f2	0.055176683
48	0x3dbc7ff7	0.09204095
49	0x3e9dd592	0.30827004
50	0x3e691286	0.22760972
51	0x3eab6804	0.33477795
52	0x3e3311c4	0.17487246
53	0x3e50f80c	0.20407122
54	0x3e6dc1a3	0.23218398
55	0xbc94fcb3	-0.018186903
56	0x3e2e15e1	0.17000534
57	0x3e0236e4	0.12716252
58	0x3ec9e0ef	0.39429423
59	0x3e436905	0.1908303
60	0x3e82d362	0.25551897
61	0x3e8dc715	0.2769095
62	0x3e7fbbae	0.24973938
63	0x3e527374	0.20551854
64	0xbe0b6c24	-0.13615471
65	0xbe556465	-0.20839079
66	0xbd4047ab	-0.046943348
67	0x3dcac9ae	0.099017486
68	0x3deedab0	0.11662805
69	0xbe2f68f9	-0.17129888
70	0xbc842569	-0.01613112
71	0x3d67096b	0.056405466
72	0x3dd2da6f	0.10295569
73	0x3d597b15	0.053095896
74	0x3dd4ca74	0.10390177
75	0x3a5061a4	0.000794912
76	0x3cae75e7	0.021296455
77	0x3debd8ed	0.11515985
78	0x3d97b259	0.07407064
79	0xbe2e8a32	-0.17044905
80	0x3e19265f	0.14956044
81	0xbd1f04c7	-0.038822915
82	0xbdeb8a83	-0.115010284
83	0x3df1ef0a	0.11813171
84	0xbd1c2dd5	-0.038129646
85	0xbd139e51	-0.036039654
86	0xbd145ece	-0.036223225
87	0x3d2aa79d	0.041663755
88	0x3d4159c1	0.047204737
89	0x3e0ccfbd	0.13751121
90	0x3db4fc3e	0.08837174
91	0x3dca584b	0.09880122
92	0x3c8b617b	0.017014256
93	0xbdcb8b69	-0.099387
94	0xbdc35c85	-0.09539131
95	0xbe105176	-0.14093575
96	0x3da086b3	0.07838192
97	0x3e7f5f60	0.24938726
98	0x3e9b2499	0.3030136
99	0x3eb20916	0.34772557
100	0x3eb279f1	0.3485866
101	0x3e83122b	0.255998
102	0x3e94debb	0.2907618
103	0x3eff8fe3	0.49914464
104	0x3ec9a9cb	0.39387354
105	0x3eda519d	0.4264039
106	0x3db52e83	0.08846762
107	0x3f0e273f	0.55528635
108	0x3d9d03df	0.07666754
109	0x3d8703d1	0.06592525
110	0x3ea79643	0.32731828
111	0x3ed4b1b3	0.41541824
112	0x3e6cec23	0.23136954
113	0x3e43fab5	0.19138606
114	0x3e01e4a6	0.12684879
115	0x3e2be906	0.1678811
116	0x3e683f82	0.22680476
117	0x3e310190	0.17285752
118	0x3dee4ef3	0.11636152
119	0x3ea65bce	0.32491916
120	0x3ecb9655	0.39763132
121	0x3e8301db	0.25587353
122	0x3e6b27a4	0.2296434
123	0x3ece7890	0.40326357
124	0x3e719aec	0.23594254
125	0x3ea2cab7	0.31795284
126	0x3e1acde8	0.1511761
127	0x3d167658	0.036733955

lstm2.bias_hh_l0 f4 [128]
0	0x3bb5d2e3	0.0055488213
1	0xbdcc7ef1	-0.0998515
2	0xbde2b35e	-0.11069368
3	0xbdd2fcbd	-0.10302112
4	0xbd3d609b	-0.04623471
5	0xbe3aca55	-0.18241246
6	0x3cc4a3be	0.02400386
7	0xbe05260a	-0.13002792
8	0xbe3d34eb	-0.18477218
9	0xbe67eee0	-0.22649717
10	0x3d8c9575	0.06864444
11	0xbe819b4e	-0.253138
12	0xbda64a2b	-0.08119615
13	0xbe1043e2	-0.14088395
14	0x3dde90e6	0.10867481
15	0xbcc0304c	-0.02346053
16	0x3d0cc90d	0.034371424
17	0xbdb30dcb	-0.08742865
18	0xbe31f085	-0.17376907
19	0xbd86d985	-0.06584457
20	0x3dcdb971	0.10045136
21	0x3e253e15	0.16136964
22	0xbd41df21	-0.047331933
23	0x3d9aada5	0.07552651
24	0xbd4db7c9	-0.0502241
25	0xbd1bd429	-0.03804413
26	0xbddfe5ac	-0.10932478
27	0x3dddaf06	0.10824399
28	0xbd84aa5b	-0.06477805
29	0x3dff84fd	0.124765374
30	0xbd82954e	-0.06376134
31	0xbe436a00	-0.19083405
32	0x3e916cc0	0.28403282
33	0x3e02d768	0.12777483
34	0x3ebd5d33	0.36985168
35	0x3e5cdc9d	0.21568532
36	0x3e5e9109	0.21735014
37	0x3e6ef40f	0.23335288
38	0x3e293453	0.16523866
39	0x3e70b05a	0.23504773
40	0x3e988b80	0.2979393
41	0x3bd00824	0.0063486267
42	0x3db6d3e6	0.08927135
43	0x3ec5cece	0.38634342
44	0x3cdea701	0.027179243
45	0x3e05dae3	0.1307178
46	0xbc5570a6	-0.013027346
47	0x3e69af4c	0.22820777
48	0x3e0d43f4	0.13795453
49	0x3e76cc28	0.24101317
50	0x3d9b4595	0.07581631
51	0x3e9ae116	0.30249852
52	0x3e625ed2	0.22106484
53	0x3e03bef1	0.12865807
54	0x3e2e1c9f	0.17003106
55	0xbd2204ed	-0.03955548
56	0x3e6f2bc5	0.2335654
57	0x3e47701f	0.19476365
58	0x3e63d921	0.22250797
59	0x3e5c59d6	0.21518645
60	0x3e6c44e9	0.23073162
61	0x3e6cd6d4	0.23128825
62	0x3de7a061	0.11309887
63	0x3d613190	0.054978907
64	0xbe6ab4dc	-0.22920555
65	0x3cebd4bf	0.028787969
66	0x3db44362	0.08801915
67	0xbcf8f631	-0.03039083
68	0xbe03c996	-0.12869868
69	0x3d036491	0.03207833
70	0x3d1863f7	0.03720471
71	0x3e5812ea	0.21100965
72	0xbd9da671	-0.07697762
73	0xbcaf5276	-0.021401625
74	0xbce97983	-0.028500324
75	0xbd674a26	-0.056467198
76	0x3d8ac8f4	0.0677661
77	0x3d0a378e	0.033744387
78	0xbdc45244	-0.095860034
79	0x3d38668e	0.04501968
80	0x3cd1ba29	0.025601463
81	0x3dfcec69	0.12349779
82	0x3db0498d	0.08607779
83	0x3db4993d	0.088182904
84	0x3ca11071	0.01966116
85	0xbda27693	-0.079327725
86	0x3c2524ba	0.010079557
87	0xbda18b91	-0.07887948
88	0xbd220c56	-0.039562546
89	0xbdefd005	-0.117095985
90	0xbcdaff8c	-0.026733182
91	0xbda7c6e1	-0.0819223
92	0xbe2c5113	-0.16827802
93	0xbd611b70	-0.054957807
94	0xbc875694	-0.016520776
95	0xbde3f460	-0.11130595
96	0x3e684037	0.22680746
97	0x3e15c8ae	0.14627334
98	0x3e9ecd1d	0.31015864
99	0x3e3d819c	0.18506473
100	0x3d96fade	0.07372068
101	0xbb419d0f	-0.0029543077
102	0x3e8610fe	0.2618484
103	0x3e5eaacb	0.2174484
104	0x3e864966	0.26227874
105	0x3e4da891	0.20083834
106	0x3e309cd3	0.17247324
107	0x3ed4b98b	0.41547808
108	0x3e4fb007	0.20281993
109	0x3e4f4f1b	0.2024502
110	0x3da6f00e	0.081512555
111	0x3eb7aa5b	0.35872158
112	0x3ed20c8b	0.41025195
113	0x3e1077a0	0.14108133
114	0x3e5ba329	0.2144896
115	0x3e1f1fcb	0.15539472
116	0x3e7691b4	0.24079019
117	0x3eb31279	0.3497503
118	0xbdbf080f	-0.09327709
119	0x3ea7eccd	0.32797852
120	0x3e30855a	0.1723837
121	0x3eae60c1	0.34058192
122	0x3eaaa2ce	0.33327335
123	0x3f01e870	0.50745296
124	0x3e68a5e0	0.22719526
125	0x3eb03481	0.34415057
126	0x3e4ce502	0.20009235
127	0x3e95914f	0.29212424
