ai/lstm_with_nothing_state_v4.pth (torch, 129154 bytes, 10 tensors)

lstm1.weight_ih_l0 f4 [256, 6]
00000000: 8748 89be 0c08 92bd e827 7dbd 8a4c 973d
00000010: 1005 bd3d 3948 ac3c 334c dabb e81c 2d3e
00000020: af5b 7fbd 8ec4 f63d 5e0e 073e c23a a1bd
00000030: 89cc 2a3d f0a3 b8bd d227 25be 2641 1abc
00000040: 2fa3 1fbe 5b78 053e 94bf 83bd d68c 89bd
00000050: 91a7 5f3e 74a1 7a3d 81b5 eabd fbb4 0bbd
00000060: a788 303c 4af3 d2bb b462 21be 3eb8 b8bd
00000070: 6eb0 9abd 9706 0d3e dad3 9abc ef45 48bb
00000080: 9af4 31bd 0ced 3bbe 5f56 11be 4597 503d
00000090: 5545 8f3d ed8b 093e df74 a83c eda5 6fbd
000000a0: 69e1 a03b 7313 89be 8895 b93d 21f7 4dbd
000000b0: 006c 1e3e 753e 2d3e e4d9 afbd 2f5f 61bc
000000c0: 5392 80be 3cf5 363b 1295 1f3d 6c11 e03d
000000d0: 3cb1 aa3d 2ea6 94bc 9f19 ab3c a11d b03a
000000e0: e354 16be 268f 43bc 00e2 893e 0f53 dabd
000000f0: 03e7 ff3c f918 583d bd5a 223d 5e14 debd
00000100: c7e2 8b3d 233d 483e 26e0 aabd af34 ac3d
00000110: 704e 2dbd cb6e c4bd be32 a3bc c00a 433a
00000120: f8d5 8cbc fea3 443b 108a bbbc 048e 57bd
00000130: fcf9 cabc 928f 2d3e 596e 8d3e 3245 063d
00000140: 00df bb3d 1010 1fbd 9c52 023e 6614 1c3f
00000150: d5a4 6ebc 967a 4f3d 3fa6 e4ba 769a b4bd
00000160: 685a 4dbd 2a03 383e 8bb7 5a3e 5f1b 8dbd
00000170: 7e4d 283e 5b15 583d b62e e43d 118d 9bbc
00000180: 47dc c03d 01a6 7ebc f50d 61bd 6c78 c4bd
00000190: 14de 6cbc 758b 9abe 087e 24bd 2c64 8b3d
000001a0: b29a 9fbd 3d91 a23d f38d 153e 42de 53bd
000001b0: 16f3 603b 9f1a 2ebd b187 3cbd 11cd 13be
000001c0: 35af 063e 071e 003e cd4e f2bc 8f1b 26ba
000001d0: fe72 ee3c da80 fabd f3b5 b43d 6382 3abd
000001e0: 38bf d0bc 878a b7bc 3016 8c3d 61e5 17be
000001f0: 6bd7 2dbe 63f9 4fbe c5f0 03bd 6559 cd3d
00000200: 63ed 52bb ec00 a23a ab6f 323b c795 0f3e
00000210: db58 f03c 3eb2 ba3c 4cee 0fbe 6fa1 e5bb
00000220: 5d2a 3e3e 3eea 2ebd 581b d3bb 43f7 09bd
00000230: 655c b23c 6c45 c03d c9e6 ec3d 83ea 19bc
00000240: 5f96 04bd f699 41bd a6e5 dc3b 2806 eabd
00000250: 053e 2fbd 54d2 a3bc 8e5c 1d3e b6ea c23d
00000260: 1f8a 823d b351 07be 007c b9bd e8c4 e4bd
00000270: aa0e 2fbe 1e15 373d 1a97 e4bd 4408 f73d
00000280: b4aa 0b3d b973 d4bb ddaa 0cbe 8461 28bc
00000290: 68f8 f63a 3f84 7d3d 759e 2cbe dcd4 223d
000002a0: 7bb1 4bbd e587 b13c 4bde 2cbe 6ce9 953d
000002b0: 737a 0c3e 54c5 dc3c 4f7e fc3c 5678 05bd
000002c0: 1521 97bd 27a8 dabd 81d5 2d3e ac82 a63d
000002d0: 81e3 e6bc e249 2dbd bcab bd3d 8fee efbd
000002e0: d001 0c3e 3351 86bb f557 b03d b2ef 933d
000002f0: 361a d63d 08ac 243e 89f9 053e 8b50 5b3d
00000300: 79f4 a93d f8c6 37bd 58e4 6f3d bc55 f13c
00000310: 9eab 39be a574 bcbc 3d0b 943c f510 92bd
00000320: 9b10 3fbd 1861 68bb 9218 66be 3901 113e
00000330: 8c9d babd cd1c 283d 6e3d 4b3e 800f 76bd
00000340: 6b86 77be 2e6d 17bd 09b0 8e3c d6e7 04bd
00000350: d188 2ebe 52b6 b03d e9a0 dabc 0c4b ea3d
00000360: 5935 5f3d cf09 83bc f023 8e3d 1445 e33c
00000370: 2b9c bb3c e747 7dbe 538b c83d f1f4 38bd
00000380: f935 45bd 3d86 393e 4990 e13d f7b6 663d
00000390: 286a 1fbe 8ed1 25bd fe66 b13c 7647 873d
000003a0: 33e2 5b3d f657 13be ef7b 0fbe 1aa4 aa3c
000003b0: defe d93d 0f62 88bc 697b 3cbe a9fd 0bbe
000003c0: 9fad 9a3c 7686 5dbe 8cbc ebbc 32fb 403d
000003d0: 6887 2a3e 6314 b43c 2606 f83c 72cf 34bd
000003e0: 0044 d3bd a012 03bd 4b9b ca3d e07a 0a3d
000003f0: c5ab 353d 03e1 9ebd 0132 083d d4c9 d43d
-0.26813146 -0.07130441 -0.061805636 0.073876455 0.09229481 0.021030532 -0.0066619157 0.16905558
-0.062343296 0.120492086 0.13189074 -0.07872535 0.041698966 -0.090156436 -0.16128471 -0.009414947
-0.15589593 0.13034193 -0.06433025 -0.067163154 0.21841265 0.06118913 -0.114604004 -0.034108143
0.010774768 -0.0064376937 -0.15760309 -0.090195164 -0.075531825 0.13772045 -0.018899847 -0.0030559262
-0.04344616 -0.18352145 -0.14193104 0.050925512 0.06995646 0.13432284 0.020563541 -0.05850785
0.0049096835 -0.2677265 0.09061724 -0.05028451 0.15470886 0.16918357 -0.08586481 -0.013755604
-0.25111637 0.0027917167 0.038960524 0.10940823 0.08334586 -0.018145647 0.02088624 0.0013436564
-0.14680819 -0.011935985 0.26930237 -0.106603734 0.031238085 0.05275819 0.039637316 -0.108437285
0.06830364 0.19554572 -0.08343534 0.08408486 -0.042311132 -0.095914446 -0.019921657 0.00074402615
-0.017191872 0.0030004974 -0.022892982 -0.05262567 -0.024777405 0.16949299 0.2762325 0.032780834
0.09173393 -0.038833678 0.12726825 0.60968626 -0.014565666 0.050654016 -0.0017444565 -0.088185236
-0.050135046 0.17969957 0.21359079 -0.06889986 0.16435811 0.05275474 0.11141722 -0.018988164
0.094170146 -0.015542508 -0.05494495 -0.09593281 -0.014457244 -0.30184522 -0.040159255 0.06806216
-0.07793178 0.07937858 0.1460493 -0.051725633 0.0034324578 -0.042505857 -0.046027843 -0.14433695
0.13152774 0.12511455 -0.02957859 -0.0006336504 0.029107567 -0.12231608 0.088237666 -0.045534503
-0.025481805 -0.022404922 0.068401694 -0.14833595 -0.16976707 -0.20309977 -0.032212038 0.10026816
-0.003218495 0.0012359894 0.0027227204 0.1402198 0.029339245 0.02279007 -0.14055747 -0.00700777
0.18570848 -0.04270386 -0.0064424686 -0.033683073 0.021772573 0.09388241 0.11567456 -0.009394291
-0.032369968 -0.04726597 0.0067412434 -0.114269555 -0.042783756 -0.019997753 0.15367338 0.09517424
0.06374001 -0.1321476 -0.09056854 -0.111703694 -0.17095438 0.044697873 -0.11161633 0.120621234
0.034098342 -0.006483522 -0.13737054 -0.010277156 0.0018842341 0.061893698 -0.16857322 0.03975378
-0.049729805 0.021671245 -0.16881673 0.07319912 0.13718586 0.026949562 0.030821947 -0.032585464
-0.07379357 -0.10676604 0.16975977 0.081303924 -0.028184654 -0.04230679 0.09261271 -0.11715423
0.13672566 -0.004099035 0.086105265 0.07223453 0.10454218 0.1608125 0.13083471 0.05354361
0.082985826 -0.044867486 0.058567375 0.029459827 -0.18131873 -0.02300484 0.018071765 -0.071321405
-0.046646696 -0.0035458263 -0.2247031 0.14160623 -0.09112081 0.04104309 0.19847652 -0.060073376
-0.2417237 -0.036969356 0.017417924 -0.03244766 -0.17044379 0.08628525 -0.026688056 0.11440095
0.054494236 -0.015995888 0.06940448 0.0277429 0.022901615 -0.2473446 0.09792199 -0.04515547
-0.048147175 0.18117614 0.11013848 0.056326833 -0.15567839 -0.04048305 0.021655556 0.06605427
0.053682517 -0.14389023 -0.1401212 0.020830203 0.10644315 -0.01664832 -0.18406452 -0.13670982
0.018881617 -0.21633324 -0.02877643 0.04711456 0.16653216 0.021982377 0.03027637 -0.044143148
-0.10315704 -0.032000184 0.09892901 0.03380859 0.044353265 -0.07757761 0.033250812 0.10390058

lstm1.weight_hh_l0 f4 [256, 64]
00000000: 9b0e c6be fa80 21be 7b5b d83b c2b8 2fbe
00000010: 9bd5 2abd 47c3 ce3d f452 cd3d d05f 033d
00000020: 8f15 bfbe d508 40be ee41 263b 8230 af3d
00000030: e27d b13c ca40 d33c 827b 95bd 6513 cebd
00000040: fa57 0f3e d73e f23d 709d fd3d 56e5 ba3d
00000050: 1291 9abe 0b7d d9bd b900 c8bb 15bd d5bc
00000060: ec2c 3cbb 8b5c 1d3e 8a93 f63d 7d9b e43c
00000070: e687 ae3b 8132 b53d ab53 ca3d 888e 91be
00000080: c82a a4bc 3193 103d 09f1 8c3e 3406 3e3d
00000090: fc0d 85be 9a65 ab3c e20f cabc 0a61 af3e
000000a0: b282 4d3e 223b d93c 67b2 523c 4d66 7c3e
000000b0: 0c39 23bc a0ea 24be 171d dd3d aff3 fd3d
000000c0: 3ab2 68be 1f11 9abe 0813 cf3d db04 0a3e
000000d0: 3b9c f9bd a562 9dbd f0e9 003d 8cf0 82bb
000000e0: 3d26 a3bc d656 003e 8ea0 2d3d 7cdc 72bd
000000f0: eab0 b0be 36eb 8bbe 386b a7bd 7d60 8b3e
00000100: 015f 92bd 39e5 96bd e491 d33c 6ae8 643c
00000110: 475d 643d 1184 2abe d9f0 27bd df62 5e3d
00000120: 16e6 c33d ccbe 023e 75ca 78bd bb7b 733d
00000130: 1d9c 55bd 9f0b 0a3e 9632 2ebd 172f 24be
00000140: 888c 753d 330d 073d 17b6 8abc 6823 cdbd
00000150: 1b47 dbbd ffc7 1a3c de77 17bc be4f 283d
00000160: d64e aebb 52e7 013d 7dfa 873d 0dc8 e2bd
00000170: 8cdd 87bd 74f7 08be 66cf ed3c a007 553c
00000180: e9e7 29be c9b7 693d 5029 1e3e 8b62 36bd
00000190: d3d7 ccbd c112 86bd 5e24 0fba 6375 c73d
000001a0: ed1f 0cbd 5dc3 f7bd 591c 203e 4168 d0bd
000001b0: b739 773d deb7 813c 788e d5bd b5dd 8dbd
000001c0: 7dad 363c 9989 bcbd 0eac 0b3d 5cb9 aebc
000001d0: d935 203e f540 0c3e 924d 4ebd 62c1 c1bd
000001e0: a2fe dcbd 4fa6 283e 0891 29bd 402d 343e
000001f0: b540 28bd 338c 5b3d c294 003c 1c83 ca3c
00000200: 54b0 29be bb58 6ebd f999 bf3c 0222 df3d
00000210: 168e 373e a412 fcbd bfb6 6ebb 81ea 883d
00000220: ee3a f3bd ca38 4bbe b5fc a3ba 7606 353e
00000230: 1af4 31be 4c7c f8bd c6d8 4c3e 2f95 143e
00000240: 6e4e 12bd a861 bb3e 6a94 8f3e b5a0 20be
00000250: 9f45 e5bd 0954 a83d 390e 803c 5d34 2f3d
00000260: 3057 8b3c 3647 75bc e5df 263e d211 19be
00000270: ce6e 933e 6784 143e 32a9 b7bd a4de d7bd
00000280: d043 08bd 200a b83d abbc d2bc a9a8 8f3b
00000290: 933f 833d fc54 123e 3f43 c03d 6449 843e
000002a0: 187a 81be ec87 b4bd 15bd 55be 48fb 6fbe
000002b0: d130 233e 7dc4 da3d 4b1f 953d 7d70 2a3d
000002c0: 8814 53be abf9 16bc 0380 1dbe 6bcd bbbe
000002d0: 9244 cfbd 77d8 c9bc 19df 84bd cfd4 043d
000002e0: 117f 07bd 5fa7 023e 4824 613d c06b 76be
000002f0: aba2 553d f2f3 3f3e de93 2e3d 14e9 0b3e
00000300: 8238 843d 62da d7bc 2d6a 64be 81a3 483e
00000310: 5ec6 41bd 2bcb 3abe 177a e3bd 800d 213e
00000320: 2ec3 e7bd 8a45 9a3d 61dc 82be f873 ef3e
00000330: 2c4b 43be 7b35 263e 8107 c73d 3507 4dbe
00000340: cef3 203e 2a72 05be 8773 263e 300a 07be
00000350: f5e7 313d 3274 403c 3bd8 813e 618e bcbd
00000360: 4460 00be e307 a13c 73f1 cebd bad3 843e
00000370: 0211 16be 7a4f c2bd 4472 aa3e f4e4 2f3e
00000380: 62fb 7c3d b201 ec3d d6ab 82bd 91c5 473e
00000390: 82b7 83bd eab5 453b 6ea2 9e3c a55b b63d
000003a0: 9a44 a03e 0afd 603e 6cda b03e cb21 ea3e
000003b0: b04d fd3d ab99 103e 92ab 99bd cb18 cf3d
000003c0: 01f8 2e3e bd6a c93d 7f0e a13d 7210 733d
000003d0: a3e7 8b3e ec9e 063e eff0 6dbc 6ea5 3dbd
000003e0: 293b bb3c 156e 573e 35d8 b93d dfa0 b03d
000003f0: 1662 1b3d 181f fa3c d41e e43d 26f2 f9bd
-0.38683018 -0.15771857 0.006602702 -0.17160323 -0.041707616 0.1009584 0.10025588 0.032073796
-0.37321135 -0.18753369 0.0025368887 0.08554174 0.02166647 0.02578773 -0.07298948 -0.10062293
0.13998404 0.11828392 0.123835444 0.091257736 -0.30188805 -0.10619553 -0.006103602 -0.026091138
-0.00287133 0.15367334 0.120398596 0.027906174 0.005326259 0.088475235 0.0987924 -0.28429055
-0.020039931 0.035296623 0.27527645 0.046392635 -0.25987232 0.02092247 -0.024665777 0.34253722
0.20069388 0.026517455 0.012859917 0.246484 -0.0099623315 -0.16105127 0.10796564 0.123999946
-0.22724238 -0.30091187 0.10111052 0.13478415 -0.12188002 -0.076848306 0.0314731 -0.0039959606
-0.019915694 0.12533125 0.042389445 -0.0592923 -0.34509975 -0.2732789 -0.08174747 0.27222052
-0.07147027 -0.073679395 0.025826402 0.013971427 0.05575302 -0.16651942 -0.041001175 0.05429351
0.0956537 0.12768096 -0.060739953 0.05944417 -0.052150834 0.13480996 -0.04252871 -0.16033588
0.059948474 0.032971572 -0.01693253 -0.10016519 -0.10706922 0.009447097 -0.009244887 0.041091673
-0.0053194566 0.031714745 0.06639574 -0.11073313 -0.066340536 -0.13375646 0.02902956 0.013002306
-0.16592373 0.057060037 0.15445447 -0.04452757 -0.10002103 -0.06546546 -0.0005460436 0.097391866
-0.034210134 -0.120978095 0.15635814 -0.10176135 0.060357776 0.015834745 -0.104275644 -0.06927053
0.011149761 -0.09205932 0.03409963 -0.02132862 0.15645541 0.13696654 -0.050366946 -0.09460713
-0.10790755 0.16469692 -0.04139808 0.17595387 -0.041077334 0.0536005 0.007847967 0.024720721
-0.1657117 -0.05819009 0.02338885 0.10895158 0.17925295 -0.12308243 -0.0036424843 0.06685353
-0.11876474 -0.19845882 -0.0012511226 0.17678246 -0.17378274 -0.12133083 0.20004568 0.14510034
-0.035719328 0.36597943 0.28042918 -0.15686305 -0.1119492 0.082191534 0.015631782 0.042774547
0.017009348 -0.014970591 0.16296346 -0.14948204 0.28795475 0.14503632 -0.08967818 -0.10540512
-0.033267796 0.08986306 -0.02572473 0.0043841195 0.0640861 0.14290231 0.09387826 0.25837243
-0.25288463 -0.088149875 -0.2087291 -0.234357 0.1593659 0.106820084 0.07281359 0.041611183
-0.20613301 -0.009214799 -0.15380864 -0.3668016 -0.101205006 -0.024639351 -0.06487865 0.032429513
-0.033080164 0.1275916 0.05496624 -0.24064541 0.052157085 0.18745402 0.042621486 0.13663131
0.064560905 -0.02634925 -0.22306128 0.19593622 -0.04730832 -0.18241565 -0.11107271 0.15727806
-0.113165244 0.07532795 -0.2555876 0.46768165 -0.19071645 0.16231339 0.09718228 -0.2002228
0.15718004 -0.13031831 0.16255008 -0.1318748 0.043434102 0.011746453 0.25360283 -0.09206844
-0.12536722 0.019657081 -0.101046465 0.25942785 -0.14654925 -0.09487815 0.33290303 0.17177182
0.061763175 0.11523761 -0.06380431 0.1950896 -0.06431486 0.0030168244 0.019364562 0.089041986
0.3130234 0.21971527 0.34541643 0.45728907 0.12368333 0.1412112 -0.075034276 0.10112151
0.17086793 0.09834812 0.07864093 0.059341855 0.27325162 0.13146561 -0.014522775 -0.046300344
0.022855358 0.21038087 0.09074441 0.08624434 0.03793534 0.030532405 0.111386925 -0.12204389

lstm1.bias_ih_l0 f4 [256]
00000000: b2b0 1e3c ac77 173e d4c1 fabd ffbe 433d
00000010: 6c70 d7bd 030a 7dbb 7d30 2c3a 804a 033e
00000020: f900 003d ba3e b7bd 7c7d 59be 679d 773e
00000030: bff4 b7bd dfc2 b7bc cda5 28bd f392 de3d
00000040: 768c 9ebc ed94 9c3b bd25 5fbe 5df9 e23c
00000050: 3140 14be ea75 e83d df4c 863e 7386 f0bc
00000060: 4a7c 20bd 1b27 603c ac25 a23c f769 9c3d
00000070: 51b3 f3bd 0746 343d 03cb b5bd 2fb3 ef3c
00000080: 8fdf 9cbd 5b03 533c 00f0 443c c9f4 933c
00000090: e708 0e3e a4ac 473d 3823 b2bc e378 4b3d
000000a0: ffaf 3cbd 8e46 12be 636d 97bd 7d6c 16be
000000b0: bac5 b1bd 262b 893d 1281 0fbd 49a3 d6bd
000000c0: 0fa8 8e3d a650 013e 7987 1f3d cdad 04bd
000000d0: d855 633d e424 70bc 1bef 22bd 13b0 16be
000000e0: a72c b9bd 9210 e33d 628e 9c3c 5077 d63d
000000f0: b7d9 c03d 9b5c 223e 0a81 b33d 0f9e 353e
00000100: 052e 1c3e c246 4b3e 5c98 d0bd 6f2d 9c3b
00000110: dfca 23bd c12b 0c3d 8ad9 38bd a646 1a3e
00000120: 77cb adbb a433 913d cec7 963d 20b0 633d
00000130: 3798 a7bc 5869 05be 7402 01be 2da1 b83d
00000140: d8c7 98bd 2743 ad3d a89c dcbd 7922 b23d
00000150: b1cd 383e 80fa e63d 6444 c13d a28d a33c
00000160: 8cdd a73d 2d3c 993d 9b46 11bd baf4 88bd
00000170: 6415 833d 2667 58bc 443b 2a3e 800f 833d
00000180: 6c85 bf3d 07bf 343d 5124 76bd 0b63 e1bd
00000190: f42d 93bd 1ab2 2b3d 15fb 36bd 0edd 85bd
000001a0: 3b00 5ebd 287e f13d ae10 873d b06d b1bc
000001b0: dcf3 353c f283 403e 051c 6f3c 77a4 df3d
000001c0: 5802 c3bc ec3d 15bd 5c65 7a3d 61de 26be
000001d0: da83 e8bc 148e 203e a442 053e 7a21 143e
000001e0: 59e4 113e 900d ba3d b50c b13d f623 b1bd
000001f0: dbe3 473c ccc9 a8bd ee14 1bbe f9f6 853d
00000200: 3d6a 06be 462b fa3d 609e 9c3b c0cf 6dbd
00000210: bd8a 1d3d 132e 14bd c45a 4d3e 5ec6 80bc
00000220: 1181 1d3e 2406 2a3e 2915 d5bc ea6f a0bd
00000230: 79e5 e03d d384 b0bd abf9 bcbd b96a 27be
00000240: 714d bfbc f6b7 69bd 59c8 a9bd 8da5 69bd
00000250: 49b9 273e 9580 94bd edac 2d3d 9023 79bd
00000260: 0a0d 853e b9cd 453d e15c f2bd f323 0abd
00000270: 13e1 913d 34d1 f93d e494 d0bd 9e9d 1f3d
00000280: 74e0 b63d 15dd f2bd bfda c63d 17fc 673d
00000290: 7890 b43d f965 2f3e 0e88 123e 1ba4 3ebd
000002a0: 0186 34bc 0a2b b13c f7ec 5a3d ae1a abbd
000002b0: b155 0b3e f0ee 013c 93a9 833c 8fba ac3c
000002c0: 2546 f63d 8252 c63c a43b dc3d b976 e23d
000002d0: 075e b53d 85ba 1fbd b0ab bcbd 8f14 243e
000002e0: adc2 3dbe f4ca 593c ad42 b33d fd64 8ebd
000002f0: d1db 33bd c13d 913d 44ec 47be a779 9ebd
00000300: 1c52 143d 9373 c5bd 26d5 16bd a9a5 3c3d
00000310: bba1 22bd 2e2a 663e a5e8 ca3d c700 8e3d
00000320: c8d2 613d f430 c93a 14a9 d3bd aac7 483e
00000330: c8e1 b13d 8f2b 9dbc a4fc 25bc fdb9 e33c
00000340: 442d 3cbd 59ba 1fbb 42b3 513d 15c3 0bbb
00000350: e56d aa3d 205e 603d 2cd1 1c3e cc9d d33d
00000360: 0e41 563a 74f2 b3bd 5d1f 013d 8e24 ec3c
00000370: eabe 033d 325b 08be a5ea 453d d602 f63d
00000380: 71f1 ce3c 7ac9 473e 0451 a93d 5a90 783c
00000390: 0e32 573d 0e41 043c 753d cabc 89af 99bc
000003a0: d2d3 463e 065e 843d 1572 103e ae20 1e3e
000003b0: 5772 1abd c3f0 aa3d 83d9 ae3d 74d9 753d
000003c0: 2319 ae3d 04c4 b1bd ea59 a5bc 9ed1 c83d
000003d0: 837f d03d 71f0 133e b63c 5d3d 82fd 753e
000003e0: 4150 a3bd b5d4 e03d ad9b abbd a087 9f3d
000003f0: 2c33 b43d eb41 583d 52a0 a4bc 85bd 10bd
0.009685682 0.14791745 -0.12244001 0.04778957 -0.1051949 -0.0038610704 0.00065685046 0.12821388
0.031250928 -0.08947511 -0.21239275 0.24181138 -0.089822285 -0.022431789 -0.041173745 0.10867872
-0.019354086 0.0047784955 -0.2179174 0.027706796 -0.14477612 0.11350615 0.26230523 -0.029360985
-0.03918103 0.0136811985 0.019793354 0.07637399 -0.11899436 0.044012096 -0.08876612 0.029260246
-0.07659828 0.012879218 0.012020111 0.018061059 0.13870583 0.048748627 -0.02174531 0.049675833
-0.04606628 -0.14284727 -0.07393911 -0.14689822 -0.086802915 0.06697683 -0.0350352 -0.10480363
0.069656484 0.12628421 0.038947556 -0.03239231 0.05550179 -0.014657233 -0.03977881 -0.14715604
-0.0904172 0.11087145 0.019110862 0.10471976 0.09416526 0.15855639 0.087648466 0.17736076
0.1525193 0.1985121 -0.1018531 0.0047661583 -0.039988395 0.034221414 -0.045129336 0.15066013
-0.005303796 0.07089928 0.073623285 0.055587888 -0.020458324 -0.13028467 -0.12598592 0.09015117
-0.07459992 0.08460074 -0.10772067 0.086979814 0.18047215 0.11278248 0.094368726 0.019964997
0.081965536 0.07482181 -0.035467725 -0.06687303 0.06400564 -0.013208186 0.1662417 0.06399441
0.0935162 0.04412749 -0.060093228 -0.11005219 -0.07186499 0.041917898 -0.044673044 -0.065363035
-0.05419944 0.117916405 0.06594978 -0.021658748 0.011105504 0.18800333 0.014594083 0.10920041
-0.023804829 -0.036436006 0.06113182 -0.16295768 -0.028383184 0.15679199 0.13013703 0.14465895
0.14247264 0.09084618 0.08645002 -0.08649437 0.012200321 -0.08241615 -0.15144703 0.06541247
-0.13126464 0.12215285 0.004779622 -0.058059454 0.03846239 -0.036176752 0.20054156 -0.015719589
0.15381266 0.16603905 -0.026011067 -0.07833846 0.109812684 -0.08619084 -0.09227308 -0.16349305
-0.023352357 -0.057060204 -0.082901664 -0.057042647 0.16379274 -0.072510876 0.042401243 -0.06082493
0.2598651 0.048291896 -0.118341215 -0.03372569 0.071230076 0.121981055 -0.10184649 0.038968675
0.0892953 -0.11858574 0.09709691 0.056636896 0.08816618 0.17128743 0.14309713 -0.046543222
-0.011018277 0.021626968 0.053448644 -0.08354698 0.13606907 0.007930502 0.01607207 0.021085052
0.12025098 0.024209265 0.10753563 0.11057801 0.08855825 -0.03899624 -0.09212434 0.16023467
-0.18531294 0.013293017 0.08752952 -0.06952856 -0.043910805 0.07091857 -0.19523722 -0.07738047
0.036211118 -0.09641185 -0.036824368 0.046056423 -0.03970502 0.22477028 0.09907655 0.06933742
0.055132657 0.0015349672 -0.103349835 0.19607416 0.086856425 -0.01918581 -0.010131035 0.027798647
-0.045941606 -0.0024372546 0.051196344 -0.0021325995 0.08321742 0.054777265 0.15314168 0.10332832
0.0008173146 -0.08786479 0.03152405 0.028826024 0.03216449 -0.13316038 0.048319478 0.1201226
0.025261613 0.19510451 0.08267406 0.015171135 0.05253797 0.008072151 -0.024687508 -0.01876046
0.1941674 0.06463246 0.14106019 0.15442154 -0.0377067 0.08346703 0.08537581 0.060021833
0.08500888 -0.08679965 -0.020184476 0.09805606 0.10180571 0.1444719 0.054012977 0.24022487
-0.079742916 0.10978071 -0.08379302 0.0778954 0.08798823 0.05279724 -0.020095978 -0.03533699

lstm1.bias_hh_l0 f4 [256]
00000000: 376f 653c 7838 8fbc 9c0e 953d 922e e5bb
00000010: 1f63 2abc 87e5 3a3e 0327 713d 2822 a53d
00000020: 3325 2ebd 81d0 29be ad0c c6bd 78e8 6b3d
00000030: 027c bdbd 4b37 713d 1b03 f63c f657 d63d
00000040: 99de c23d 6eaf 843d 1d79 e2bd 97b9 b63c
00000050: c02d 82bd 052e 6c3e 65e3 ad3d d97f 2ebc
00000060: 61af e2bc 7226 833d 3bc2 cfbd dc5d a8bd
00000070: ccd9 d9bd b1ee 02bd 5ff7 123d 78a7 123e
00000080: ba6d 003d 29b3 f4bd 23f0 bbbd 0ddb 40be
00000090: 690f 063e 4d6b 483d a921 4fbd f5d2 b13c
000000a0: 43db debd 0ed6 cfbd 743e 70bd 7f66 08be
000000b0: 5243 183e ff6e bbbd 98a1 1e3d 5606 323d
000000c0: e089 0cbd ba4d d83c 4a12 be3c e5e4 c83d
000000d0: 5465 0a3e 2984 b93d 1552 f3bd 487c 54bd
000000e0: eb04 2fbe 8444 ef3d 62ec c9bd 926b 0b3e
000000f0: d472 4dbc ceb4 183e 0590 11bd c9d5 b23d
00000100: 7fc8 293e 5786 cb3d 5a0a 433d c8e6 b4bd
00000110: eb98 893c c9d5 ed3d ff67 04be f6fd 423d
00000120: b8c7 4bbc 2e90 5bbd ea0f 16be 464a 0a3e
00000130: 984f 233e 48f7 72bc e112 ecbd 795d 0e3e
00000140: b178 8dbd 7abb ee3d 96de a93d ef62 fd3d
00000150: 1d6f 713e d8e5 1f3e 0544 943a 4ad1 81bb
00000160: 646a 043d 3763 f83b 9756 03be c821 07bd
00000170: e379 193d 81f8 653d dbbb ef3c 6062 8dbc
00000180: 439d 93bd 3157 003d 2afc 0bbe 544f aebd
00000190: cf4f dabc a66b 2e3d 8c85 863d 2c59 19be
000001a0: 69fa 683c 5d20 763d 00ea 593e 89ce 8cbd
000001b0: f61d 893c ef25 163e 648c 4c3b 4f76 eabd
000001c0: df69 1e3e 2d2a 873d b113 2a3c 8a5e 5e3d
000001d0: 8eb0 3c3e 38ed 9ebb a3e8 8f3d 9a83 86bc
000001e0: 7e1a 3d3e a630 813c 4244 00bd e9da 97bd
000001f0: 28b5 5bbd 31b1 cebd b99d e9bd 5c1e 8fbd
00000200: 8e91 da3b fa42 823d 85f8 27bd de3d a3bd
00000210: a4f3 99bd 65ec b73c 42b3 bb3d e4de ee3d
00000220: 3239 863d a52e d9bc de63 ccbd 5928 19be
00000230: 669c 90bd c5b6 cd3d 68de a13d 0b77 c2bc
00000240: 0f8c 143d e30f 003e e09e 263d 2127 cdbd
00000250: 5236 933c fca0 a73a a75e d73c 870c 3a3d
00000260: bcbf 1e3e 64a1 003e 21c3 dabd d9ec d0bd
00000270: e915 b63c 0433 123d 0584 cd3d da68 683d
00000280: e38a c73d 4ef5 45be 922b a4bd e2ed e2bd
00000290: 6b79 d63d 2833 b43d 3237 a0bd 6b28 6dbd
000002a0: 2bf3 73bc e0cd 5dbd da98 b0bd 8b80 cebd
000002b0: 553b 823d 4d3b d83c b25c a03d 037c 6e3d
000002c0: afbc 523d bfd2 bdbd ac38 92bd 4592 b73d
000002d0: 6aed b9bd 22dd ebbd 004e ffbc 0b9a 003e
000002e0: 5158 d13c eb7b bb3d 10f9 e53d d56f 2bbd
000002f0: 4ac5 193e bb22 9abd 4f2f e2bb 62cf 5cbd
00000300: 64a7 be3d 4e68 51bb abde edbc 1b54 96bd
00000310: 1224 ad3d 1c2a c63d 7368 debd b5e6 97bd
00000320: dd81 b8bc b09d 033e 7b43 d5bc 37ac f63d
00000330: 9189 1fbd aa50 3b3d 9df8 cb3d 4cae 1a3e
00000340: b344 42bd 8428 23bd 1e9d abbd 49c8 eb3c
00000350: eb6e d93d adc0 f93c 6eb6 ac3c fe76 d23d
00000360: 46f2 f03c 415e 85bd 6087 8e3d 8640 843d
00000370: d273 e1bc 8c33 d7bd 44d7 bbbd 721f a23c
00000380: a3da 143d dc67 123e df59 b53d f7d0 8fbd
00000390: 87d8 c33d d5fd c63d e314 663d 398e d43d
000003a0: 586d e63d 818c 8bbc bf2f cc3d 0943 1bbc
000003b0: 163e 153d b32e 613a 8631 e6bd c9b7 a23d
000003c0: aaed 1abc 70e0 22bc 5120 9c3d 2f9e d2bd
000003d0: 16aa 1a3d c68e 2e3d 1a51 25bd 1992 de3d
000003e0: c6b3 e43c 798b bfbc 5795 c7bd 5ee7 ac3c
000003f0: 5c1e 8c3d a357 fd3b bd9a 91bd f93e f9bd
0.0140035665 -0.017482981 0.07278177 -0.006994077 -0.010399609 0.1825162 0.058875095 0.080631554
-0.042515945 -0.16583444 -0.096703865 0.057594746 -0.09252168 0.058890622 0.030030778 0.10465996
0.095151134 0.06478773 -0.11058257 0.022305293 -0.06356382 0.2306443 0.08490638 -0.010650598
-0.027671518 0.06403817 -0.101444684 -0.08221027 -0.106372446 -0.031965915 0.035880443 0.14321697
0.031354643 -0.119482346 -0.09176662 -0.18833561 0.13091816 0.048930455 -0.05056921 0.021707037
-0.108816646 -0.101482496 -0.05865331 -0.13320349 0.1486943 -0.0915203 0.038728327 0.043463074
-0.034311175 0.02640425 0.02320208 0.09809283 0.13515216 0.09058411 -0.1188089 -0.051876336
-0.1709172 0.1168299 -0.098595396 0.13615254 -0.012539584 0.14912722 -0.03553774 0.087321825
0.1658039 0.09937733 0.047617294 -0.088330805 0.01679655 0.11613042 -0.12930296 0.047605477
-0.012437753 -0.053604297 -0.14654508 0.13504896 0.15948331 -0.014829464 -0.11527038 0.13902844
-0.06907786 0.11656852 0.08294408 0.12372386 0.23577543 0.15615022 0.0011311775 -0.003961717
0.032328025 0.0075801867 -0.12826 -0.0329912 0.037469756 0.056145195 0.029264381 -0.017258823
-0.0720773 0.031333152 -0.13670412 -0.085112244 -0.026649384 0.04258313 0.06568441 -0.14975423
0.014219859 0.060089458 0.2128067 -0.06875331 0.01673792 0.14662908 0.003121161 -0.11448347
0.15470074 0.06599841 0.010380671 0.05428938 0.18426725 -0.004850056 0.07026794 -0.016420174
0.18467137 0.015770268 -0.031315096 -0.07414801 -0.05363956 -0.1009239 -0.11407036 -0.069882125
0.0066701835 0.06360431 -0.04100849 -0.079707846 -0.07517174 0.022451589 0.0916505 0.11663607
0.06553878 -0.0265115 -0.09979986 -0.14956798 -0.07061081 0.10044626 0.07903749 -0.023738405
0.036266383 0.1250606 0.04067886 -0.10017229 0.017970238 0.0012789066 0.026290251 0.045422103
0.15502828 0.12561566 -0.10681749 -0.10201425 0.022227244 0.035693184 0.10034946 0.05674062
0.097432874 -0.19331858 -0.08016123 -0.11080529 0.104723774 0.0879882 -0.07823028 -0.057899874
-0.014889519 -0.054151416 -0.08622904 -0.100831114 0.06358973 0.026395464 0.0783018 0.058223736
0.051449474 -0.09268712 -0.071397156 0.089634456 -0.09078486 -0.11516787 -0.031165123 0.12558763
0.025554808 0.09154495 0.112291455 -0.0418547 0.15016666 -0.075261556 -0.0069026123 -0.053908713
0.09309271 -0.003195304 -0.02903684 -0.073402606 0.084541455 0.096760005 -0.10859766 -0.07417051
-0.022522861 0.12853122 -0.026033154 0.12044566 -0.038949553 0.045731224 0.099595286 0.15105551
-0.047428798 -0.03983356 -0.08379577 0.028782027 0.10616859 0.030487383 0.021083083 0.10276602
0.0294124 -0.06512118 0.069594145 0.06457619 -0.027521048 -0.10507879 -0.09171918 0.019790385
0.03634132 0.14297432 0.08855032 -0.07022279 0.09562784 0.09716383 0.056172263 0.10378689
0.112513244 -0.01703477 0.09970044 -0.009476432 0.036436163 0.00085900276 -0.112399146 0.079452105
-0.009456078 -0.009941205 0.07623351 -0.102840774 0.037759863 0.042616628 -0.040360548 0.1086771
0.027917754 -0.023381935 -0.09745281 0.021106418 0.06841728 0.0077313944 -0.07109592 -0.12170214

lstm2.weight_ih_l0 f4 [128, 64]
00000000: 14b6 893a 7d22 b3bc 60a2 44be e9bb a13d
00000010: a720 87be 370b 30be 9239 24bd 1a18 79bc
00000020: ab43 073e e86d b53e ba7b 91bd 2bb8 1c3e
00000030: 92b6 063a 1541 8b3d 0dc5 50be 0057 5abe
00000040: 471f ecbc e6f4 3dbd 9fb2 90be e060 393d
00000050: f22e d8bd 0b6f 12be 3370 5fbe e47b 8e3d
00000060: 976c 07bd 5497 95bc 81c8 b5bd 334c 163e
00000070: d1d9 e93d e1fd 45bd e870 56be 83b4 063e
00000080: acab a33d 2d47 453e ba63 e8bc c750 c3bd
00000090: fb84 063e ffe4 febd 4a26 8c3d 5dc6 09bd
000000a0: 8131 023d fb1e edbd 502a a73d 36d9 71bd
000000b0: c7a9 16bd 8def 6a3d 8c24 59be 7fb6 ff3c
000000c0: f62c c7bd 265d c83d c057 cd3b ede1 bc3e
000000d0: 8cdc cdbd 41d4 e9bd 151a ffbd 1b7d 65be
000000e0: e3e8 14be c90a 09be 511e 013e daf1 003e
000000f0: bc17 133d f8aa bcbd 36c6 b5bd 6ba9 213e
00000100: 311e 40be 34c5 113e 314d 14bd 34e2 1e3e
00000110: d7e1 28be f83b 463d 4453 583e bcfa 7dbd
00000120: 3e80 8d3e dc58 2b3e abbf 03bd 6e42 033e
00000130: 8473 1c3d 16d8 a2bd 9827 9bbe dd8d 553e
00000140: 4087 b43b fb82 4fbd 6548 ccbd b68c b83d
00000150: 8928 ba3d aa26 113e 88ac 0dbe 63cd 0d3e
00000160: 19ca 323d eade c13d 8e6d ca3c 1527 5c3e
00000170: 75d9 843d b357 d13d 34cc 20bd 2604 d93d
00000180: 61e6 f53d 6abf 4f3d cd60 bdbd 46b1 39be
00000190: 3333 18be bd97 6ebe c5d6 37be a773 a03c
000001a0: 4779 97be f387 01be 73c0 21be 4bc1 25be
000001b0: 7048 523e 4e09 b83d d431 723c a853 133e
000001c0: dd50 e4bd 212e 37be bcfb 9dbc dea2 a6bc
000001d0: ce3f 04be 27d8 f0bd 508f 6a3e c47d 66be
000001e0: 9ad8 8f3d 63b7 72bd 567d 403d b509 3abe
000001f0: da52 16be 5787 4c3d 73ce f4bc 10f5 e1bd
00000200: 2c69 b13d 4d25 a8bd bbcf 17be 0a07 5ebd
00000210: d84e 74be d210 9bbb c698 77bd acd1 e1bc
00000220: c888 563e a40e dc3d 558b 883e 7367 9f3d
00000230: c731 483e dd4c 47bd efb8 40be 2ff3 01bd
00000240: 61c0 eabc 023e 6dbd 8fc4 d1be 1ad2 8bbd
00000250: 0beb 8f3e 7d57 4f3c 776f a4be f54d 3c3e
00000260: cf52 2c3e 1a56 6cbd 27b1 04be c8ef cbbd
00000270: 8e5e 78be a55e a4be 2376 04bd 3102 113e
00000280: 75f0 4d3e eeb7 f3bc 044a b6bb ffe3 46be
00000290: 97c2 923e 56ff 543d 9408 d53d c76e 1fbe
000002a0: ab76 adbd 22dd db3d c492 413e 6dfe bb3d
000002b0: 6305 9dbe 29a3 9e3d fca8 a7be 4ba3 263e
000002c0: 03ec dd3c 7ce2 143e dc75 1bbe 71db 7b3e
000002d0: 1bb4 98bd 7441 2ebe 12d1 4fbd c639 72be
000002e0: 3fdf d03c b9bd 60be bb15 193d 707f 4abe
000002f0: bddd a7bd c47b 22be 224f edbd 8a13 8abd
00000300: 7036 373d 5501 733d b24b dc3d 1c31 52be
00000310: 3d56 6a3a 9c13 89be 5e62 f3bd aaf9 55bd
00000320: a59c 113d 89cb 4a3d 02e0 1ebd fc72 c3bd
00000330: 81a8 9cbd f886 303c 27c5 04be 832f 0f3d
00000340: e6d5 3abd 1c3d c03c 4c43 16be b883 1d3e
00000350: ecbd 923d 9da6 a7bc 8cfe aa3c 9402 263e
00000360: 892f 5cbd 6422 10be 88ec fc3d 1cdc dbbc
00000370: ceef 8c3c 7659 4c3e 6e13 01be 45d3 423d
00000380: 83a9 4d3d fd0e 5cbd 0955 923c 7660 aebd
00000390: 2edb 1fbe 52cb f93d a587 ee3c 5cd0 123e
000003a0: d49a 4cbc 6397 3dbd 90d8 603d 98fe 7bbd
000003b0: be27 263c c6da 31bd 315a 8bbd c1c4 8d3d
000003c0: 4c0f 00bd 6fda cf3d c9da bc3d dc57 ea3d
000003d0: 7c83 1d3d 8995 94bd 64f5 4d3d d973 003e
000003e0: 9455 58bd 3b97 b13d c2a6 60bd e3b5 803e
000003f0: 2436 adbd 8877 c73d 576b c3bd 24f4 a2bc
0.0010506534 -0.021867031 -0.19202566 0.07897169 -0.263921 -0.17191778 -0.040093966 -0.0152035
0.13209407 0.35435414 -0.07103677 0.1530463 0.00051388994 0.06799523 -0.20387669 -0.2132225
-0.028823508 -0.04637613 -0.28261277 0.045258403 -0.10555829 -0.14300172 -0.21820144 0.06957224
-0.033062544 -0.018260635 -0.08876134 0.14677505 0.11418498 -0.04833782 -0.20941508 0.13154797
0.07991728 0.19265433 -0.028367866 -0.095368914 0.13136666 -0.12446021 0.068432406 -0.03363644
0.03178549 -0.11578175 0.08162367 -0.05904504 -0.036783006 0.05735736 -0.21205348 0.03121495
-0.097253725 0.09783392 0.006266564 0.36891118 -0.100518316 -0.11417437 -0.12456147 -0.22411005
-0.14541964 -0.1338302 0.12609221 0.12592259 0.035911307 -0.09212297 -0.08875696 0.15787284
-0.18761517 0.14235383 -0.036206428 0.15515977 -0.16492401 0.048397034 0.21125513 -0.062006697
0.27636904 0.16733116 -0.03216521 0.1281831 0.0381961 -0.07951371 -0.30303645 0.20854898
0.005509287 -0.050662022 -0.09974746 0.090112135 0.09089763 0.14174905 -0.13835347 0.1384788
0.043649767 0.094663456 0.024710443 0.21499284 0.06486789 0.102218054 -0.039257243 0.105964944
0.12006832 0.050719656 -0.09246979 -0.1813403 -0.14863281 -0.23300071 -0.17953022 0.019586397
-0.29584715 -0.12649517 -0.1579607 -0.16187017 0.20535445 0.0898615 0.014782388 0.14387381
-0.11148236 -0.1788869 -0.019285075 -0.020341333 -0.12914965 -0.11759978 0.22906232 -0.22508913
0.07023735 -0.059256922 0.04699453 -0.18167765 -0.14680043 0.049933758 -0.029883599 -0.1103307
0.08662638 -0.082102396 -0.14825337 -0.05420593 -0.23858202 -0.0047322297 -0.06044843 -0.0275658
0.20950615 0.1074498 0.26668802 0.07783403 0.19550239 -0.048657287 -0.18820547 -0.03172606
-0.028656187 -0.057920463 -0.40970275 -0.06827183 0.2810901 0.012655136 -0.3211629 0.18389113
0.16828464 -0.0576993 -0.12958203 -0.09957844 -0.2425482 -0.32103458 -0.032339226 0.14160992
0.20111258 -0.02975079 -0.0055630226 -0.19422911 0.28664085 0.05200132 0.10402027 -0.15569602
-0.084699 0.10735537 0.18903643 0.09179387 -0.30668172 0.07745964 -0.32746112 0.16273229
0.027090078 0.14539522 -0.15181679 0.24595429 -0.074562274 -0.17017156 -0.050736494 -0.23654851
0.025497077 -0.21947373 0.03737424 -0.19775176 -0.0819659 -0.15867525 -0.11587359 -0.06742008
0.04472965 0.059327442 0.10756625 -0.20526546 0.0008939242 -0.26772773 -0.118839964 -0.05224005
0.03554978 0.049510513 -0.03878785 -0.09543416 -0.07649327 0.010774367 -0.12965833 0.03495742
-0.045614146 0.02346664 -0.14674109 0.15382278 0.07165131 -0.02046519 0.02087333 0.16211921
-0.05375627 -0.14075619 0.12349802 -0.026838355 0.017204192 0.19956002 -0.12605068 0.047564764
0.050210487 -0.05372523 0.017862814 -0.08514492 -0.15610954 0.121969834 0.029117415 0.14337295
-0.012488086 -0.04628695 0.05489403 -0.061522096 0.010141311 -0.04342153 -0.06804312 0.069222935
-0.03126459 0.10149085 0.092214175 0.11442539 0.03845547 -0.07255084 0.05028285 0.12544192
-0.05281599 0.08671423 -0.054846533 0.2513877 -0.08457592 0.09739596 -0.09541958 -0.019891806

lstm2.weight_hh_l0 f4 [128, 32]
00000000: e9b9 f33d fab4 82bd 0b1c 8a3e f50f ce3d
00000010: 549d 1e3e 1b81 88bc 4b18 923d 7015 f53d
00000020: 98e5 6b3d 6b1a a33d 6ddf 8ebe 873f c4bd
00000030: 7f85 e7bc f74b 7a3e da7e 823e d554 543e
00000040: 7aa2 2ebe 0166 6cbd 12fc 6abc cab8 94bd
00000050: 0d32 8e3e 0a81 633e d380 d73d 593c 3dbe
00000060: 020e 83bd 3b92 0e3e af01 693c a123 903d
00000070: 2bbe 42bd a591 963d 76ee 2ebe eec6 cd3e
00000080: 71c2 85bd d5ac d6bd ea3c 20be 3f91 30bd
00000090: e698 98be 80aa 643d 4ce0 44bc 391e bdbd
000000a0: f4de 543d cf3f b8be dd99 6ebe c61b 893d
000000b0: 6b6f b73e 8d2a 1b3e 65fe 7f3e e18c 043e
000000c0: 1cc1 3cbe 412d 63be 79b9 023e f2b6 d5bc
000000d0: 20f7 65bd 8308 993e d112 3b3e 9334 643c
000000e0: 7a9b 1fbe b205 4e3e 0eaf 0cbe 374d 8d3e
000000f0: c7ff 973e 1e33 b8bd d0e6 bd3d 3e8b 31be
00000100: d396 1f3d 5078 c8bd cb72 133e 3fa7 013c
00000110: b1a7 81be 3d56 923d c736 acbd f77e 4e3d
00000120: e188 74bc 3fca 823d 3e3e a4be a82b 743e
00000130: 198f 8ebe 8678 b63e db73 b33d 9ef1 7fbe
00000140: 1f3b 4cbe 4d92 fbbe f123 11bd bdd4 9dbe
00000150: 5e41 0fbe e429 f53e ed8c 2e3e d7f9 0d3e
00000160: b3aa bbbb 4ddb 133e 3f61 513e d253 9a3d
00000170: 1503 d1bd 112d 1a3e c0ca 153e eea8 9c3d
00000180: 88eb 66be c277 9b3e 28a8 903d 0f66 88be
00000190: 9b0d 023e 046e b2bd 7b44 50bd 28fd 773e
000001a0: 712f 83be d2b6 62be 26b2 133e b0eb babc
000001b0: b97f 863e 6a1a 133d 5c95 ce3d 3c8d c73e
000001c0: aee0 38bd 00ed 0cbd 8988 813e 3639 213e
000001d0: 6f07 2c3d 2840 2cbe 2a44 71be 707c 3cbd
000001e0: 4aeb d0bd 3b22 16bd 53a6 093e d16d 413c
000001f0: e9e7 4fbd df88 a33d 9d2f 12be 37b1 ee3d
00000200: 841b aebd a37b 8f3d cd28 4f3c aa1b ee3e
00000210: 9747 a73d 680b 36be 5963 453c 49eb 393e
00000220: 7f16 ec3b 2f2a 41bd 2bfb c1be 956b 143e
00000230: 251c 843d 6dbe 193d 1df5 ea3c f19c 9a3e
00000240: 4e05 cabd a0c0 a9bd 9da5 e9bd 0059 5a3e
00000250: bc37 673e bc92 c73e 61d9 ab3e 73cd 1cbe
00000260: 4236 0b3e cf70 aebc 056f a0bc 6435 9a3d
00000270: 99a5 903d 51cb e03d d8bd 48bd 7bdc 973d
00000280: 8838 803e 0841 403d fef0 ebbd 7df8 64bd
00000290: b11c dcbd 19f6 28bc 51bb a33d 3de2 54bd
000002a0: 13a2 243e 1be0 ccbe e22e c63d 391f abbd
000002b0: dd93 82bd ac78 a9bd e34d 903d 51da 2ebd
000002c0: c94a 67bc 19fc 513d 98af ffbc dd42 873d
000002d0: 088c c23c da01 0a3e 13fb f9bc 7c02 1bbe
000002e0: 0aa1 a2bd 4e0b 85be c8f9 b13c 7818 683e
000002f0: a617 163e b2fd c13c 0231 873e e362 e83c
00000300: 248c f7be 0e0d 3fbd f5ad e43c 8a13 8f3e
00000310: 470e 8b3e 979f 1ebe a8cb d63d 6b23 0a3e
00000320: f6f4 f03d b6a3 193d 5bbf 1abe 205c a5be
00000330: a463 8d3e f5ca d53a 1b78 b93d 91e6 68be
00000340: 6bb3 b7bd 4404 f7bd cceb 88be 6a53 6ebd
00000350: f73d 0abe 086e 94bd ebdf c63e c89c 14be
00000360: c226 62be f8a1 fbbd 546b 31bd 0c31 593e
00000370: 4258 6e3e a453 32be 7f4c 46be e529 693e
00000380: ca2e 873d 4cf7 d43d c887 31be 4146 6dbd
00000390: 339d a6bb 6812 2a3e 3422 453e d87d 79bb
000003a0: 61fa 2c3e 3601 7b3d f1d4 08bd 0322 47be
000003b0: f7e9 d93e a011 30bd ec3c 8a3d 4ded 6bbe
000003c0: 5476 053e e6dd 87bd 6788 423d d148 9abe
000003d0: c7fa 2a3e 8589 8e3e 034d b3be 59dd 863d
000003e0: af33 debd 590b 2e3e 2d6c 993e 05f0 f1bd
000003f0: e4ba 933e 1dd5 c13b d31a df3c 0021 d8bd
0.11900694 -0.06382175 0.2697452 0.10061637 0.15489703 -0.016663125 0.0713354 0.119669795
0.057592005 0.07964023 -0.27904835 -0.095824294 -0.028261898 0.24443041 0.25487405 0.20735486
-0.17054167 -0.057714466 -0.014342325 -0.07261808 0.2777256 0.22217193 0.10522618 -0.18480052
-0.06399156 0.1392297 0.014221593 0.07038046 -0.04754464 0.07351998 -0.17083153 0.40190834
-0.065312274 -0.10482184 -0.15648237 -0.043107267 -0.29804152 0.055826664 -0.012016367 -0.0923428
0.051970437 -0.35986182 -0.23300882 0.066947505 0.35827193 0.1515295 0.24999388 0.12944366
-0.1843304 -0.22185232 0.12766065 -0.026088212 -0.05614388 0.29889306 0.18268897 0.01392855
-0.15586653 0.2011936 -0.13738653 0.27597973 0.2968733 -0.08994125 0.092725396 -0.17338273
0.038962197 -0.09788573 0.14399259 0.00791341 -0.2532325 0.07145355 -0.084088854 0.05041405
-0.014925213 0.06386232 -0.32078737 0.23844779 -0.2784355 0.35638827 0.08762332 -0.24994513
-0.19944428 -0.49135056 -0.035434667 -0.3082637 -0.1398978 0.47883523 0.17045946 0.13864838
-0.005727136 0.14439125 0.20447253 0.07535519 -0.10205666 0.15056254 0.14628124 0.07649408
-0.22550786 0.30364805 0.07063323 -0.26640365 0.12700503 -0.0871239 -0.050846558 0.24217665
-0.25622132 -0.22140053 0.14423427 -0.022817463 0.2626932 0.035913862 0.10087082 0.3897494
-0.045136146 -0.03440571 0.2529948 0.1574448 0.041999277 -0.16821349 -0.23561159 -0.04601711
-0.10201128 -0.03665374 0.13442354 0.011805967 -0.050758276 0.079850905 -0.14275976 0.11654895
-0.08501342 0.07006004 0.012644005 0.4650548 0.081679516 -0.17777789 0.012047612 0.1815616
0.00720483 -0.04715937 -0.37886938 0.14494164 0.06450681 0.03753512 0.028681332 0.30197862
-0.09864293 -0.082886934 -0.11408541 0.21323013 0.22579855 0.38979137 0.33564284 -0.15312748
0.13594916 -0.021294026 -0.019584188 0.07529715 0.07062835 0.109762795 -0.049009174 0.074151
0.2504313 0.04693702 -0.11520575 -0.05590104 -0.1074766 -0.0103125805 0.07994712 -0.05197357
0.16077451 -0.4001473 0.09676911 -0.083555646 -0.06375859 -0.082749695 0.07046106 -0.04268867
-0.014116951 0.05126581 -0.03121166 0.0660455 0.023748413 0.13477269 -0.03051523 -0.15137666
-0.07940872 -0.25985187 0.02172555 0.22665584 0.14657459 0.023680542 0.26404577 0.028367465
-0.48349106 -0.04664331 0.02791498 0.27944595 0.2715933 -0.15490566 0.10488063 0.13490073
0.117654726 0.037509643 -0.15112059 -0.32296848 0.27615082 0.0016311096 0.090561114 -0.22744204
-0.08969768 -0.120613605 -0.267424 -0.05818502 -0.135002 -0.07247549 0.3884271 -0.14512932
-0.22085097 -0.122867525 -0.043315247 0.21210116 0.23275855 -0.17414719 -0.19365118 0.22769888
0.06600721 0.10398731 -0.17336953 -0.057928327 -0.0050846576 0.16608584 0.19251329 -0.0038069393
0.16892387 0.06128045 -0.0334062 -0.19446568 0.42561314 -0.04298556 0.06749901 -0.23039742
0.1303342 -0.06634121 0.047493365 -0.3013368 0.16697226 0.27839294 -0.35019693 0.065851875
-0.108497016 0.16996516 0.29965344 -0.11813358 0.28853524 0.0059152977 0.02723447 -0.10553169

lstm2.bias_ih_l0 f4 [128]
00000000: 8125 f03d e1c9 e7bb ac43 103e ce10 283e
00000010: cda4 00be c92e 4fbe b71f 3b3d b345 f8bd
00000020: 9b26 07be 5424 1cbe 9301 013e 3891 503e
00000030: 3990 37be 5d9e 5cbe 5ad5 603d 0a36 e93d
00000040: d4fc 553e 1a0c 9abd 18ea da3d c62b a7bc
00000050: 9fee b43d e4b5 46be c5f7 0a3c 418e 20be
00000060: 68bd 24be 4d32 fbbd e148 c2bd 6ae9 80bd
00000070: c0ad 513d d74e c1bd ad01 0ebe 7f0c 32bd
00000080: 42bb 1a3e eb9f 1d3e 8de2 593e 92a0 f83d
00000090: 82d2 c73e dc1b b13c c7db 343e e7f7 a23e
000000a0: 2dfd 663e f160 e83d 9f17 ae3c d9b4 a73d
000000b0: a905 763e 2161 033e cb2a ee3c 1968 7d3e
000000c0: 8e75 71bd 5ff5 9d3e 2762 813d e700 2d3e
000000d0: 00d7 5f3e a6d1 ea3d 8e58 dc3d 053a 013e
000000e0: 586a 5d3e f1b1 9c3d 2f75 773d c098 d4bd
000000f0: 793d 773e 7c3b a53e acdd 183e 9e4a 5e3e
00000100: 570e 90bd 5ddb 79bd a907 dfbd b987 9ebd
00000110: 18bd c23d 0376 493d 3673 3fbd 5da9 b0bc
00000120: 53a1 083e 4f1e db3c c7af 1b3e 27d7 2dbe
00000130: 798c 6ebd 4eed 943c 4a2a 6f3d eb48 25be
00000140: 1520 33be bcee fd3c 2f4e 3cbd a89e ae3b
00000150: b2be 66be d624 a9bd 9497 55bd 5db4 62bd
00000160: 179a 033d 1cae 353d 486a 253e ae4b a93d
00000170: 6ceb b63d d99b 3fbe f8f0 00bd 26f4 26bd
00000180: 77f2 aa3e 892c e33e 72c0 3b3e 59bf 193e
00000190: 6276 c33e 54ef 893e aa6e adbc 8df9 a53d
000001a0: 4c8d 7d3e de57 493c df6e 66bd 0a16 883e
000001b0: 1295 b73e 38ce 873e 64c3 f13d 6359 923d
000001c0: e303 bb3e 26c6 38bc c9c6 323e c290 8b3e
000001d0: 7726 b43e 2ca9 753e 2de2 b33e 0f3e 6b3e
000001e0: ac5e 843e f33a e13d 9543 a53e 4dac b83c
000001f0: 3237 923e c76c 313e 81eb ae3e 07ee a93e
0.11725903 -0.0070736264 0.14088315 0.1641266 -0.12562867 -0.20232691 0.045684543 -0.12122669
-0.1319832 -0.15248233 0.12598257 0.20367897 -0.1792611 -0.21544786 0.054890968 0.1138726
0.20897228 -0.075218394 0.10689181 -0.020406615 0.08834576 -0.19405323 0.008481924 -0.15679266
-0.16087878 -0.122654535 -0.09486557 -0.0629452 0.05119109 -0.09438866 -0.13867827 -0.04346895
0.15110496 0.15393035 0.21277829 0.12140001 0.39027792 0.02161973 0.17661963 0.3182976
0.22557516 0.11346615 0.021251498 0.08188791 0.24025597 0.1283002 0.02907314 0.24746741
-0.05895 0.30851266 0.06317549 0.16894875 0.2185936 0.114657685 0.10759078 0.12619789
0.21622598 0.07651127 0.06041449 -0.10380697 0.24144544 0.32271945 0.14928311 0.21708152
-0.07033985 -0.061000217 -0.10890133 -0.07740731 0.09508723 0.04918481 -0.046740733 -0.021565134
0.1334279 0.02674785 0.15203772 -0.16976605 -0.058239434 0.018179562 0.05838994 -0.16141097
-0.17492707 0.030997626 -0.045973 0.005328972 -0.22533682 -0.08258979 -0.05214651 -0.05534779
0.032129373 0.044355497 0.16153824 0.08266388 0.08931622 -0.18711795 -0.031479806 -0.04076018
0.3338811 0.44369915 0.18335131 0.150144 0.38176256 0.26940405 -0.021170933 0.08104239
0.24760932 0.012289016 -0.05625808 0.26579314 0.3585592 0.2652452 0.11804846 0.071459554
0.36526403 -0.011277711 0.17458643 0.2725888 0.35185596 0.23990315 0.35133496 0.22972892
0.2585348 0.10997572 0.32278123 0.022543097 0.28557736 0.17326652 0.3416405 0.33189413

lstm2.bias_hh_l0 f4 [128]
00000000: 2ec7 4e3d 0c77 7b3b dfe7 c73d 0efe f0bd
00000010: 0a46 b6bd 63ac 42be 0b5d 68bd 33bc 0e3e
00000020: d05a 5abd 5aa9 10be ff7c a4bd f045 cdbd
00000030: 5bd7 4a3d 998d dabd 67f2 ce3c 1c70 a4bd
00000040: 2620 41bd 1b86 b03d 59ae 0abe 7e51 143e
00000050: da03 39bc 23d4 4abe 11f0 1dbd 9b2f ddbd
00000060: 604c d53c 25db de3d 4039 0abe 7253 a93c
00000070: 3e1b b63d 2e86 02be 929c 1fbd 1723 293e
00000080: 48e8 de3d 4c77 f33d d303 963e 655c 853e
00000090: ecee d13e f69c 793e 4786 ec3c b7df e63d
000000a0: 123e 183d bd30 1d3e 97ce 6e3e f96c 893c
000000b0: 9e5b 2d3e c5dc 963e c132 443e e7e0 83bd
000000c0: ce95 8a3e 8bb4 1e3e 8194 563e ef1c 553e
000000d0: 6fee 3b3e 0881 5b3e 20be 1b3e 45cc 2a3d
000000e0: f452 e1bb ea8b fbbc 587f 0c3e e6a1 7d3d
000000f0: 1396 a43e 5ae4 c23e cc46 303e 3b7e 403e
00000100: 8aa9 043c 112e 6a3d e6d4 e03d ce2a 0f3e
00000110: 7af3 e2bc 4bec 0fbe 8ba2 de3d 1315 a83c
00000120: 5494 d2bc 78c7 fbbd bbad 2c3e 23ab b5bd
00000130: a79d aa3c 43e7 b0bd 4a36 43be 7524 cdbd
00000140: 3fc2 97bd da11 d3bd b7f5 8a3c 66a6 27bd
00000150: a101 41bd 6d01 373d d7ce 9ebd 59a9 54bd
00000160: 5434 bebd 4721 00be c287 793d 0822 0fbd
00000170: 1ccb a6bd 390a d9bd f835 eebd d49f f9bd
00000180: 7519 913d 5f76 023e b86a 1b3e 10f4 263e
00000190: 6667 4b3e d329 6b3c 6275 b23b d9df 973e
000001a0: b1c5 8e3e 638d 923e f5aa 0f3e d4ce 213d
000001b0: 2d4b 533e d46f 113e 05fc db3d 7e22 883e
000001c0: b798 df3e c1a3 203e 1182 abbc dedc 313e
000001d0: 9705 8a3e f104 403e 66c9 de3e 44e4 283e
000001e0: 7e0e 133e 640e 9fbc 2078 223e a628 c03d
000001f0: 9864 b13e 6b57 b73e 9e2c 903d 7d0e 0f3e
0.05048292 0.0038370518 0.09761023 -0.11767207 -0.08900078 -0.19011073 -0.056729358 0.1393898
-0.05330926 -0.14127102 -0.080316536 -0.10023105 0.049521785 -0.10671539 0.02526207 -0.08029196
-0.0471498 0.086193286 -0.13543071 0.14484212 -0.011292422 -0.19807486 -0.038559023 -0.10800096
0.026037395 0.10881642 -0.13498402 0.020669673 0.08891915 -0.12746498 -0.038967676 0.16517292
0.10884148 0.118879884 0.29299793 0.26047054 0.41002595 0.24376282 0.028872622 0.11273139
0.03716857 0.15350623 0.23320995 0.016775595 0.1692948 0.2946531 0.19159986 -0.06439381
0.27067417 0.15498559 0.20955087 0.20811819 0.18352674 0.2143594 0.15209246 0.041698713
-0.006876344 -0.030706365 0.13720453 0.061921977 0.32145748 0.38064843 0.17214507 0.18798153
0.008097062 0.05717284 0.10978107 0.13981172 -0.02770399 -0.14054982 0.10870846 0.020517861
-0.025705494 -0.12293905 0.16863148 -0.08870532 0.020827128 -0.0863786 -0.19063678 -0.10016719
-0.074100964 -0.10306139 0.01696287 -0.040930174 -0.047120694 0.044679094 -0.07754295 -0.051919315
-0.092873245 -0.12512694 0.060920484 -0.034944564 -0.08144209 -0.10597653 -0.116313875 -0.12188688
0.07084934 0.12740467 0.15177429 0.1630404 0.19863662 0.014353233 0.005446122 0.2966297
0.27885202 0.28623495 0.14030059 0.039503887 0.20634146 0.14202815 0.10741428 0.26588815
0.436712 0.15687467 -0.020936044 0.1736941 0.2695739 0.18751885 0.4351303 0.16493326
0.14360997 -0.019416042 0.15866137 0.09382753 0.3464706 0.35808882 0.0703976 0.1397037

fc.weight f4 [9, 32]
00000000: 56f3 9ebc e8d7 613e 865e a3be 1b4c dbbc
00000010: f9f3 8abe 4a70 283f bbe9 ca3d 4a1d e2be
00000020: 36e8 a13e b169 85be 7645 983e e40c b4be
00000030: 3bbf c5be 2946 a23e 72d4 c0be 85d1 b6be
00000040: 2870 bcbe 7b18 1d3f 9b76 cabc 1e1a cabe
00000050: dca5 8fbe 57c9 d93e ae8a b53e 3f12 a93e
00000060: 7380 e1be c6e4 cfbe eb67 09bf 38a2 ccbe
00000070: 5ac6 eebe 3c81 923e b74f 9c3e 2344 e9be
00000080: 15a3 98be b9e3 a2be 8068 93be ca42 40bc
00000090: 8099 ff3e f6d9 8dbe cad9 003f a45f ad3e
000000a0: 2dee 833e 4872 54be 66e9 313e f9d4 bfbe
000000b0: d6f2 3d3e 7592 8bbe 1519 ab3d 8527 b43e
000000c0: 53d3 1a3f c620 523f 814e 5f3e 001e dd3e
000000d0: c67b 023f 8f38 90be 28d2 f5be ec44 ecbe
000000e0: dd96 97bd 2ecb cf38 5462 fe3d fd96 f53d
000000f0: d459 603e 3880 ebbe ab88 aabe 2a9b 9fbe
00000100: 7ef1 313f f091 adbe dc52 1a3f 242e f8be
00000110: 7d5f 193c cfba 2abe 821b 99be c9e4 ca3e
00000120: 9eac 1c3e 4d8d 11be e171 983e 3815 f13e
00000130: e773 9fbe 86f2 47be b57b 4ebe d3e5 c73e
00000140: 6bef f5bc 259c 0cbd db20 673e 3e8e 89be
00000150: b2c0 d53e af7a acbe 2b14 16bf 4a24 bd3e
00000160: 5404 a53e c026 a43e b489 703e a389 953e
00000170: 3de3 c9be 601c e03e 87a6 783e b598 853e
00000180: 0e1e 2f3f 653d d93e ab94 96be d241 e53e
00000190: 86d4 8cbe 0b13 14be 557d d1be 1b84 923e
000001a0: b202 00bf 771f 67bd 3005 04bf 7967 7f3e
000001b0: dd81 a13e 638a a93e f027 f2be 0f47 bf3e
000001c0: d377 28be 655e 82be cb93 bdbe dbaa d8bd
000001d0: f7ee 34be d0bf eb3e 7a06 3b3e bac8 f0be
000001e0: d3aa 0abf 8c41 333f cd0b 183e 3e08 673e
000001f0: b79b 873e c923 b0be 9cbb b63d d3a7 a53e
00000200: 87aa 97bd 3059 b3bd eefd bb3e d512 103f
00000210: 41c2 c0bd 3792 16bd fa40 383e 905a e2be
00000220: 7be4 7b3e fbb2 52be b378 aa3e 29e9 fe3e
00000230: 0dab c1be 92b5 7bbe 0086 4abe 9d36 bd3d
00000240: 1d93 383e 3d8b 743d 74b1 d13e 6e2d e43e
00000250: 5269 aebd b047 cdbe 1660 a83e 38d9 b13e
00000260: ce9e 9d3e 350f ccbe 4044 37bf a3e1 6a3e
00000270: 453b e3be 4d7e ca3e 7a40 f23e d441 ac3e
00000280: 0f8a 0e3f cb54 d23e 68ac b8be 02fb e9be
00000290: da23 4bbe e4c2 6e3e e966 a23e a8d5 d8be
000002a0: 9cd2 993e 009d 693e 89e4 c13e f54c d7be
000002b0: c171 993e 3597 923e 22aa 273f c67e d4bd
000002c0: 74ca 393f e83d ee3d 61b9 4dbd 7d20 923e
000002d0: 75e2 a0be 7411 d5be cbf3 15bf 9734 693e
000002e0: 2006 c2be 008a 3c3d 4a1c 7c3e 7037 18bf
000002f0: b014 413e 10bc 54bd 643a e53e 3113 e7be
00000300: c25f a6be 4d36 e5be 6629 1f3f e13e d73e
00000310: 9e3c 61be 6ce0 4bbe e2ec ba3e aaea 8b3e
00000320: d296 fb3d 60bd 313f 5afc 0cbf 41f6 18be
00000330: da12 9b3e d2d8 7abe 3925 0a3f 1025 cfbe
00000340: d4be 2cbd c2ac 73be da59 913e bc0d d2be
00000350: a75e e43e 6f57 f03e 93f0 b43e a412 f1be
00000360: de1b 90be dea3 313e 9ce6 f0bb 8d59 3a3e
00000370: 753f 8d3e f392 f0be f806 9abe 4ffb 353e
00000380: 49bc f6be bb82 cb3e 1291 d6be 5aa5 f5be
00000390: a0db e43e 73c8 b73e fec4 06bf 0483 913e
000003a0: 7fc4 efbe 5900 183f f147 4abe d969 6abe
000003b0: df72 d43e b3f8 063f 11ce c03e fc7c efbe
000003c0: 4d1e 8bbe 7c5f babe 9eeb f4be e15a e0be
000003d0: e8df 7fbe 3f86 8bbe f608 333e ad77 bb3d
000003e0: 3929 753e b961 bd3d d817 6b3d a591 45bf
000003f0: 2ebf 7b3e f93b 2d3e eba1 b5be 4407 723e
-0.019403141 0.22055018 -0.31908053 -0.026769688 -0.2713926 0.6579634 0.09907862 -0.4416297
0.31622475 -0.260572 0.29740494 -0.35166085 -0.3862246 0.31694153 -0.37662083 -0.35706726
-0.36804318 0.6136548 -0.024714759 -0.3947305 -0.28056228 0.42536423 0.35457367 0.33021733
-0.4404331 -0.40604228 -0.5367419 -0.39967513 -0.46635705 0.28614223 0.30529568 -0.45559797
-0.29811922 -0.31814364 -0.28790665 -0.011734674 0.499218 -0.27705353 0.5033232 0.3386203
0.2576765 -0.2074672 0.1737419 -0.37467173 0.18549666 -0.27260175 0.083543934 0.351864
0.60478705 0.8208126 0.2180729 0.4318695 0.50970113 -0.2816815 -0.480119 -0.46146333
-0.07401822 9.908374e-05 0.12421098 0.11991689 0.21909267 -0.4599626 -0.33307394 -0.31173068
0.6950911 -0.33900404 0.60282683 -0.48472703 0.009361145 -0.16672824 -0.299038 0.39627674
0.15300223 -0.14214058 0.29774383 0.470865 -0.31143114 -0.19526109 -0.20164378 0.3904253
-0.03002139 -0.0343286 0.22571127 -0.26866335 0.41748577 -0.3368735 -0.58624524 0.3694175
0.32229865 0.32060814 0.2349003 0.2920657 -0.39431182 0.43771648 0.24282275 0.2609307
0.68405235 0.42429653 -0.294103 0.4477678 -0.27505893 -0.1446039 -0.40915933 0.28616413
-0.5000411 -0.05642649 -0.51570415 0.24941815 0.3154439 0.33113393 -0.47296095 0.373589
-0.1645196 -0.25462642 -0.3702682 -0.10579463 -0.17669283 0.4604478 0.1826419 -0.47028142
-0.5416691 0.7002189 0.14848252 0.22561738 0.26485988 -0.34402302 0.089225024 0.32354602
-0.074055724 -0.087572455 0.3671717 0.56278735 -0.09412051 -0.036760535 0.17993537 -0.4420972
0.24598877 -0.20576088 0.3329521 0.49787262 -0.37825814 -0.24580982 -0.1977768 0.09238932
0.1802487 0.0597031 0.40955698 0.4456591 -0.08516182 -0.40093756 0.32885808 0.34736037
0.3078522 -0.39855352 -0.71588516 0.22937636 -0.44381157 0.39549485 0.47314817 0.33643973
0.5567941 0.41080317 -0.36069036 -0.45699316 -0.19837895 0.23316532 0.3171914 -0.42350507
0.30043495 0.22813797 0.3786967 -0.420509 0.299696 0.28630987 0.6549398 -0.103757426
0.72574544 0.116329014 -0.05022562 0.28540412 -0.31422773 -0.41614878 -0.58575124 0.22773968
-0.37895298 0.046030045 0.24620166 -0.5945959 0.18855548 -0.051937163 0.4477111 -0.4513183
-0.32494932 -0.4476799 0.62172544 0.4204016 -0.2199578 -0.19909829 0.36508852 0.27327472
0.12284626 0.6942959 -0.5507256 -0.14937688 0.3028782 -0.24496773 0.5396305 -0.40457964
-0.042174175 -0.2379637 0.28388864 -0.41026103 0.44603464 0.46941707 0.35339794 -0.47084534
-0.2814626 0.17347667 -0.0073517095 0.18198223 0.27587476 -0.46987113 -0.30083442 0.17771648
-0.48190525 0.39748177 -0.41907555 -0.47977716 0.4469881 0.35895118 -0.52644336 0.2842027
-0.46829602 0.5937553 -0.19754006 -0.2289194 0.4149389 0.52723235 0.37657216 -0.46775043
-0.27171555 -0.36400974 -0.47836012 -0.43819335 -0.24987757 -0.2725086 0.17483887 0.09153686
0.23941506 0.09247155 0.057395786 -0.7717536 0.24584648 0.16917409 -0.35475096 0.23635584

fc.bias f4 [9]
00000000: 56e5 5dbd c494 9bbd 145c 47bc 1339 85bd
00000010: 9390 86bb 7d99 2b3e ca48 bbbe 6ce3 be3d
00000020: 73ce e73e
-0.05417379 -0.07596734 -0.012167949 -0.06505027 -0.00410659 0.1675777 -0.3657897 0.09320721
0.45274696
