ai/lstm_with_nothing_state_v5.pth (torch, 129154 bytes, 10 tensors)

lstm1.weight_ih_l0 f4 [256, 6]
0	0x3e0ffb2f	0.14060663
1	0xbe35d262	-0.17756036
2	0x3d0881e6	0.033327006
3	0xbbd5732a	-0.0065139728
4	0x3d47e1d3	0.048799347
5	0x3e1d71a7	0.15375386
6	0x3cb0d5a6	0.02158625
7	0xbda0cb86	-0.07851319
8	0x3df90562	0.1215923
9	0xbca8c7de	-0.020603117
10	0x3e300726	0.17190227
11	0x3da7f050	0.08200133
12	0x3dd21217	0.102573566
13	0x3dd7bd5b	0.105341636
14	0xbd8a3066	-0.067475125
15	0x3c991dcf	0.018690972
16	0x3cd9390f	0.026516465
17	0x3dab7a6e	0.08372961
18	0xbd0ea68e	-0.034826808
19	0xbd3b9fd5	-0.045806725
20	0xbd2177b9	-0.039420817
21	0xbfb0c4e4	-1.3810086
22	0xbddffc8b	-0.109368406
23	0xbf5d476e	-0.8643712
24	0xbdb7fe6b	-0.08984073
25	0x3c892fe7	0.016746474
26	0x3dd6c7d8	0.10487336
27	0xbb12d226	-0.002240309
28	0xbc4c68fa	-0.0124762
29	0x3e160e4e	0.14653894
30	0x3ceb8e13	0.02875427
31	0xbe0a7b19	-0.1352352
32	0x3dbd291d	0.09236357
33	0xbd41dde8	-0.047330767
34	0xbc2eb13c	-0.010662373
35	0x3e7ba9ca	0.24576488
36	0x3e3eb31a	0.1862301
37	0x3e5d3d74	0.21605474
38	0x3db7f6e2	0.08982636
39	0xbd524d40	-0.051343203
40	0xbdc40072	-0.095703974
41	0x3c35418c	0.011062991
42	0xbd47ec19	-0.048809145
43	0xbd31619f	-0.04330599
44	0x3ce4bbf5	0.027921656
45	0x3e6ca241	0.2310877
46	0xbdcca15f	-0.099917166
47	0x3dd4273b	0.10359045
48	0xbdc8f684	-0.09812644
49	0x3e3170db	0.17328207
50	0x3daa09d1	0.083026536
51	0xbe116062	-0.14196923
52	0x3d38a4e0	0.045079112
53	0x3d70a434	0.058750346
54	0xbe3c696d	-0.18399592
55	0x3d76ce6e	0.06025546
56	0xbe450de5	-0.19243582
57	0x3c59d78b	0.013296018
58	0xbe1979fb	-0.14987938
59	0xbe33507e	-0.17511174
60	0x3dcf3643	0.101177715
61	0xbe395053	-0.18097048
62	0x3e6f1483	0.23347668
63	0xbe156c32	-0.14592054
64	0x3d56ddcf	0.052457627
65	0x3c4fe62d	0.0126891555
66	0xbc923b1a	-0.017850447
67	0xbd88eb9d	-0.06685565
68	0xbd957c7a	-0.07299133
69	0xbb88338a	-0.0041565346
70	0x3e3bae6d	0.18328257
71	0xbe9e740f	-0.3094792
72	0xbe13ee92	-0.14446476
73	0x3d86562a	0.06559403
74	0xbb888fe2	-0.004167543
75	0x3d862aaa	0.06551106
76	0x3dd14644	0.1021848
77	0x3e037979	0.12839307
78	0x3e114d3a	0.14189616
79	0x3d01e92b	0.031716507
80	0x3d8cd145	0.068758525
81	0xbde10128	-0.10986549
82	0x3daf9ec6	0.085752055
83	0xbd14c8cb	-0.036324304
84	0xbb4248bf	-0.002964541
85	0xbd5f46cf	-0.054510888
86	0x3d73688e	0.059425883
87	0xbd30bbf3	-0.043147992
88	0x3e2324ad	0.1593196
89	0x3e10e46a	0.14149633
90	0x3e4c4d81	0.1995144
91	0xbde54322	-0.11194445
92	0x3d2d1897	0.04225978
93	0xbd34bb47	-0.044123914
94	0x3d10dc3e	0.03536629
95	0x3e0d0390	0.1377089
96	0xbcf52928	-0.029926851
97	0xbd136ceb	-0.035992544
98	0x3c3cfde4	0.011535142
99	0xbdb4b2b3	-0.08823147
100	0xbe03d47d	-0.12874027
101	0xbe1cd6d6	-0.15316328
102	0xbe23f86b	-0.16012733
103	0xbd977384	-0.0739508
104	0xbd9477d8	-0.07249421
105	0x3e38ecd8	0.18059099
106	0x3dbc2f2b	0.09188684
107	0xbd13f395	-0.03612097
108	0x3e245738	0.16048896
109	0xbd1089c2	-0.035287626
110	0xbd4380b1	-0.04773015
111	0xbe47aa13	-0.19498472
112	0x3dd695b7	0.104777746
113	0xbc462525	-0.012093817
114	0xbcae8122	-0.02130181
115	0xbe5db3f9	-0.21650685
116	0xbcd24e99	-0.025672244
117	0xbcefaeff	-0.02925825
118	0x3cafabb2	0.021444175
119	0x3df6641d	0.12030814
120	0x3b8437aa	0.004034956
121	0x3c22b3d3	0.009930569
122	0x3e8d3fee	0.27587837
123	0x3e663eb8	0.22484863
124	0xbd69b275	-0.057054956
125	0xbcd903d9	-0.026491093
126	0x3d1facf4	0.0389833
127	0xbddd4596	-0.10804288
128	0xbe306dc3	-0.17229371
129	0x3d8ac596	0.06775968
130	0xbe9d4d79	-0.3072317
131	0x3dc34d86	0.09536271
132	0x3dee3884	0.11631873
133	0xbde91b20	-0.11382127
134	0xbddef7c3	-0.108871005
135	0x3d82f517	0.063944034
136	0x3d384de9	0.044996176
137	0xba23931d	-0.0006239878
138	0xbdb5b31a	-0.088720515
139	0x3d6eb0b3	0.058273982
140	0xbe1d6e0d	-0.15374012
141	0x3d8778c2	0.066148296
142	0x3e1d7626	0.15377101
143	0xbcf2ee1d	-0.029654557
144	0x3a1b5418	0.00059253117
145	0xbe81fc2b	-0.253877
146	0x3ddcb3f9	0.107765146
147	0x3d66319a	0.056199647
148	0x3dd5e556	0.10444133
149	0xbdb5fe8f	-0.08886444
150	0xbddb395a	-0.10704298
151	0xbc133323	-0.00898436
152	0x3d219a36	0.039453708
153	0xbdb4afab	-0.088225685
154	0x3e81da85	0.2536203
155	0xbd8c6c9b	-0.06856652
156	0x3dbf1566	0.09330253
157	0x3da04814	0.07826248
158	0xbde9eb6e	-0.11421858
159	0x3d43d08d	0.04780631
160	0x3e930b00	0.2871933
161	0xbb90400b	-0.0044021658
162	0x3cca5db6	0.024702888
163	0xbda39971	-0.07988251
164	0xbd651cce	-0.055935673
165	0x3db556fa	0.0885448
166	0xbe7c1460	-0.24617147
167	0xbe0134b6	-0.12617764
168	0x3aabbbf6	0.0013102281
169	0x3cc619f5	0.0241823
170	0xbbf2b8fd	-0.007407306
171	0xbe60ddff	-0.21959685
172	0xbe018eb3	-0.12652092
173	0xbbbd918e	-0.0057851737
174	0x3e14a8f5	0.14517577
175	0xbdab4455	-0.08362643
176	0xbd9a0637	-0.07520717
177	0x3d324cc9	0.04353026
178	0xbd9a1277	-0.07523053
179	0x3d89adb3	0.067225836
180	0x3e16dc8a	0.14732566
181	0xbde1ac4b	-0.110191904
182	0xbe0c9dc3	-0.13732056
183	0xbd1a42e9	-0.037661467
184	0x3d54189c	0.05178128
185	0x3e3ed1ca	0.18634716
186	0xbce5fbae	-0.028074112
187	0xbd2d94b3	-0.04237814
188	0xbd685357	-0.056720104
189	0x3d559a63	0.052149188
190	0xbdbc88d6	-0.09205787
191	0x3dd79c60	0.10527873
192	0xbb3bf447	-0.0028679536
193	0xbd4d2faf	-0.050094303
194	0x3d184ae9	0.037180815
195	0xbd482832	-0.04886646
196	0x3ec0a6ed	0.37627354
197	0xbdf254fc	-0.11832616
198	0xbdd04e5e	-0.10171197
199	0x3bba1424	0.0056786705
200	0xbea0d4e8	-0.31412435
201	0x3cd6309d	0.026146227
202	0x3c9af6cc	0.01891651
203	0xbf70e147	-0.94093746
204	0xbe42415f	-0.1897025
205	0xbb3082d3	-0.0026933446
206	0x3da72f67	0.08163338
207	0x3e857253	0.26063785
208	0x3d578133	0.05261345
209	0x3de572f1	0.11203564
210	0xbe2ac1d4	-0.16675502
211	0x3da8bb20	0.08238816
212	0xbdbf4dc1	-0.09341002
213	0xbdf8774d	-0.1213213
214	0x3c85260e	0.016253497
215	0x3dd98da3	0.10622718
216	0x3d4e4341	0.050357107
217	0xbdd6e1cb	-0.10492285
218	0xbc67dce8	-0.014151789
219	0xbdae8bf8	-0.08522791
220	0xbedcb5c1	-0.43107417
221	0x3ccded39	0.02513753
222	0xbb43ec14	-0.0029895352
223	0x3c73fbbf	0.014891564
224	0xbd2622e9	-0.040560637
225	0xbe0a6a20	-0.13517046
226	0x3e926435	0.28592077
227	0x3cf3f950	0.029781967
228	0xbbb54903	-0.0055323853
229	0x3e4edce1	0.20201446
230	0x3d9d346f	0.076760165
231	0x3d92ed09	0.07174117
232	0xbe0111ed	-0.12604494
233	0x3cb046bd	0.021518106
234	0xbd68b536	-0.05681344
235	0xbcfe7338	-0.0310608
236	0x3e22b7af	0.15890382
237	0xbea8a2c6	-0.32936686
238	0x3dd8acd5	0.1057984
239	0xbcf40c66	-0.029791068
240	0xbd9c210b	-0.0762349
241	0xbc56241e	-0.013070134
242	0xbd28397b	-0.041070443
243	0xbe4d2fa7	-0.20037709
244	0x3e0142aa	0.12623087
245	0xbd349c80	-0.044094563
246	0x3b6216fe	0.0034498568
247	0x3ce9d280	0.028542757
248	0xbd476ec4	-0.04868962
249	0xbe71efab	-0.23626582
250	0x3de9ba6d	0.11412511
251	0x3e219eb7	0.15783201
252	0xbe001a82	-0.12510112
253	0x3dd978b4	0.106187254
254	0x3e34e873	0.17666797
255	0xbd9fcb04	-0.07802394

lstm1.weight_hh_l0 f4 [256, 64]
0	0x3d685b07	0.056727435
1	0x3df40c5d	0.119164206
2	0x3e51e27b	0.20496552
3	0xbe4767f3	-0.19473247
4	0x3e14bb0c	0.14524478
5	0x3dd2dcf0	0.10296047
6	0x3e67b69d	0.22628255
7	0xbe0f6bdf	-0.14005993
8	0x3e3dd2a9	0.18537392
9	0xbe6d316c	-0.23163384
10	0xbde86bb6	-0.11348669
11	0xbe628f2e	-0.22124931
12	0x3e5a1807	0.21298228
13	0x3d874c87	0.06606393
14	0x3d24006e	0.040039472
15	0xbd2d2539	-0.042271826
16	0x3e89934f	0.268702
17	0x3dee626a	0.11639865
18	0x3e963de7	0.29344103
19	0xbdaa02bd	-0.083013035
20	0xbde7206e	-0.11285482
21	0x3ef68cfe	0.48154444
22	0xbe5cbe7b	-0.21557038
23	0x3dfc767f	0.12327289
24	0xbe714487	-0.23561297
25	0xbe21dd97	-0.15807186
26	0x3e341a92	0.17588261
27	0x3db5bc21	0.08873773
28	0xbdc09ac0	-0.09404516
29	0x3da8be5f	0.082394354
30	0xbeb0da58	-0.34541583
31	0xbd0df0f9	-0.034653638
32	0x3d22810c	0.03967385
33	0xbe0216eb	-0.12704055
34	0x3dfca855	0.12336794
35	0x3bb302fa	0.0054630013
36	0x3e08a117	0.13342701
37	0x3e838c6b	0.25693068
38	0xbd81908c	-0.06326398
39	0x3ea7ff82	0.32812124
40	0x3d280672	0.04102177
41	0xbd950dfb	-0.07278057
42	0x3d85c08e	0.065308675
43	0xbe98bc4a	-0.29831153
44	0x3e2ecdd3	0.17070703
45	0x3ea3378a	0.3187831
46	0xbcceeee6	-0.0252604
47	0x3cb7117c	0.022347204
48	0xbe81dae0	-0.253623
49	0xbd97493f	-0.073870175
50	0xbe82eb89	-0.25570324
51	0xbe39b3c9	-0.18134989
52	0xbdc2a29a	-0.0950367
53	0x3d628368	0.0553011
54	0x3be2db98	0.0069231503
55	0xbd6277fc	-0.055290207
56	0x3e950cc7	0.2911131
57	0x3f01399f	0.5047855
58	0xbd82909b	-0.063752376
59	0x3e4b89f5	0.19876845
60	0x3ddf9a03	0.10918047
61	0x3da5c6ae	0.08094536
62	0xbdaf4955	-0.08558909
63	0x3eb03f44	0.34423268
64	0xbd1aaad3	-0.037760567
65	0x3e5d64b2	0.21620443
66	0x3d53db79	0.051722977
67	0xbdcd7077	-0.100312166
68	0x3e17955f	0.14803074
69	0x3ed21def	0.41038463
70	0x3e21e6f5	0.1581076
71	0x3ebf1497	0.37320396
72	0xbe807b0f	-0.25093886
73	0xbb132847	-0.0022454427
74	0x3e06cf0a	0.13164917
75	0x3e93b425	0.28848377
76	0x3eff9be2	0.49923617
77	0xbe5bf7e1	-0.21481277
78	0x3e381eb1	0.17980458
79	0x3d8975cf	0.06711923
80	0x3eb7e665	0.35917965
81	0x3e819426	0.2530834
82	0x3e9df391	0.3084989
83	0xbd38a6b0	-0.04508084
84	0x3d708a15	0.058725435
85	0xbe3268c5	-0.17422779
86	0x3e09e67f	0.13466834
87	0xbe0ff599	-0.14058532
88	0xbeb2701a	-0.34851152
89	0xbdb5dadd	-0.088796355
90	0xbea2f8d7	-0.31830475
91	0xbe736e4e	-0.23772547
92	0xbdd90838	-0.10597271
93	0xbe2002d3	-0.15626077
94	0x3e04b614	0.12960082
95	0xbdec1842	-0.11528064
96	0xbd69f60e	-0.05711942
97	0x3e83b557	0.2572429
98	0x3d85967f	0.065228455
99	0x3e543d8b	0.20726602
100	0xb8ea3ba4	-0.000111690984
101	0x3c37e8eb	0.011224966
102	0x3e989fd2	0.29809433
103	0xb7bc553d	-2.2451039e-05
104	0x3ceca4b4	0.02888713
105	0x3daa1fd0	0.08306849
106	0xbd9cebed	-0.07662187
107	0x3d956f00	0.07296562
108	0x3e2b6c65	0.16740568
109	0xbd2390c2	-0.039932974
110	0x3ee73909	0.45160702
111	0x3db8b9b9	0.09019799
112	0x3f139bd4	0.5765965
113	0xbd33f03c	-0.043930277
114	0x3c1829b3	0.009287286
115	0x3c651545	0.013982122
116	0xbe9e0466	-0.3086273
117	0x3cc368f8	0.023853764
118	0x3e51a71b	0.20473902
119	0x3e1caa84	0.15299422
120	0xbcbe76d0	-0.023250014
121	0xbd305349	-0.043048177
122	0x3dda958b	0.10673054
123	0xbc1cd13d	-0.009571371
124	0xbdefe786	-0.117140815
125	0xbe8c07c2	-0.2734967
126	0xbcf12aac	-0.029439293
127	0x3e08eb74	0.13371068
128	0x3e85621f	0.26051423
129	0xbdb751ab	-0.08951124
130	0x3e136c78	0.14396846
131	0xbe8701fe	-0.26368707
132	0x3daad19a	0.083407596
133	0xbd81e860	-0.0634315
134	0xbd483652	-0.04887993
135	0xbca60078	-0.020263895
136	0xbd73b1e1	-0.05949581
137	0xbe5377f0	-0.20651221
138	0x3e750dce	0.23931047
139	0x3db0eb0e	0.08638583
140	0x3ce4aa7c	0.027913325
141	0x3cdab1d0	0.026696116
142	0xbd33f504	-0.043934837
143	0x3c3d399e	0.011549382
144	0x3d503881	0.050835136
145	0x3d8b2a90	0.067952275
146	0x3bc87f66	0.0061187027
147	0x3e374119	0.17895927
148	0xbd6492fb	-0.055804234
149	0x3e616a28	0.22013152
150	0xbd89fabc	-0.06737277
151	0xbe806c8b	-0.25082812
152	0x3d0a6139	0.033784125
153	0xbe8521cd	-0.2600235
154	0x3dd54f06	0.10415463
155	0x3c9e60d4	0.01933328
156	0x3caad54a	0.020853657
157	0xbd235ae3	-0.0398816
158	0xbe33c5b9	-0.17555894
159	0x3dbaa24c	0.09112987
160	0xbde6e61f	-0.11274361
161	0x3e10f60d	0.14156361
162	0xbd63bf64	-0.055602446
163	0xbe948b23	-0.29012403
164	0xbe56eccd	-0.2098877
165	0x3dde36bc	0.108502835
166	0x3e8f89fc	0.2803496
167	0xbd23de8b	-0.040007155
168	0x3e377e93	0.17919378
169	0xbd6f75bc	-0.05846189
170	0x3e2e5f2e	0.17028496
171	0x3c61c48a	0.013779769
172	0xbd760bd4	-0.060069874
173	0xbe16c25b	-0.14722578
174	0xbe8f31d2	-0.27967697
175	0xbb72e144	-0.0037060538
176	0x3cae199d	0.021252448
177	0x3e4f2b9e	0.20231482
178	0xbebdb4ac	-0.37051904
179	0xbdae4d53	-0.08510842
180	0x3c466a73	0.01211034
181	0xbd15f2ef	-0.036608633
182	0x3da2fa51	0.079579
183	0xbdad5151	-0.084627755
184	0x3d9a3447	0.07529502
185	0xbdf00113	-0.11718955
186	0x3debf8ef	0.1152209
187	0xbe2c9dc9	-0.16857065
188	0x3e83c0c9	0.2573302
189	0x3cbc6d9b	0.023001483
190	0x3e73a7d6	0.23794493
191	0x3cda5bd6	0.026655119
192	0xbe6cab83	-0.23112302
193	0xbdda7915	-0.10667626
194	0xbdb77b01	-0.08959008
195	0xbf116d9e	-0.5680789
196	0x3e996fa9	0.29968002
197	0xbdb91b96	-0.09038465
198	0xbeb9afca	-0.3626693
199	0xbdae1746	-0.08500533
200	0xbee20074	-0.4414097
201	0x3e8b63d2	0.27224594
202	0x3ea018c2	0.3126889
203	0xbe29bb86	-0.16575441
204	0xbd26b952	-0.04070408
205	0x3ebae45d	0.36502352
206	0x3e2c9087	0.16852008
207	0x3dd620fd	0.10455511
208	0xbe18d20a	-0.14923874
209	0xbd2e7d6f	-0.04260009
210	0xbea684db	-0.32523236
211	0x3d09af93	0.033614706
212	0xbed30331	-0.41213372
213	0x3ed0e609	0.40800503
214	0xbe800b0f	-0.25008437
215	0xbe5ccedc	-0.21563286
216	0xbdf06f42	-0.11739971
217	0xbe008da9	-0.12554039
218	0x3c4ae2cc	0.012383174
219	0xbed4563e	-0.41472048
220	0x3e8e0c4b	0.27743754
221	0x3d9a9031	0.075470336
222	0x3e9e14dc	0.3087529
223	0x3d9cf9b1	0.07664812
224	0x3ddd0d1c	0.10793516
225	0x3efae21a	0.49000627
226	0x3eb78a9f	0.35847947
227	0x3c777f64	0.015106056
228	0xbe90415b	-0.28174862
229	0x3f08f0a2	0.53492177
230	0x3d344be1	0.044017676
231	0xbd63b4a3	-0.05559219
232	0x3ebeff39	0.37304094
233	0x3e0e949c	0.13923877
234	0xbe5eaadd	-0.21744867
235	0x3e24fa2a	0.16111055
236	0xbe5c4e69	-0.21514286
237	0xbecfd6a0	-0.40593433
238	0xbd293077	-0.041305985
239	0xbec50010	-0.3847661
240	0xbd984657	-0.07435291
241	0x3d254712	0.04035098
242	0xbe3df49d	-0.18550344
243	0xbe31641b	-0.17323343
244	0x3e71164f	0.23543666
245	0x3e127c10	0.14305139
246	0x3eb06757	0.34453842
247	0xbe4c3226	-0.19941005
248	0x3c5616d1	0.013066963
249	0xba6c8a97	-0.0009023337
250	0x3e9b69ad	0.30354062
251	0xbb1684f5	-0.0022967432
252	0x3e390a59	0.18070354
253	0x3c83ec33	0.01610384
254	0xbded60d5	-0.11590735
255	0x3eb75ff5	0.35815397

lstm1.bias_ih_l0 f4 [256]
0	0xbdf4c1d0	-0.11951029
1	0xbbb23942	-0.0054389546
2	0x3cb118bb	0.021618238
3	0x3d974dbb	0.07387873
4	0x3cdaca87	0.0267079
5	0xbe2c233c	-0.16810316
6	0xbd182b69	-0.037150774
7	0xbe021deb	-0.12706725
8	0xbdab156a	-0.08353694
9	0x3dd9bae9	0.106313534
10	0xbd4647c4	-0.048408285
11	0xbe4cde97	-0.20006786
12	0x3d409ec7	0.047026422
13	0x3d9a9500	0.07547951
14	0x3e0f56af	0.13997911
15	0x3da948d1	0.08265842
16	0xbce856d0	-0.028361708
17	0xbd5ffa44	-0.05468203
18	0xbe38fd36	-0.18065342
19	0x3b869fb5	0.004108394
20	0x3e35bc6b	0.17747657
21	0xbcaa8bd3	-0.020818627
22	0xbcf22857	-0.029560251
23	0xbdc0b688	-0.09409815
24	0x3d91acf3	0.071130656
25	0xbd3d05c2	-0.04614807
26	0x3dd7c043	0.10534718
27	0x3d320f5d	0.043471683
28	0x3d267324	0.04063715
29	0xbdb2a542	-0.08722927
30	0x3e045977	0.12924753
31	0xbe5f6320	-0.21815157
32	0x3dd00f42	0.1015916
33	0x3c09d108	0.008411653
34	0xbdefa59e	-0.11701511
35	0x3e5832ec	0.21113175
36	0x3c3e47d6	0.011613807
37	0xbd6d857c	-0.05798863
38	0xbe057885	-0.13034256
39	0xbd4e9cf2	-0.050442643
40	0x3c38e5ac	0.011285227
41	0xbd55f07f	-0.052231308
42	0x3c4ac621	0.012376339
43	0x3db53579	0.0884809
44	0x3dde506f	0.10855185
45	0x3d3dd125	0.046342034
46	0x3e7a0945	0.24417599
47	0xbdfbe9b5	-0.123004355
48	0x3d45e6a1	0.048315648
49	0xbe3720b4	-0.17883569
50	0x3dc98c8f	0.098412625
51	0xbd1d152b	-0.038350265
52	0x3c858cc7	0.01630248
53	0x3d65957a	0.056050755
54	0xbdb9664e	-0.09052716
55	0x3d803822	0.062607065
56	0xbdcdbdda	-0.10045977
57	0x3e2d768e	0.16939756
58	0x3cd14152	0.025543842
59	0x3ce26de2	0.027640287
60	0xbc33def3	-0.010978448
61	0x3d314201	0.043275837
62	0xbd86f979	-0.06590552
63	0xbda689e5	-0.0813177
64	0x3e37d17f	0.1795101
65	0x3d9e9f15	0.07745186
66	0x3e1ee595	0.15517266
67	0x3e5499c7	0.20761786
68	0xbd8399b7	-0.06425803
69	0x3d2a7a2a	0.04162041
70	0x3cad753d	0.021174068
71	0xbcc2045e	-0.023683723
72	0x3dda6c48	0.10665184
73	0x3d46662d	0.048437286
74	0xbd81d363	-0.06339147
75	0x3cbcbc57	0.023039026
76	0x3e08e16c	0.13367242
77	0x3d8c2730	0.06843412
78	0xbc9f3238	-0.019433126
79	0x3da319ce	0.07963906
80	0x3d04cf77	0.032424416
81	0xbdfb9ca9	-0.1228574
82	0xbdd6760c	-0.104717344
83	0xbdf135c0	-0.1177783
84	0xbc919997	-0.017773433
85	0xbda87351	-0.0822512
86	0xbc8dc478	-0.017305598
87	0xbe104168	-0.1408745
88	0xbc5c8691	-0.0134598175
89	0x3e291d86	0.16515169
90	0x3d845382	0.0646124
91	0x3e5601f2	0.2089918
92	0x3d4dd877	0.050255265
93	0xbd45966e	-0.048239164
94	0x3be87746	0.0070942966
95	0xbc3e5400	-0.011616707
96	0x3e1c4d39	0.15263833
97	0x3e2b8862	0.16751245
98	0x3ddd59cd	0.10808144
99	0xbdbac0a7	-0.09118777
100	0xbdbbda72	-0.091725245
101	0x3dbf541d	0.09342215
102	0xbd4a8abc	-0.049448714
103	0xbd9568e7	-0.07295399
104	0x3df40cb8	0.119164884
105	0x3dc3cf0e	0.09560977
106	0xbe229bbf	-0.15879725
107	0x3c3a5a0d	0.011374009
108	0x3cb71239	0.022347556
109	0xbd51688c	-0.051125094
110	0x3ddb1771	0.106978305
111	0x3ca028ea	0.01955076
112	0x3e87d580	0.26530075
113	0x3ddbd231	0.1073345
114	0xbd11ce12	-0.035596915
115	0x3df01850	0.11723387
116	0xbdfac508	-0.12244612
117	0xbde90a1e	-0.11378883
118	0x3cc53c33	0.024076557
119	0xbdc250e5	-0.09488086
120	0x3c9db655	0.019251982
121	0x3e150a06	0.14554605
122	0x3c03977d	0.008031723
123	0x3dd85c46	0.10564475
124	0x3cc37ac6	0.023862254
125	0x3e5a1101	0.21295549
126	0x3dab3254	0.08359209
127	0x3d8f010e	0.06982623
128	0xbdd2126c	-0.1025742
129	0xbdc6c314	-0.09705177
130	0x3cb2483d	0.021762962
131	0xbe17f9c3	-0.1484137
132	0x3d170dca	0.036878385
133	0xbdc072d5	-0.093969025
134	0xbe2814a6	-0.16414127
135	0x3baa2c09	0.0051932377
136	0x3d8c1881	0.06840611
137	0xbd9af7a5	-0.07566766
138	0xbd5e385f	-0.05425298
139	0xbb943a1f	-0.00452353
140	0x3e03d64d	0.12874718
141	0xbdc40645	-0.09571508
142	0xbe1a3bd3	-0.15061884
143	0x3c6df35d	0.014523354
144	0x3dc791ea	0.09744628
145	0x3e0b6ca3	0.1361566
146	0x3d57cff4	0.052688554
147	0xbe7087b1	-0.23489262
148	0x3d9b5899	0.07585258
149	0x3e11d51e	0.14241454
150	0xbd4baed5	-0.04972728
151	0x3e0231cc	0.12714309
152	0xbd9ce884	-0.07661536
153	0xbd923bf4	-0.071403414
154	0x3ccdb1eb	0.025109252
155	0x3e01da8c	0.12681025
156	0x3d9515b6	0.07279532
157	0x3cae764e	0.021296646
158	0x3db21939	0.08696217
159	0x3d802b08	0.062582076
160	0xbcad5aa5	-0.021161387
161	0x3b0545f4	0.0020335885
162	0x3d004361	0.031314258
163	0x3e8d54d1	0.27603772
164	0x3e0bf617	0.13668095
165	0xbe5631b9	-0.20917405
166	0x3dce3cab	0.10070165
167	0xbca81877	-0.020519478
168	0x3da8a661	0.08234859
169	0xbda281ec	-0.07934937
170	0x3c0e20ad	0.008674783
171	0x3bd76286	0.006573024
172	0x3c959dd4	0.018263735
173	0x3de1aca3	0.11019256
174	0xbd54abe4	-0.05192174
175	0xbd1941d5	-0.037416298
176	0xbcfbd8a4	-0.03074295
177	0xbe0dd00f	-0.138489
178	0x3cd9a60c	0.026568435
179	0xbd971a36	-0.07378046
180	0xbdc4edd8	-0.096156776
181	0x3e0fadf1	0.14031197
182	0x3e0962fc	0.13416666
183	0xbd063ca2	-0.032772668
184	0x3d8d788a	0.069077566
185	0xbe145698	-0.14486158
186	0x3e093527	0.13399182
187	0x3e5a750d	0.21333714
188	0xbdb9dc88	-0.09075266
189	0xbbbb6412	-0.0057187164
190	0xbb941f31	-0.00452032
191	0xbdd60415	-0.10449997
192	0x3e03593a	0.12827006
193	0xbdd3bb29	-0.10338432
194	0xbd3c5050	-0.04597503
195	0x3eb55e6c	0.354236
196	0xbd494787	-0.04914048
197	0x3d22a3b4	0.0397069
198	0x3dd27ccb	0.102777086
199	0x3ceb057c	0.028689139
200	0x3e2fbd0d	0.17161961
201	0xbe07df8a	-0.13268867
202	0xbd7b39d6	-0.061334454
203	0xbc3e7b56	-0.011626085
204	0x3dec4bda	0.11537905
205	0xbd044c7a	-0.032299496
206	0x3d5cdc1f	0.05392086
207	0x3dd851cf	0.10562479
208	0xbc3cc98a	-0.01152266
209	0x3d21eecd	0.03953438
210	0xbe3d334b	-0.18476598
211	0xbc6a3253	-0.014294225
212	0x3d11279c	0.035438165
213	0xbd979fd6	-0.07403533
214	0x3cd55d5d	0.026045496
215	0x3c6bb086	0.014385348
216	0xbdb4270c	-0.0879651
217	0x3e1f22a7	0.15540563
218	0xbd3cf9b8	-0.046136588
219	0xbe107a89	-0.14109243
220	0x3e0ea1d1	0.13928916
221	0x3e43c21c	0.19117016
222	0x3e3bae0f	0.18328117
223	0xbde1fc65	-0.110344686
224	0x3d7d209a	0.06179867
225	0x3e20900c	0.1567995
226	0xbd7c790a	-0.06163887
227	0xbcccab5e	-0.024984058
228	0x3e17302b	0.14764468
229	0x3e0840fd	0.13306041
230	0x3e1bb1e4	0.15204579
231	0x3d8fbe22	0.07018687
232	0x3dc72569	0.09723932
233	0x3e6c19a8	0.23056662
234	0x3d92b7b1	0.071639426
235	0x3e695f62	0.22790292
236	0x3c21cfc8	0.009876199
237	0xbd50312b	-0.05082814
238	0x3b53e424	0.0032332027
239	0xbe0f5fb0	-0.14001346
240	0x3dcee934	0.10103074
241	0x3dd3efe6	0.10348491
242	0xbd323678	-0.043508977
243	0xbca3f1df	-0.020012794
244	0xbcf2b02b	-0.029625019
245	0x3e130a32	0.14359358
246	0x3d1d0116	0.038331114
247	0x3df7ce18	0.12099856
248	0xbd6602e5	-0.056155104
249	0xbd4f9fa1	-0.050689343
250	0xbdc34ecb	-0.09536513
251	0x3d1b6ffb	0.03794859
252	0xbd8b9dde	-0.0681722
253	0x3ea60bfa	0.32431012
254	0x3de35174	0.1109952
255	0x3e0e375d	0.13888307

lstm1.bias_hh_l0 f4 [256]
0	0xbdde6183	-0.10858443
1	0xbe1b08b4	-0.15140039
2	0xbd2ab1b6	-0.041673385
3	0xbb2dfea1	-0.0026549476
4	0xbd3e6adf	-0.04648864
5	0xbd115238	-0.0354788
6	0x3d9f9c37	0.077934675
7	0xbc4ffc67	-0.012694455
8	0x3dbdb57f	0.09263133
9	0x3dad23dd	0.08454106
10	0xbd94d3ee	-0.07266985
11	0xbe0565fb	-0.13027184
12	0xbdced07c	-0.10098359
13	0x3d22d381	0.039752487
14	0x3e09bcc2	0.13450912
15	0x3d78115a	0.060563423
16	0xbd63c6a7	-0.05560937
17	0x3cc76b65	0.024343202
18	0xbe47098d	-0.19437237
19	0xbe30a94f	-0.17252086
20	0xbd3d49b5	-0.04621287
21	0xbde002ea	-0.10938056
22	0xbc6f8838	-0.014619879
23	0xbd974115	-0.0738546
24	0x3d0e6019	0.034759615
25	0xbd7327c6	-0.059364103
26	0x3d1b226e	0.03787463
27	0xbd7fbb07	-0.062434223
28	0xbd6f63ca	-0.058444776
29	0xbd5e927f	-0.05433893
30	0xbd81aac0	-0.06331396
31	0xbdceeac6	-0.10103373
32	0x3da71490	0.08158219
33	0x3d6029d6	0.054727398
34	0xbe1622f2	-0.14661768
35	0x3e46c6c6	0.19411764
36	0x3e07ed9a	0.13274232
37	0xbdd92b21	-0.10603929
38	0xbd9920af	-0.07476937
39	0x3e2313bb	0.15925495
40	0xbcdf079e	-0.027225312
41	0xbe0bd1a5	-0.13654192
42	0x3e1b36de	0.15157649
43	0xbc382389	-0.011238941
44	0x3db787c2	0.089614406
45	0x3df804a2	0.12110259
46	0x3e3ce467	0.18446504
47	0xbd3750b8	-0.044754714
48	0xbbe0b628	-0.006857652
49	0xbe69fb83	-0.2284985
50	0x3d79779a	0.060905077
51	0x3daf67f5	0.0856475
52	0xbcc57a8a	-0.024106283
53	0x3b901872	0.0043974454
54	0xbd7dc1dc	-0.061952457
55	0x3dac43d8	0.08411378
56	0xbdcfafc6	-0.10140948
57	0x3cdb0b73	0.026738858
58	0x3e0c2c37	0.13688742
59	0x3e04db4b	0.12974279
60	0x3db7c636	0.089733526
61	0xbc38132f	-0.0112350425
62	0xbd76508e	-0.060135417
63	0xbe01a58b	-0.12660806
64	0x3dd9d662	0.106365934
65	0x3c252f68	0.010082103
66	0x3df93ac2	0.1216941
67	0x3e57ef7b	0.21087448
68	0xbdf37852	-0.11888184
69	0x3da63d9a	0.08117218
70	0x3c995108	0.018715397
71	0xbda4fb1a	-0.08055706
72	0xbd62923c	-0.05531524
73	0xbd21d0af	-0.039505657
74	0xbd9ec4b6	-0.077523634
75	0x3c9b948e	0.018991735
76	0xbc02a642	-0.007974209
77	0x3b059659	0.0020383804
78	0xbd871539	-0.06595845
79	0x3d7825eb	0.060583036
80	0xbe4dde29	-0.20104279
81	0xbbf5a66e	-0.0074966466
82	0xbd859a77	-0.065236025
83	0xbd28e129	-0.041230354
84	0x3d20e56b	0.03928129
85	0xbda2c32d	-0.07947383
86	0x3e3dddfd	0.18541713
87	0x3cef9531	0.029245945
88	0x3d2aeed4	0.04173167
89	0x3e61caa4	0.22049958
90	0x3d62cd3a	0.0553715
91	0x3de08548	0.109629214
92	0xbdadab90	-0.084799886
93	0x3df9830a	0.12183197
94	0x3db345ae	0.08753525
95	0xbdf2822d	-0.11841235
96	0x3e2e52db	0.17023794
97	0x3d94b55d	0.07261155
98	0x3e3b03f9	0.18263234
99	0xbdc3ae4c	-0.09554729
100	0xbd73539c	-0.059405908
101	0x3d96b0a9	0.07357914
102	0x3b1f2cba	0.0024288134
103	0xbd37b90a	-0.0448542
104	0x3b597544	0.0033181468
105	0x3ba79171	0.0051137735
106	0xbcacc44d	-0.021089697
107	0x3dbf5a2c	0.09343371
108	0xbbdd432f	-0.0067523937
109	0x3ca927c7	0.02064885
110	0xbd366d20	-0.044537663
111	0xbda3d9c2	-0.080005184
112	0x3e800021	0.25000098
113	0x3c316183	0.010826471
114	0x3d871f89	0.06597812
115	0x3d8f1d04	0.06987956
116	0x3d16403a	0.036682345
117	0x3ccb1992	0.024792466
118	0x3e3bdfbb	0.18347065
119	0x3da1efad	0.07907043
120	0x3dbfc9a0	0.09364629
121	0x3e17c3bd	0.14820762
122	0x3e5af86d	0.2138383
123	0x3e430c30	0.19047618
124	0xbdf90e66	-0.121609494
125	0x3e3ef580	0.18648338
126	0xbde1fde4	-0.11034754
127	0x3e1a0275	0.1504
128	0xbd8bd2d4	-0.06827322
129	0x3ca85498	0.02054815
130	0xbe003bbd	-0.12522788
131	0xbe1f958f	-0.15584396
132	0x3dbfcc08	0.09365088
133	0xbe004626	-0.1252676
134	0xbe297b6b	-0.16550986
135	0x3d3920bd	0.045197237
136	0x3ded2367	0.11579018
137	0x3e008df2	0.12554148
138	0x3d5c4b00	0.053782463
139	0xbdd8cad9	-0.10585565
140	0x3d245d97	0.040128317
141	0xbd0be9e2	-0.034158595
142	0xbd91268d	-0.07087431
143	0x3c1b815a	0.009491289
144	0x3e02088a	0.1269857
145	0x3d6765c3	0.056493532
146	0x3e01b562	0.12666848
147	0xbe7b89ff	-0.2456436
148	0x3ba6417a	0.0050737234
149	0x3e0dff8e	0.13867018
150	0x3dab1207	0.08353048
151	0xbdb9b119	-0.09066982
152	0x3d8a67ed	0.067581035
153	0xbcc63a7a	-0.024197806
154	0xbd5f5a57	-0.054529514
155	0xba94eb2c	-0.0011361591
156	0x3d927e80	0.07153034
157	0xbbda89ae	-0.0066692447
158	0xbe00f8cb	-0.12594907
159	0xbd1edf6b	-0.038787287
160	0x3d81e7c0	0.06343031
161	0xbdfc740f	-0.12326824
162	0x3cfbaf38	0.0307232
163	0x3e252356	0.16126761
164	0x3e009125	0.12555368
165	0xbdb9eac5	-0.09077982
166	0xbd881342	-0.06644298
167	0xbd62b623	-0.05534948
168	0x3da7f0cc	0.08200225
169	0xbdbdbfd0	-0.09265101
170	0x3d81c619	0.06336612
171	0x3d2f02cd	0.04272728
172	0x3de0d84b	0.109787546
173	0xbdb136f4	-0.086530596
174	0xbe5f4b41	-0.21806051
175	0xbdbcb597	-0.09214323
176	0xbd885d43	-0.06658413
177	0xbc3d7d45	-0.011565511
178	0xbdde82ea	-0.108648136
179	0x3b81cbe4	0.0039610732
180	0xbd2b1f41	-0.041777853
181	0xbc3dea6f	-0.011591538
182	0x3d2daa2c	0.042398617
183	0x3d91ba6a	0.07115634
184	0xbd616b2c	-0.055033848
185	0xbe2ae1c7	-0.1668769
186	0x3dfd1852	0.12358154
187	0x3d7ff9d2	0.062494107
188	0xbe5ab28e	-0.21357176
189	0x3e10dce4	0.14146763
190	0xbe0c72f7	-0.1371573
191	0x3d9a485d	0.075333335
192	0xbd3de5a0	-0.046361566
193	0x3dce3b91	0.10069955
194	0x3c47303f	0.012157499
195	0x3e49bc6c	0.19700783
196	0x3d1bae1a	0.038007833
197	0x3d398919	0.045296762
198	0x3d823beb	0.06359085
199	0xbd713797	-0.058890905
200	0xbd7c925d	-0.06166302
201	0xbe4ea91c	-0.20181698
202	0xbd9fbdd1	-0.077998765
203	0x3d2c14aa	0.042011894
204	0xbd10b51f	-0.03532898
205	0xbd13a124	-0.036042348
206	0x3d6f14a5	0.058369298
207	0x3d2ba978	0.041909665
208	0x3e60c32e	0.21949455
209	0x3d931f5d	0.071837164
210	0xbdf63079	-0.12020964
211	0xbdb87e7d	-0.09008501
212	0x3de1d4a3	0.11026885
213	0x3a4294bb	0.0007422675
214	0xbe2f6e03	-0.1713181
215	0x3da929cb	0.082599245
216	0x38ebf048	0.00011250429
217	0xbd2050d1	-0.039139573
218	0xbd6a8af9	-0.05726144
219	0xbcf17bc2	-0.029477958
220	0x3deb1949	0.11479432
221	0x3e56cfef	0.20977758
222	0x3e3f9cde	0.18712184
223	0xbdcacf71	-0.099028476
224	0x3d917d45	0.071039714
225	0x3dfeaf1f	0.124357454
226	0x3d85491e	0.065080866
227	0x3de730a3	0.112885736
228	0xbd086581	-0.033299927
229	0x3db608d7	0.08888405
230	0x3d89b15a	0.0672328
231	0xbc02e345	-0.007988756
232	0x3cbfaf20	0.023398936
233	0x3e22f963	0.15915446
234	0x3e67b3ca	0.22627178
235	0x3dff3fb4	0.12463322
236	0xbd88ec0f	-0.066856496
237	0xbcaa566b	-0.02079316
238	0x3d6827b8	0.056678504
239	0xbcfe3187	-0.031029476
240	0xbded1bb4	-0.115775496
241	0xbdafb56f	-0.085795276
242	0xbcd5fd5f	-0.026121793
243	0x3e246c1d	0.16056867
244	0x3b8ffa0f	0.004393823
245	0x3de1c9b6	0.110248014
246	0xbdfb8081	-0.122803695
247	0x3dc93bd4	0.098258644
248	0xbaa7d778	-0.0012805304
249	0xbd4f40f7	-0.050599065
250	0xbe231cbe	-0.15928933
251	0x3d279ab6	0.04091903
252	0x3db62076	0.0889291
253	0x3e105650	0.14095426
254	0x3dfeec34	0.12447396
255	0x3c294f98	0.010333918

lstm2.weight_ih_l0 f4 [128, 64]
0	0xbdc83dc2	-0.09777404
1	0x3daee9cc	0.08540687
2	0x3e830187	0.25587103
3	0x3d96896e	0.073504314
4	0xbdf441a7	-0.11926585
5	0xbc40ad22	-0.011760028
6	0x3d102a6b	0.035196703
7	0xbddc0bab	-0.10744413
8	0x3e599f36	0.2125214
9	0xbe7fa26a	-0.249643
10	0xbe9dc1e3	-0.30811986
11	0x3e847494	0.25870192
12	0x3d68f175	0.056870896
13	0x3cb5e263	0.022202676
14	0xbe5f4d42	-0.21806815
15	0x3e04e337	0.129773
16	0x3e1984b6	0.14992031
17	0x3d9567b6	0.07295172
18	0x3cd4c93a	0.025974859
19	0x3d777cbd	0.060421694
20	0xbe0c0fa5	-0.13677843
21	0x3e11108f	0.14166473
22	0xbd99c169	-0.07507593
23	0x3e41ac87	0.1891347
24	0xbde1e72a	-0.11030419
25	0x3e5f153c	0.21785444
26	0xbe8500e2	-0.25977236
27	0xbea4d5a7	-0.32194254
28	0xbb971f5c	-0.0046118926
29	0xbd2c8c76	-0.04212614
30	0xbe4c3f78	-0.19946086
31	0xbe232891	-0.15933444
32	0x3e14082c	0.14456242
33	0xbda4b187	-0.08041673
34	0xbe866f02	-0.26256567
35	0x3e969f20	0.29418278
36	0x3e8ea6e9	0.27861717
37	0xbdd19998	-0.10234374
38	0xbe0364cd	-0.12831421
39	0x3e43d755	0.19125111
40	0xbdf29574	-0.11844912
41	0x3cd620f6	0.026138764
42	0xbd2bbe92	-0.04192979
43	0xbd4a973d	-0.04946064
44	0xbc428d29	-0.0118744755
45	0xbe63ba35	-0.22239001
46	0x3deb26e8	0.1148203
47	0xbe172778	-0.1476115
48	0xbe4eee5a	-0.20208111
49	0xbe251abf	-0.16123484
50	0xbd8176d7	-0.06321495
51	0xbc6421a9	-0.013924041
52	0xbd622925	-0.05521502
53	0x3dd02f8e	0.1016532
54	0x3c3218e1	0.010870189
55	0x3d3e439c	0.046451196
56	0x3d95b0ea	0.07309134
57	0x3e045548	0.12923157
58	0x3dced961	0.101000555
59	0xbeb25e2f	-0.3483748
60	0x3e8e4a8b	0.27791247
61	0x3da76232	0.08173026
62	0x3e2b9c96	0.16758952
63	0xbe18cc9f	-0.14921807
64	0x3dc6aecb	0.09701308
65	0x3c45d302	0.012074234
66	0xbe2ad159	-0.16681422
67	0xbe847aa6	-0.25874823
68	0x3da3f14d	0.08005009
69	0x3c3ecc71	0.011645422
70	0x3e1a6774	0.15078527
71	0xbd2e5092	-0.042557307
72	0xbe6f2d68	-0.23357165
73	0xbe80f662	-0.25187975
74	0x3dffb100	0.12484932
75	0x3d015a32	0.031580158
76	0xbd95fd4f	-0.073237054
77	0x3d71217c	0.058869824
78	0x3ccb0303	0.02478171
79	0xbd63b2e7	-0.055590536
80	0xbbfc0760	-0.007691309
81	0x3e38ef0c	0.18059939
82	0x3bc0e336	0.0058864607
83	0x3db5ca5f	0.0887649
84	0x3e5d3926	0.21603832
85	0x3e276760	0.16348028
86	0x3e51d364	0.20490795
87	0x3cffe5f5	0.031237582
88	0xbdd54d67	-0.10415154
89	0x3d300f4c	0.04298334
90	0x3cec2844	0.028827794
91	0x3dc3bb8c	0.09557256
92	0x3df5f388	0.120093405
93	0xbe0e2d53	-0.13884477
94	0xbe069f6e	-0.13146755
95	0x3d9ae7c3	0.07563736
96	0xbdb86bd5	-0.09004942
97	0x3ee3b114	0.44471037
98	0x3e23b2ae	0.1598613
99	0x3de75464	0.11295393
100	0x3e94a37e	0.29030985
101	0x3e2c8643	0.16848092
102	0x3e1c13a8	0.15241873
103	0x3de46a3a	0.111530736
104	0x3dbd3448	0.092384875
105	0x3e7a0802	0.24417117
106	0x3dae075a	0.08497496
107	0x3df0e475	0.11762325
108	0xbd9fb3c6	-0.07797961
109	0xbe57a677	-0.21059595
110	0xbd05e816	-0.032692038
111	0x3e9085ce	0.28227085
112	0xbe1507e9	-0.14553799
113	0xbda3fd42	-0.080072895
114	0x3d212cdc	0.03934942
115	0xbe9c5eba	-0.3054102
116	0x3d818aee	0.06325327
117	0x3e23e346	0.16004667
118	0x3de8c947	0.113665156
119	0x3c18eb65	0.009333466
120	0xbe204838	-0.1565255
121	0xbdbd0791	-0.09229959
122	0x3e021732	0.12704161
123	0x3d0d0078	0.034424275
124	0xbd1abebf	-0.037779566
125	0xbd82ae6a	-0.06380923
126	0x3d00b47f	0.031422134
127	0x3e3b9d45	0.18321712
128	0x3d8a9289	0.067662306
129	0x3dcb98fe	0.0994129
130	0xbe701225	-0.23444422
131	0xbeef4cc7	-0.46738264
132	0x3e1d4720	0.15359163
133	0x3d406b7d	0.04697751
134	0xbd49f922	-0.049309857
135	0x3e61abf6	0.22038254
136	0xbc319efc	-0.0108411275
137	0x3e499d8d	0.19689007
138	0x3df21a19	0.11821384
139	0xbe95bd83	-0.29246148
140	0x3adf9fa1	0.0017061123
141	0xbea1d8ab	-0.31610617
142	0x3e722be5	0.23649557
143	0xbe9143f0	-0.28372145
144	0x3db80514	0.089853436
145	0x39aa6bb7	0.0003250518
146	0x3c919802	0.017772678
147	0xbdc3e5ba	-0.09565301
148	0xbe373476	-0.17891106
149	0xbc9fb713	-0.019496476
150	0x3e3f7a59	0.18699016
151	0xbdb50113	-0.088380955
152	0xbd52a83a	-0.051429965
153	0x3dd123f9	0.10211939
154	0xbe28ca69	-0.16483463
155	0xbe464d86	-0.1936551
156	0xbcbc0306	-0.02295066
157	0xbda56c14	-0.08077255
158	0x3d335300	0.043780327
159	0x3db69be0	0.089164495
160	0x3e5fad02	0.21843341
161	0xbccc607f	-0.024948357
162	0x3e18468e	0.14870664
163	0x3e563c74	0.20921499
164	0x3db682ac	0.089116424
165	0x3dd55ede	0.10418485
166	0x3c8b50fc	0.01700639
167	0xbd63e56e	-0.055638723
168	0x3df10e94	0.11770359
169	0xbe99da5d	-0.3004941
170	0xbe8d57f4	-0.27606165
171	0x3b22e551	0.0024855922
172	0x3dec1442	0.11527301
173	0xbdd0db24	-0.10198048
174	0x3e3cfd3e	0.18455979
175	0x3d57d87d	0.052696694
176	0x3b5c71e9	0.0033637232
177	0x3d6204d3	0.055180382
178	0x3d954c1b	0.072899066
179	0xbd886c40	-0.06661272
180	0x3dc0a04a	0.09405573
181	0xbd811414	-0.06302658
182	0xbc6a2f06	-0.014293438
183	0xbe7962c4	-0.24354082
184	0xbda54953	-0.08070626
185	0x3e1fd920	0.1561017
186	0xbd4ea3a5	-0.050449032
187	0x3dff1904	0.12455943
188	0xbd94c305	-0.072637595
189	0xbd123632	-0.035696216
190	0xbe56bd2f	-0.20970605
191	0x3e4d9b89	0.20078863
192	0x3e144897	0.14480816
193	0xbd8cc046	-0.06872611
194	0x3e0f5aed	0.13999529
195	0x3d62bf27	0.05535808
196	0x3d850a11	0.06496061
197	0x3e6f0b2b	0.23344104
198	0x3d7a472c	0.06110303
199	0x3e3f4ac6	0.18680868
200	0xbe657917	-0.22409473
201	0xbd89b105	-0.06723217
202	0xbdaf9527	-0.085733704
203	0xbe51ac1e	-0.20475814
204	0x3e209b32	0.15684202
205	0xbcbb7edf	-0.022887645
206	0xbeeb7a20	-0.4599161
207	0x3dd90887	0.105973296
208	0x3d16ac49	0.036785398
209	0x3c6449cd	0.013933611
210	0x3d0abc25	0.033870835
211	0x3e1b4775	0.15163977
212	0x3e02005c	0.1269545
213	0xbe2fa37c	-0.17152208
214	0x3e540e90	0.2070868
215	0x3c77ae05	0.015117173
216	0x3e9af2c3	0.30263337
217	0xbd62365d	-0.055227626
218	0x3d569989	0.052392516
219	0xbb5a5680	-0.0033315718
220	0x3e0e3ad8	0.13889635
221	0xbe3de8a7	-0.18545781
222	0xbe7020cd	-0.23450013
223	0xbde7381e	-0.112900004
224	0xbdd5f637	-0.104473524
225	0xbe893c7f	-0.26803967
226	0xb9c94cca	-0.0003839492
227	0xbeb17bd5	-0.3466479
228	0xbebb70cc	-0.36609495
229	0x39767e18	0.00023507362
230	0x3e051010	0.12994409
231	0x3d8d01de	0.06885122
232	0x3d5a010a	0.053223647
233	0xbe386fc0	-0.18011379
234	0x3d77beab	0.06048457
235	0x3e275fe5	0.16345175
236	0xbdce5e54	-0.100765854
237	0x3d3ea17a	0.046540715
238	0x3d5a4b1e	0.053294294
239	0xbcf6d5fa	-0.030131329
240	0xbdd1b9c9	-0.10240514
241	0x3da8c44a	0.08240564
242	0x3e267b48	0.16257966
243	0x3e783afa	0.24241248
244	0x3c51e3db	0.012810673
245	0xbe51a322	-0.20472386
246	0x3e08ffc5	0.13378818
247	0xbec44ca8	-0.38339734
248	0xbe02c9f1	-0.12772347
249	0x3d23180c	0.039817855
250	0x3dc033e9	0.09384901
251	0xbe81ab74	-0.2532612
252	0xbe9e01d1	-0.3086076
253	0x3e1ba030	0.15197825
254	0xbdf47b51	-0.11937583
255	0x3d57d4d1	0.052693192

lstm2.weight_hh_l0 f4 [128, 32]
0	0xbd67b3b7	-0.056567874
1	0x3e069429	0.13142456
2	0xbe94ebb2	-0.2908607
3	0x3e623923	0.22092108
4	0x3e3ed818	0.1863712
5	0x3e64e191	0.22351672
6	0x3dfc6a07	0.123249106
7	0xbe725b28	-0.23667586
8	0xbd5ead72	-0.05436463
9	0xbea6d11c	-0.32581413
10	0x3cd585e8	0.026064828
11	0x3e850b4e	0.25985187
12	0xbd6f8e8a	-0.058485545
13	0xbdb5e6a9	-0.088818856
14	0x3d7fa09e	0.062409036
15	0x3d4de706	0.05026915
16	0xbe6c79ac	-0.23093289
17	0x3d639000	0.05555725
18	0x3ddf3e95	0.109006085
19	0x3eacd2dd	0.33754626
20	0xbdb12e68	-0.086514294
21	0x3dc6db69	0.09709818
22	0xbddc4340	-0.107550144
23	0xbdec20d5	-0.115297
24	0x3e2fcdc0	0.17168331
25	0x3d712fda	0.058883525
26	0xbe1cb686	-0.15304002
27	0x3dd67edd	0.10473416
28	0xbd9f4f8f	-0.077788465
29	0x3e23ab8b	0.15983407
30	0xbdb2edbe	-0.08736752
31	0x3c07b084	0.008281831
32	0x3e06d20a	0.13166061
33	0xbcec64d0	-0.028856665
34	0xbe163f77	-0.14672647
35	0x3e0e4ecc	0.13897246
36	0x3da1f279	0.07907576
37	0xbdc40290	-0.09570801
38	0x3e931a45	0.2873098
39	0x3dc54beb	0.09633621
40	0x3e464652	0.19362763
41	0x3d2c5b87	0.042079475
42	0xbd3d0def	-0.046155866
43	0x3e190e05	0.14946754
44	0x3ca13491	0.019678386
45	0x3e1e4d76	0.15459237
46	0x3e53ec4e	0.20695612
47	0xbe3cca18	-0.18436468
48	0x3e425dc4	0.18981081
49	0xbd0f9934	-0.035058215
50	0x3e546820	0.20742846
51	0x3dbde26f	0.092717044
52	0xbc203d8e	-0.009780301
53	0x3d3346c6	0.043768667
54	0xbdcd6bee	-0.100303516
55	0xbe09ca26	-0.1345602
56	0x3cc49958	0.023998901
57	0xbe97fec1	-0.2968655
58	0xbd3b8499	-0.04578075
59	0x3e82f9eb	0.25581297
60	0x3d8612fd	0.065465905
61	0xbe2b2fa0	-0.16717386
62	0xbd8790c8	-0.06619412
63	0x3e31a8f1	0.17349602
64	0xbd050c76	-0.032482587
65	0x3db654d0	0.089028955
66	0x3d0c4a33	0.03425045
67	0xbd8ad59f	-0.06779026
68	0xbd405872	-0.046959348
69	0x3d82a864	0.06379774
70	0xbd9bc0fe	-0.0760517
71	0xbe443a00	-0.1916275
72	0x3e5f3afd	0.21799846
73	0xbe7bc26d	-0.24585886
74	0xbe9385e4	-0.28813088
75	0xbc6ddaa4	-0.01451746
76	0xbd26184b	-0.04055051
77	0x3e2c8a2b	0.16849582
78	0xbe0aec3e	-0.13566682
79	0x3e8bfd5f	0.27341744
80	0x3d3d7a48	0.046259195
81	0xbddb3add	-0.10704587
82	0x3d1ab2a2	0.037768014
83	0x3dab88e9	0.08375723
84	0xbe9aac4d	-0.3020958
85	0xbc877ee0	-0.01653999
86	0x3d34e39b	0.044162374
87	0xbeb31163	-0.34974203
88	0x3e1cbc61	0.15306236
89	0xbe86ecd4	-0.2635256
90	0x3e9142f9	0.2837141
91	0xbd758b4a	-0.05994729
92	0x3e40d9b2	0.18833044
93	0x3e040885	0.12893875
94	0x3d2f322c	0.042772457
95	0xbe93d860	-0.2887602
96	0x3ccdbe14	0.02511505
97	0x3d7eed4d	0.062238026
98	0x3e867d21	0.2626734
99	0xbe33f601	-0.17574312
100	0x3e83c008	0.25732446
101	0xbd94ca6f	-0.07265174
102	0xbe2edefe	-0.17077252
103	0xbebf2e0f	-0.37339827
104	0x3e428aa3	0.18998198
105	0x3e8a6699	0.270314
106	0xbdd44ea1	-0.1036656
107	0xbdd9dc8b	-0.10637768
108	0xbe628c63	-0.22123866
109	0x3db900bf	0.090333454
110	0xbe16b75b	-0.14718382
111	0x3e383d5c	0.17992157
112	0xbee60423	-0.4492503
113	0x3d81c271	0.06335915
114	0xbecce209	-0.400162
115	0x3dab1277	0.08353131
116	0x3de722db	0.11285945
117	0xbe767adf	-0.24070309
118	0x3e1cbd32	0.15306547
119	0xbf02a70a	-0.5103613
120	0xbeba0769	-0.36333779
121	0xbf1b2156	-0.6059774
122	0x3df40f1f	0.119169466
123	0xbe831b16	-0.25606602
124	0x3d7c9d8a	0.06167368
125	0x3e97ebfc	0.2967223
126	0x3eae6736	0.3406312
127	0x3dd78604	0.10523608
128	0xbd711d28	-0.058865696
129	0xbd898aae	-0.06715904
130	0xbe023c95	-0.12718423
131	0xbe419ee6	-0.18908271
132	0xbd814372	-0.06311692
133	0x3e4355d1	0.19075705
134	0x3eb53b94	0.35397017
135	0xbd80068a	-0.06251247
136	0xbe143387	-0.14472781
137	0x3d2ff176	0.042954884
138	0x3f1dd4b0	0.6165266
139	0x3db255ae	0.08707748
140	0x3dfc58a7	0.123215966
141	0xbec4261b	-0.38310322
142	0xbab13f94	-0.0013522976
143	0xbd8d2bda	-0.0689313
144	0x3e3fc233	0.18726425
145	0x3f04ee1f	0.51925844
146	0xbd013c7e	-0.03155183
147	0x3dc05fa9	0.09393246
148	0xbe8b3171	-0.27186158
149	0x3e81f5f9	0.25382975
150	0x3b3a39b6	0.0028415746
151	0x3d834847	0.0641027
152	0x3e9f182d	0.31073132
153	0x3e6703b5	0.22560008
154	0xbd0088b6	-0.031380378
155	0xbd51b162	-0.051194556
156	0xbeb32734	-0.34990847
157	0xbd935eb3	-0.07195797
158	0x3e7e868e	0.24856016
159	0xba8859b6	-0.0010402713
160	0x3e376c7a	0.17912474
161	0xbed463b7	-0.41482326
162	0x3dfae637	0.12250941
163	0xbe12e7b9	-0.14346208
164	0xbe9af82e	-0.3026747
165	0xbec93c12	-0.39303643
166	0x3eb4ffd1	0.35351422
167	0xbe8a9f54	-0.27074683
168	0xbc8ce595	-0.017199317
169	0x3e734730	0.23757625
170	0x3e37cf80	0.17950249
171	0x3ceabfe5	0.028655956
172	0x3d4bc7c4	0.04975106
173	0xbe3e7378	-0.18598735
174	0x3ec3fe86	0.38280123
175	0x3d7b951c	0.0614215
176	0xbc83d209	-0.016091364
177	0xbe7e31f1	-0.24823739
178	0xbdc63791	-0.09678567
179	0xbda6d8c6	-0.08146815
180	0x3e106652	0.14101532
181	0x3dd9653d	0.10615013
182	0xbeae1825	-0.34002796
183	0x3d1f787c	0.038933262
184	0xbe1b2b26	-0.15153179
185	0xbe1dbaca	-0.15403286
186	0x3e57e78f	0.21084426
187	0x3e77c1bd	0.24194999
188	0xbe241483	-0.1602345
189	0xbe5a03f4	-0.2129057
190	0xbe3cef30	-0.18450618
191	0x3ebf4edb	0.3736485
192	0x3e750937	0.23929296
193	0xbdf89dc7	-0.12139469
194	0xbeacc6de	-0.33745474
195	0x3e47aa27	0.19498502
196	0xbe471336	-0.19440922
197	0x3daa48fd	0.08314703
198	0xbe08fc7e	-0.13377568
199	0xbe76b3d9	-0.24092044
200	0x3dba2e07	0.0909081
201	0x3d9ae6cd	0.07563553
202	0x3d1520c5	0.036408205
203	0x3da4e8c8	0.08052212
204	0x3e8b907e	0.27258676
205	0xbdd14fed	-0.10220323
206	0x3c3ff0b1	0.0117151
207	0xbd922a17	-0.07136934
208	0xbbb35ef7	-0.005473967
209	0x3eaa4b5d	0.33260623
210	0x3dc70e04	0.0971947
211	0x3c71135f	0.014714091
212	0xbe92570d	-0.2858204
213	0x3df939a1	0.12169195
214	0x3daa4d93	0.08315577
215	0x3e911638	0.28337264
216	0x3e012551	0.12611891
217	0xbd81c79c	-0.063369006
218	0x3e8ac8e1	0.27106383
219	0xbe83e12b	-0.25757727
220	0x3e91850a	0.28421813
221	0x3e51bf71	0.20483185
222	0x3d55a52f	0.052159484
223	0xbd66c50d	-0.056340266
224	0x3e6c5d2a	0.23082414
225	0x3e10ff0c	0.14159793
226	0xbd13f1e1	-0.036119346
227	0x3d607673	0.054800462
228	0x3e17cb5a	0.14823666
229	0xbc98debd	-0.018660897
230	0xbe554c82	-0.20829967
231	0xbe17913d	-0.14801498
232	0x3e6671df	0.22504376
233	0x3e03618d	0.12830181
234	0xbe0e46e8	-0.13894236
235	0x3d580348	0.052737504
236	0x3de549ef	0.11195742
237	0x3df468ac	0.11934027
238	0x3e33e0c3	0.17566209
239	0x3e26ea46	0.16300306
240	0xbe3868ff	-0.18008803
241	0x3e45ba03	0.19309239
242	0xbc92d747	-0.017924918
243	0x3bd54e00	0.0065095425
244	0xbdee9806	-0.1165009
245	0xbe719900	-0.23593521
246	0x3d531107	0.05152991
247	0xbda91e3e	-0.08257721
248	0x3d39a30b	0.045321506
249	0x3d1e1ed7	0.03860363
250	0xbdf46cfc	-0.119348496
251	0xbced7fee	-0.028991666
252	0x3e0994aa	0.13435617
253	0xbd0d9d79	-0.034574006
254	0x3d6bd2a7	0.05757394
255	0x3c276db0	0.010219023

lstm2.bias_ih_l0 f4 [128]
0	0xbda11ea4	-0.07867172
1	0xbd13ec25	-0.036113877
2	0xbd56a544	-0.052403703
3	0xbe50cc8f	-0.20390533
4	0xbe22cf55	-0.15899403
5	0x3d96c869	0.07362444
6	0x3be6472a	0.0070275264
7	0x3d98c326	0.074590966
8	0xbd201546	-0.039082788
9	0x3d5abbdb	0.05340181
10	0x3bc8e642	0.0061309645
11	0xbdccbfb6	-0.099975035
12	0xbd0a5f89	-0.033782516
13	0xbe2e4e8d	-0.17022152
14	0xbe17b910	-0.1481669
15	0xbe46b23c	-0.19403929
16	0xbe4102e9	-0.18848766
17	0xbdc9daeb	-0.098562084
18	0x3e0a8929	0.13528885
19	0x3e48b60b	0.19600694
20	0x3e69b00d	0.22821064
21	0xbdb9c810	-0.09071362
22	0x3d4a9bc8	0.04946497
23	0xbe907215	-0.28212038
24	0xbeb19eef	-0.3469157
25	0x3dd25e82	0.10271932
26	0xbe3f2984	-0.1866818
27	0x3e2d7b8f	0.16941665
28	0x3d4e189a	0.05031643
29	0x3dcc8e3c	0.099880666
30	0xbe57df04	-0.21081167
31	0xbe959159	-0.29212454
32	0x3e77e771	0.24209382
33	0x3b3f3d4d	0.0029180825
34	0x3e4fefa2	0.20306256
35	0x3e83e82e	0.25763077
36	0x3e4b1733	0.19833069
37	0x3ef0f1de	0.4705953
38	0x3eab848f	0.33499572
39	0x3ed2a8b5	0.41144338
40	0x3ddc6b8e	0.10762702
41	0x3d16dbe5	0.0368308
42	0x3ea2733d	0.31728545
43	0xbd109e0e	-0.035306983
44	0x3e012f2d	0.12615652
45	0x3e058b0b	0.13041322
46	0x3d11b179	0.03556964
47	0x3eadd969	0.33954933
48	0x3e81847d	0.25296393
49	0x3e0fdcd1	0.14049079
50	0x3ddeb2ad	0.108739235
51	0x3e8e9679	0.27849177
52	0x3e9bc907	0.3042681
53	0x3c481af7	0.01221346
54	0xbdb4c13c	-0.08825919
55	0x3d239379	0.039935563
56	0x3e0a0812	0.13479641
57	0x3ebef87a	0.37298948
58	0x3e3ebaf8	0.1862601
59	0x3e624e0d	0.22100087
60	0x3e5e6f40	0.21722126
61	0x3d2665f5	0.040624578
62	0x3b29aa76	0.0025888956
63	0x3e4552b0	0.19269824
64	0xbda99934	-0.08281174
65	0xbdadd745	-0.08488325
66	0x3de4a049	0.111633845
67	0xbe215b58	-0.15757501
68	0x3ded0b9f	0.11574482
69	0xbdeee6ce	-0.11665116
70	0xbd6f82b3	-0.058474254
71	0x3def8965	0.11696128
72	0x3d9dfdaa	0.07714398
73	0x3db9bb0a	0.09068878
74	0x3d1918e2	0.037377246
75	0xbe686a9e	-0.22696921
76	0x3d1a1eba	0.03762696
77	0x3d8c728c	0.068577856
78	0xbe565599	-0.2093109
79	0x3e171cdd	0.14757104
80	0xbcd2b647	-0.025721682
81	0x3cf0b4f1	0.029383155
82	0xbd47380c	-0.048637435
83	0xbc5ed058	-0.013599478
84	0x3c1c0c09	0.009524354
85	0x3ba39433	0.004992032
86	0x3d9b9804	0.07597354
87	0xbbaea492	-0.005329677
88	0x3d7f93e1	0.062396888
89	0xbdefb997	-0.1170532
90	0xbde8ae6f	-0.113613956
91	0xbda8f058	-0.08248967
92	0x3cc019f4	0.023449875
93	0xbdd780fc	-0.10522649
94	0x3d86bca5	0.0657895
95	0x3da30b06	0.07961087
96	0xbdbb06ae	-0.091321334
97	0x3eb8411e	0.3598718
98	0x3e9fd76b	0.31219038
99	0x3e9d342e	0.30703872
100	0x3dd5d334	0.104406744
101	0x3de7488c	0.11293134
102	0x3ecb9e73	0.39769325
103	0x3e900b6f	0.28133723
104	0x3e37e60c	0.1795885
105	0x3ee30801	0.44342044
106	0x3e8f4bb7	0.27987453
107	0x3de56d64	0.11202505
108	0x3eb0b8c6	0.3451597
109	0x3ec92f59	0.39293936
110	0x3ecbd558	0.39811206
111	0x3db353ff	0.08756255
112	0x3e86605e	0.26245397
113	0x3cc5bea9	0.024138765
114	0x3e506013	0.2034915
115	0x3ef01351	0.46889737
116	0x3f01a4f5	0.5064233
117	0x3ed4e76f	0.4158282
118	0x3e6cec1e	0.23136947
119	0xbc9c683b	-0.01909267
120	0x3ef5e379	0.4802511
121	0x3ea28f11	0.31749776
122	0x3eb31b51	0.34981778
123	0x3dea4454	0.11438814
124	0x3ea101bf	0.31446645
125	0x3e876909	0.26447323
126	0x3eb630ae	0.35584015
127	0x3c013422	0.007885965

lstm2.bias_hh_l0 f4 [128]
0	0xba872dde	-0.0010313352
1	0xbe244432	-0.1604164
2	0xbdb63395	-0.08896557
3	0xbe476ed3	-0.1947587
4	0xbd3946ca	-0.045233525
5	0xbca12ba6	-0.019674134
6	0x3c41f49d	0.0118381055
7	0x3dec20c6	0.115296885
8	0x3cb6e759	0.022327112
9	0xbdee8bd3	-0.11647763
10	0xbdb59a6f	-0.088673465
11	0x3e39a3dd	0.18128915
12	0xbe99fb71	-0.30074647
13	0x3e14c4f4	0.14528257
14	0xbd25af9e	-0.040450685
15	0xbd9e83ee	-0.07740007
16	0x3c2a2ed2	0.010387139
17	0xbd174e2b	-0.03693978
18	0xbdc4cf4d	-0.09609852
19	0x3e556e3d	0.20842834
20	0x3e0e8842	0.13919166
21	0x3e3c5a71	0.18393876
22	0x3d4fbba8	0.050716072
23	0xbe88bddf	-0.2670736
24	0xbd1f8ec4	-0.03895451
25	0x3db26d39	0.08712239
26	0xbdde3850	-0.108505845
27	0x3bbd6fb5	0.005781139
28	0xbd029832	-0.031883426
29	0x3daab79c	0.08335802
30	0xbe313d89	-0.1730863
31	0xbe617538	-0.22017372
32	0x3eb64695	0.35600725
33	0x3e6616d3	0.22469644
34	0x3ea95a36	0.33076638
35	0x3e202ffe	0.15643308
36	0x3e48ee63	0.19622187
37	0x3e8abd56	0.27097577
38	0x3eb4e191	0.35328344
39	0x3dd8b5ef	0.10581576
40	0x3e2065f8	0.15663898
41	0x3e4846c4	0.19558245
42	0x3df58162	0.119875684
43	0x3c011c5e	0.007880298
44	0x3dea0f62	0.11428715
45	0x3de772c0	0.11301184
46	0x3db3bfe9	0.08776838
47	0x3e89be26	0.26902884
48	0xbd55deb6	-0.052214347
49	0xb8fc45aa	-0.00012029272
50	0xbd8eb833	-0.06968727
51	0x3e68b289	0.22724356
52	0x3db33c32	0.08751716
53	0x3df22e26	0.11825208
54	0x3dadb536	0.08481829
55	0x3a4fb325	0.0007923118
56	0x3ed9c28d	0.42531243
57	0x3e790d01	0.24321367
58	0x3e734e27	0.23760282
59	0x3dfba10e	0.12286578
60	0x3e4ca3c9	0.19984354
61	0x3b8ae6ac	0.004238924
62	0x3d539a0e	0.05166059
63	0x3ebaacef	0.36460063
64	0x3d8bb666	0.06821899
65	0xbcf94da3	-0.030432528
66	0x3e44f9c9	0.1923591
67	0xbe723267	-0.2365204
68	0xbd98c791	-0.07459939
69	0x3d68cab2	0.05683393
70	0x3db8f516	0.090311214
71	0xbd662f34	-0.05619736
72	0xbe289e29	-0.16466583
73	0x3e0f7f44	0.14013392
74	0xbd11cedb	-0.035597663
75	0xbe1a04b4	-0.15040857
76	0x3de6b988	0.11265856
77	0x3d3eb2aa	0.046557106
78	0xbe1547bb	-0.14578144
79	0xbe049658	-0.12947977
80	0x3dec7290	0.115452886
81	0x3db92bde	0.0904157
82	0xbbf23259	-0.007391256
83	0xbd99cde6	-0.07509975
84	0x3debe7b1	0.11518801
85	0xbd789829	-0.060691986
86	0xbe56eec0	-0.20989513
87	0xbdc67e07	-0.096920066
88	0x3da00a85	0.078145064
89	0xbe003674	-0.12520772
90	0x3de59887	0.11210733
91	0xbdde406a	-0.1085213
92	0xbcb19a2c	-0.02167996
93	0xbe4aa99e	-0.19791266
94	0x3c8cfd02	0.017210487
95	0xbe847819	-0.25872877
96	0xbd8d3c0e	-0.0689622
97	0x3e09307f	0.13397406
98	0x3e8140db	0.25244793
99	0x3e11abe3	0.14225726
100	0x3eaa8df1	0.33311418
101	0x3e56f042	0.20990089
102	0x3e36488a	0.17801109
103	0x3e391bdd	0.18077035
104	0xbc806921	-0.01567513
105	0x3ef17052	0.47156006
106	0x3ed4e391	0.4157987
107	0x3de6b465	0.11264876
108	0x3e947757	0.289973
109	0x3ed2b032	0.4115005
110	0x3ddc1350	0.10745871
111	0x3e9fb393	0.31191692
112	0x3e176eb8	0.1478833
113	0x3d204f36	0.03913804
114	0x3e11e5bf	0.14247797
115	0x3e7d76c5	0.24752338
116	0x3e55d21c	0.20880932
117	0x3eb35837	0.3502824
118	0x3e992fee	0.2991938
119	0x3ea223ac	0.3166784
120	0x3f06111f	0.52369875
121	0x3eb42a2d	0.35188428
122	0x3eace00a	0.33764678
123	0x3e8b2845	0.2717916
124	0x3e4ee21b	0.2020344
125	0x3e916783	0.28399286
126	0x3d7001ea	0.058595575
127	0x3dd94dd6	0.10610549
